INFO:root:Loading net and associated files...
WARNING: Logging before InitGoogleLogging() is written to STDERR
I1005 08:23:39.072424 21930 net.cpp:50] Initializing net from parameters: 
name: "VGG_ILSVRC_16_layer"
input: "data"
input_dim: 10
input_dim: 3
input_dim: 224
input_dim: 224
state {
  phase: TEST
}
layer {
  name: "conv1_1"
  type: "Convolution"
  bottom: "data"
  top: "conv1_1"
  param {
    name: "conv1_1_w"
    lr_mult: 1
    decay_mult: 1
  }
  param {
    name: "conv1_1_b"
    lr_mult: 2
    decay_mult: 0
  }
  convolution_param {
    num_output: 64
    pad: 1
    kernel_size: 3
  }
}
layer {
  name: "relu1_1"
  type: "ReLU"
  bottom: "conv1_1"
  top: "conv1_1"
}
layer {
  name: "conv1_2"
  type: "Convolution"
  bottom: "conv1_1"
  top: "conv1_2"
  param {
    name: "conv1_2_w"
    lr_mult: 1
    decay_mult: 1
  }
  param {
    name: "conv1_2_b"
    lr_mult: 2
    decay_mult: 0
  }
  convolution_param {
    num_output: 64
    pad: 1
    kernel_size: 3
  }
}
layer {
  name: "relu1_2"
  type: "ReLU"
  bottom: "conv1_2"
  top: "conv1_2"
}
layer {
  name: "pool1"
  type: "Pooling"
  bottom: "conv1_2"
  top: "pool1"
  pooling_param {
    pool: MAX
    kernel_size: 2
    stride: 2
  }
}
layer {
  name: "conv2_1"
  type: "Convolution"
  bottom: "pool1"
  top: "conv2_1"
  param {
    name: "conv2_1_w"
    lr_mult: 1
    decay_mult: 1
  }
  param {
    name: "conv2_1_b"
    lr_mult: 2
    decay_mult: 0
  }
  convolution_param {
    num_output: 128
    pad: 1
    kernel_size: 3
  }
}
layer {
  name: "relu2_1"
  type: "ReLU"
  bottom: "conv2_1"
  top: "conv2_1"
}
layer {
  name: "conv2_2"
  type: "Convolution"
  bottom: "conv2_1"
  top: "conv2_2"
  param {
    name: "conv2_2_w"
    lr_mult: 1
    decay_mult: 1
  }
  param {
    name: "conv2_2_b"
    lr_mult: 2
    decay_mult: 0
  }
  convolution_param {
    num_output: 128
    pad: 1
    kernel_size: 3
  }
}
layer {
  name: "relu2_2"
  type: "ReLU"
  bottom: "conv2_2"
  top: "conv2_2"
}
layer {
  name: "pool2"
  type: "Pooling"
  bottom: "conv2_2"
  top: "pool2"
  pooling_param {
    pool: MAX
    kernel_size: 2
    stride: 2
  }
}
layer {
  name: "conv3_1"
  type: "Convolution"
  bottom: "pool2"
  top: "conv3_1"
  param {
    name: "conv3_1_w"
    lr_mult: 1
    decay_mult: 1
  }
  param {
    name: "conv3_1_b"
    lr_mult: 2
    decay_mult: 0
  }
  convolution_param {
    num_output: 256
    pad: 1
    kernel_size: 3
  }
}
layer {
  name: "relu3_1"
  type: "ReLU"
  bottom: "conv3_1"
  top: "conv3_1"
}
layer {
  name: "conv3_2"
  type: "Convolution"
  bottom: "conv3_1"
  top: "conv3_2"
  param {
    name: "conv3_2_w"
    lr_mult: 1
    decay_mult: 1
  }
  param {
    name: "conv3_2_b"
    lr_mult: 2
    decay_mult: 0
  }
  convolution_param {
    num_output: 256
    pad: 1
    kernel_size: 3
  }
}
layer {
  name: "relu3_2"
  type: "ReLU"
  bottom: "conv3_2"
  top: "conv3_2"
}
layer {
  name: "conv3_3"
  type: "Convolution"
  bottom: "conv3_2"
  top: "conv3_3"
  param {
    name: "conv3_3_w"
    lr_mult: 1
    decay_mult: 1
  }
  param {
    name: "conv3_3_b"
    lr_mult: 2
    decay_mult: 0
  }
  convolution_param {
    num_output: 256
    pad: 1
    kernel_size: 3
  }
}
layer {
  name: "relu3_3"
  type: "ReLU"
  bottom: "conv3_3"
  top: "conv3_3"
}
layer {
  name: "pool3"
  type: "Pooling"
  bottom: "conv3_3"
  top: "pool3"
  pooling_param {
    pool: MAX
    kernel_size: 2
    stride: 2
  }
}
layer {
  name: "conv4_1"
  type: "Convolution"
  bottom: "pool3"
  top: "conv4_1"
  param {
    name: "conv4_1_w"
    lr_mult: 1
    decay_mult: 1
  }
  param {
    name: "conv4_1_b"
    lr_mult: 2
    decay_mult: 0
  }
  convolution_param {
    num_output: 512
    pad: 1
    kernel_size: 3
  }
}
layer {
  name: "relu4_1"
  type: "ReLU"
  bottom: "conv4_1"
  top: "conv4_1"
}
layer {
  name: "conv4_2"
  type: "Convolution"
  bottom: "conv4_1"
  top: "conv4_2"
  param {
    name: "conv4_2_w"
    lr_mult: 1
    decay_mult: 1
  }
  param {
    name: "conv4_2_b"
    lr_mult: 2
    decay_mult: 0
  }
  convolution_param {
    num_output: 512
    pad: 1
    kernel_size: 3
  }
}
layer {
  name: "relu4_2"
  type: "ReLU"
  bottom: "conv4_2"
  top: "conv4_2"
}
layer {
  name: "conv4_3"
  type: "Convolution"
  bottom: "conv4_2"
  top: "conv4_3"
  param {
    name: "conv4_3_w"
    lr_mult: 1
    decay_mult: 1
  }
  param {
    name: "conv4_3_b"
    lr_mult: 2
    decay_mult: 0
  }
  convolution_param {
    num_output: 512
    pad: 1
    kernel_size: 3
  }
}
layer {
  name: "relu4_3"
  type: "ReLU"
  bottom: "conv4_3"
  top: "conv4_3"
}
layer {
  name: "pool4"
  type: "Pooling"
  bottom: "conv4_3"
  top: "pool4"
  pooling_param {
    pool: MAX
    kernel_size: 2
    stride: 2
  }
}
layer {
  name: "conv5_1"
  type: "Convolution"
  bottom: "pool4"
  top: "conv5_1"
  param {
    name: "conv5_1_w"
    lr_mult: 1
    decay_mult: 1
  }
  param {
    name: "conv5_1_b"
    lr_mult: 2
    decay_mult: 0
  }
  convolution_param {
    num_output: 512
    pad: 1
    kernel_size: 3
  }
}
layer {
  name: "relu5_1"
  type: "ReLU"
  bottom: "conv5_1"
  top: "conv5_1"
}
layer {
  name: "conv5_2"
  type: "Convolution"
  bottom: "conv5_1"
  top: "conv5_2"
  param {
    name: "conv5_2_w"
    lr_mult: 1
    decay_mult: 1
  }
  param {
    name: "conv5_2_b"
    lr_mult: 2
    decay_mult: 0
  }
  convolution_param {
    num_output: 512
    pad: 1
    kernel_size: 3
  }
}
layer {
  name: "relu5_2"
  type: "ReLU"
  bottom: "conv5_2"
  top: "conv5_2"
}
layer {
  name: "conv5_3"
  type: "Convolution"
  bottom: "conv5_2"
  top: "conv5_3"
  param {
    name: "conv5_3_w"
    lr_mult: 1
    decay_mult: 1
  }
  param {
    name: "conv5_3_b"
    lr_mult: 2
    decay_mult: 0
  }
  convolution_param {
    num_output: 512
    pad: 1
    kernel_size: 3
  }
}
layer {
  name: "relu5_3"
  type: "ReLU"
  bottom: "conv5_3"
  top: "conv5_3"
}
layer {
  name: "pool5"
  type: "Pooling"
  bottom: "conv5_3"
  top: "pool5"
  pooling_param {
    pool: MAX
    kernel_size: 2
    stride: 2
  }
}
layer {
  name: "fc6"
  type: "InnerProduct"
  bottom: "pool5"
  top: "fc6"
  param {
    name: "fc6_w"
    lr_mult: 1
    decay_mult: 1
  }
  param {
    name: "fc6_b"
    lr_mult: 2
    decay_mult: 0
  }
  inner_product_param {
    num_output: 4096
  }
}
layer {
  name: "relu6"
  type: "ReLU"
  bottom: "fc6"
  top: "relu6"
}
layer {
  name: "drop6"
  type: "Dropout"
  bottom: "relu6"
  top: "drop6"
  dropout_param {
    dropout_ratio: 0.5
  }
}
layer {
  name: "fc7"
  type: "InnerProduct"
  bottom: "drop6"
  top: "fc7"
  param {
    name: "fc7_w"
    lr_mult: 1
    decay_mult: 1
  }
  param {
    name: "fc7_b"
    lr_mult: 2
    decay_mult: 0
  }
  inner_product_param {
    num_output: 4096
  }
}
layer {
  name: "relu7"
  type: "ReLU"
  bottom: "fc7"
  top: "relu7"
}
layer {
  name: "drop7"
  type: "Dropout"
  bottom: "relu7"
  top: "drop7"
  dropout_param {
    dropout_ratio: 0.5
  }
}
layer {
  name: "fc8"
  type: "InnerProduct"
  bottom: "drop7"
  top: "fc8"
  param {
    name: "fc8_w"
    lr_mult: 1
    decay_mult: 1
  }
  param {
    name: "fc8_b"
    lr_mult: 2
    decay_mult: 0
  }
  inner_product_param {
    num_output: 1000
  }
}
layer {
  name: "prob"
  type: "Softmax"
  bottom: "fc8"
  top: "prob"
}
I1005 08:23:39.072530 21930 net.cpp:435] Input 0 -> data
I1005 08:23:39.072556 21930 layer_factory.hpp:76] Creating layer conv1_1
I1005 08:23:39.072571 21930 net.cpp:110] Creating Layer conv1_1
I1005 08:23:39.072574 21930 net.cpp:477] conv1_1 <- data
I1005 08:23:39.072579 21930 net.cpp:433] conv1_1 -> conv1_1
I1005 08:23:39.143021 21930 net.cpp:155] Setting up conv1_1
I1005 08:23:39.143057 21930 net.cpp:163] Top shape: 10 64 224 224 (32112640)
I1005 08:23:39.143074 21930 layer_factory.hpp:76] Creating layer relu1_1
I1005 08:23:39.143084 21930 net.cpp:110] Creating Layer relu1_1
I1005 08:23:39.143087 21930 net.cpp:477] relu1_1 <- conv1_1
I1005 08:23:39.143092 21930 net.cpp:419] relu1_1 -> conv1_1 (in-place)
I1005 08:23:39.143311 21930 net.cpp:155] Setting up relu1_1
I1005 08:23:39.143321 21930 net.cpp:163] Top shape: 10 64 224 224 (32112640)
I1005 08:23:39.143326 21930 layer_factory.hpp:76] Creating layer conv1_2
I1005 08:23:39.143333 21930 net.cpp:110] Creating Layer conv1_2
I1005 08:23:39.143344 21930 net.cpp:477] conv1_2 <- conv1_1
I1005 08:23:39.143349 21930 net.cpp:433] conv1_2 -> conv1_2
I1005 08:23:39.143870 21930 net.cpp:155] Setting up conv1_2
I1005 08:23:39.143883 21930 net.cpp:163] Top shape: 10 64 224 224 (32112640)
I1005 08:23:39.143890 21930 layer_factory.hpp:76] Creating layer relu1_2
I1005 08:23:39.143898 21930 net.cpp:110] Creating Layer relu1_2
I1005 08:23:39.143901 21930 net.cpp:477] relu1_2 <- conv1_2
I1005 08:23:39.143908 21930 net.cpp:419] relu1_2 -> conv1_2 (in-place)
I1005 08:23:39.144062 21930 net.cpp:155] Setting up relu1_2
I1005 08:23:39.144073 21930 net.cpp:163] Top shape: 10 64 224 224 (32112640)
I1005 08:23:39.144078 21930 layer_factory.hpp:76] Creating layer pool1
I1005 08:23:39.144084 21930 net.cpp:110] Creating Layer pool1
I1005 08:23:39.144088 21930 net.cpp:477] pool1 <- conv1_2
I1005 08:23:39.144091 21930 net.cpp:433] pool1 -> pool1
I1005 08:23:39.144304 21930 net.cpp:155] Setting up pool1
I1005 08:23:39.144315 21930 net.cpp:163] Top shape: 10 64 112 112 (8028160)
I1005 08:23:39.144320 21930 layer_factory.hpp:76] Creating layer conv2_1
I1005 08:23:39.144326 21930 net.cpp:110] Creating Layer conv2_1
I1005 08:23:39.144330 21930 net.cpp:477] conv2_1 <- pool1
I1005 08:23:39.144335 21930 net.cpp:433] conv2_1 -> conv2_1
I1005 08:23:39.145447 21930 net.cpp:155] Setting up conv2_1
I1005 08:23:39.145459 21930 net.cpp:163] Top shape: 10 128 112 112 (16056320)
I1005 08:23:39.145467 21930 layer_factory.hpp:76] Creating layer relu2_1
I1005 08:23:39.145473 21930 net.cpp:110] Creating Layer relu2_1
I1005 08:23:39.145478 21930 net.cpp:477] relu2_1 <- conv2_1
I1005 08:23:39.145483 21930 net.cpp:419] relu2_1 -> conv2_1 (in-place)
I1005 08:23:39.145645 21930 net.cpp:155] Setting up relu2_1
I1005 08:23:39.145656 21930 net.cpp:163] Top shape: 10 128 112 112 (16056320)
I1005 08:23:39.145660 21930 layer_factory.hpp:76] Creating layer conv2_2
I1005 08:23:39.145665 21930 net.cpp:110] Creating Layer conv2_2
I1005 08:23:39.145668 21930 net.cpp:477] conv2_2 <- conv2_1
I1005 08:23:39.145674 21930 net.cpp:433] conv2_2 -> conv2_2
I1005 08:23:39.146248 21930 net.cpp:155] Setting up conv2_2
I1005 08:23:39.146260 21930 net.cpp:163] Top shape: 10 128 112 112 (16056320)
I1005 08:23:39.146266 21930 layer_factory.hpp:76] Creating layer relu2_2
I1005 08:23:39.146273 21930 net.cpp:110] Creating Layer relu2_2
I1005 08:23:39.146276 21930 net.cpp:477] relu2_2 <- conv2_2
I1005 08:23:39.146281 21930 net.cpp:419] relu2_2 -> conv2_2 (in-place)
I1005 08:23:39.146440 21930 net.cpp:155] Setting up relu2_2
I1005 08:23:39.146450 21930 net.cpp:163] Top shape: 10 128 112 112 (16056320)
I1005 08:23:39.146453 21930 layer_factory.hpp:76] Creating layer pool2
I1005 08:23:39.146461 21930 net.cpp:110] Creating Layer pool2
I1005 08:23:39.146463 21930 net.cpp:477] pool2 <- conv2_2
I1005 08:23:39.146467 21930 net.cpp:433] pool2 -> pool2
I1005 08:23:39.146683 21930 net.cpp:155] Setting up pool2
I1005 08:23:39.146693 21930 net.cpp:163] Top shape: 10 128 56 56 (4014080)
I1005 08:23:39.146698 21930 layer_factory.hpp:76] Creating layer conv3_1
I1005 08:23:39.146704 21930 net.cpp:110] Creating Layer conv3_1
I1005 08:23:39.146708 21930 net.cpp:477] conv3_1 <- pool2
I1005 08:23:39.146713 21930 net.cpp:433] conv3_1 -> conv3_1
I1005 08:23:39.147670 21930 net.cpp:155] Setting up conv3_1
I1005 08:23:39.147682 21930 net.cpp:163] Top shape: 10 256 56 56 (8028160)
I1005 08:23:39.147691 21930 layer_factory.hpp:76] Creating layer relu3_1
I1005 08:23:39.147696 21930 net.cpp:110] Creating Layer relu3_1
I1005 08:23:39.147698 21930 net.cpp:477] relu3_1 <- conv3_1
I1005 08:23:39.147703 21930 net.cpp:419] relu3_1 -> conv3_1 (in-place)
I1005 08:23:39.147858 21930 net.cpp:155] Setting up relu3_1
I1005 08:23:39.147869 21930 net.cpp:163] Top shape: 10 256 56 56 (8028160)
I1005 08:23:39.147873 21930 layer_factory.hpp:76] Creating layer conv3_2
I1005 08:23:39.147878 21930 net.cpp:110] Creating Layer conv3_2
I1005 08:23:39.147881 21930 net.cpp:477] conv3_2 <- conv3_1
I1005 08:23:39.147889 21930 net.cpp:433] conv3_2 -> conv3_2
I1005 08:23:39.149236 21930 net.cpp:155] Setting up conv3_2
I1005 08:23:39.149255 21930 net.cpp:163] Top shape: 10 256 56 56 (8028160)
I1005 08:23:39.149261 21930 layer_factory.hpp:76] Creating layer relu3_2
I1005 08:23:39.149268 21930 net.cpp:110] Creating Layer relu3_2
I1005 08:23:39.149272 21930 net.cpp:477] relu3_2 <- conv3_2
I1005 08:23:39.149276 21930 net.cpp:419] relu3_2 -> conv3_2 (in-place)
I1005 08:23:39.149500 21930 net.cpp:155] Setting up relu3_2
I1005 08:23:39.149512 21930 net.cpp:163] Top shape: 10 256 56 56 (8028160)
I1005 08:23:39.149515 21930 layer_factory.hpp:76] Creating layer conv3_3
I1005 08:23:39.149521 21930 net.cpp:110] Creating Layer conv3_3
I1005 08:23:39.149525 21930 net.cpp:477] conv3_3 <- conv3_2
I1005 08:23:39.149530 21930 net.cpp:433] conv3_3 -> conv3_3
I1005 08:23:39.150851 21930 net.cpp:155] Setting up conv3_3
I1005 08:23:39.150864 21930 net.cpp:163] Top shape: 10 256 56 56 (8028160)
I1005 08:23:39.150871 21930 layer_factory.hpp:76] Creating layer relu3_3
I1005 08:23:39.150876 21930 net.cpp:110] Creating Layer relu3_3
I1005 08:23:39.150879 21930 net.cpp:477] relu3_3 <- conv3_3
I1005 08:23:39.150884 21930 net.cpp:419] relu3_3 -> conv3_3 (in-place)
I1005 08:23:39.151113 21930 net.cpp:155] Setting up relu3_3
I1005 08:23:39.151124 21930 net.cpp:163] Top shape: 10 256 56 56 (8028160)
I1005 08:23:39.151129 21930 layer_factory.hpp:76] Creating layer pool3
I1005 08:23:39.151136 21930 net.cpp:110] Creating Layer pool3
I1005 08:23:39.151139 21930 net.cpp:477] pool3 <- conv3_3
I1005 08:23:39.151144 21930 net.cpp:433] pool3 -> pool3
I1005 08:23:39.151371 21930 net.cpp:155] Setting up pool3
I1005 08:23:39.151382 21930 net.cpp:163] Top shape: 10 256 28 28 (2007040)
I1005 08:23:39.151386 21930 layer_factory.hpp:76] Creating layer conv4_1
I1005 08:23:39.151393 21930 net.cpp:110] Creating Layer conv4_1
I1005 08:23:39.151396 21930 net.cpp:477] conv4_1 <- pool3
I1005 08:23:39.151401 21930 net.cpp:433] conv4_1 -> conv4_1
I1005 08:23:39.153919 21930 net.cpp:155] Setting up conv4_1
I1005 08:23:39.153957 21930 net.cpp:163] Top shape: 10 512 28 28 (4014080)
I1005 08:23:39.153967 21930 layer_factory.hpp:76] Creating layer relu4_1
I1005 08:23:39.153975 21930 net.cpp:110] Creating Layer relu4_1
I1005 08:23:39.153980 21930 net.cpp:477] relu4_1 <- conv4_1
I1005 08:23:39.153985 21930 net.cpp:419] relu4_1 -> conv4_1 (in-place)
I1005 08:23:39.154183 21930 net.cpp:155] Setting up relu4_1
I1005 08:23:39.154196 21930 net.cpp:163] Top shape: 10 512 28 28 (4014080)
I1005 08:23:39.154201 21930 layer_factory.hpp:76] Creating layer conv4_2
I1005 08:23:39.154208 21930 net.cpp:110] Creating Layer conv4_2
I1005 08:23:39.154212 21930 net.cpp:477] conv4_2 <- conv4_1
I1005 08:23:39.154219 21930 net.cpp:433] conv4_2 -> conv4_2
I1005 08:23:39.158360 21930 net.cpp:155] Setting up conv4_2
I1005 08:23:39.158397 21930 net.cpp:163] Top shape: 10 512 28 28 (4014080)
I1005 08:23:39.158416 21930 layer_factory.hpp:76] Creating layer relu4_2
I1005 08:23:39.158426 21930 net.cpp:110] Creating Layer relu4_2
I1005 08:23:39.158429 21930 net.cpp:477] relu4_2 <- conv4_2
I1005 08:23:39.158437 21930 net.cpp:419] relu4_2 -> conv4_2 (in-place)
I1005 08:23:39.158576 21930 net.cpp:155] Setting up relu4_2
I1005 08:23:39.158586 21930 net.cpp:163] Top shape: 10 512 28 28 (4014080)
I1005 08:23:39.158589 21930 layer_factory.hpp:76] Creating layer conv4_3
I1005 08:23:39.158596 21930 net.cpp:110] Creating Layer conv4_3
I1005 08:23:39.158599 21930 net.cpp:477] conv4_3 <- conv4_2
I1005 08:23:39.158604 21930 net.cpp:433] conv4_3 -> conv4_3
I1005 08:23:39.162601 21930 net.cpp:155] Setting up conv4_3
I1005 08:23:39.162637 21930 net.cpp:163] Top shape: 10 512 28 28 (4014080)
I1005 08:23:39.162648 21930 layer_factory.hpp:76] Creating layer relu4_3
I1005 08:23:39.162658 21930 net.cpp:110] Creating Layer relu4_3
I1005 08:23:39.162663 21930 net.cpp:477] relu4_3 <- conv4_3
I1005 08:23:39.162670 21930 net.cpp:419] relu4_3 -> conv4_3 (in-place)
I1005 08:23:39.162897 21930 net.cpp:155] Setting up relu4_3
I1005 08:23:39.162911 21930 net.cpp:163] Top shape: 10 512 28 28 (4014080)
I1005 08:23:39.162915 21930 layer_factory.hpp:76] Creating layer pool4
I1005 08:23:39.162930 21930 net.cpp:110] Creating Layer pool4
I1005 08:23:39.162935 21930 net.cpp:477] pool4 <- conv4_3
I1005 08:23:39.162952 21930 net.cpp:433] pool4 -> pool4
I1005 08:23:39.163079 21930 net.cpp:155] Setting up pool4
I1005 08:23:39.163089 21930 net.cpp:163] Top shape: 10 512 14 14 (1003520)
I1005 08:23:39.163092 21930 layer_factory.hpp:76] Creating layer conv5_1
I1005 08:23:39.163100 21930 net.cpp:110] Creating Layer conv5_1
I1005 08:23:39.163103 21930 net.cpp:477] conv5_1 <- pool4
I1005 08:23:39.163111 21930 net.cpp:433] conv5_1 -> conv5_1
I1005 08:23:39.167382 21930 net.cpp:155] Setting up conv5_1
I1005 08:23:39.167409 21930 net.cpp:163] Top shape: 10 512 14 14 (1003520)
I1005 08:23:39.167419 21930 layer_factory.hpp:76] Creating layer relu5_1
I1005 08:23:39.167429 21930 net.cpp:110] Creating Layer relu5_1
I1005 08:23:39.167434 21930 net.cpp:477] relu5_1 <- conv5_1
I1005 08:23:39.167439 21930 net.cpp:419] relu5_1 -> conv5_1 (in-place)
I1005 08:23:39.167575 21930 net.cpp:155] Setting up relu5_1
I1005 08:23:39.167585 21930 net.cpp:163] Top shape: 10 512 14 14 (1003520)
I1005 08:23:39.167589 21930 layer_factory.hpp:76] Creating layer conv5_2
I1005 08:23:39.167596 21930 net.cpp:110] Creating Layer conv5_2
I1005 08:23:39.167600 21930 net.cpp:477] conv5_2 <- conv5_1
I1005 08:23:39.167605 21930 net.cpp:433] conv5_2 -> conv5_2
I1005 08:23:39.171747 21930 net.cpp:155] Setting up conv5_2
I1005 08:23:39.171785 21930 net.cpp:163] Top shape: 10 512 14 14 (1003520)
I1005 08:23:39.171795 21930 layer_factory.hpp:76] Creating layer relu5_2
I1005 08:23:39.171805 21930 net.cpp:110] Creating Layer relu5_2
I1005 08:23:39.171810 21930 net.cpp:477] relu5_2 <- conv5_2
I1005 08:23:39.171815 21930 net.cpp:419] relu5_2 -> conv5_2 (in-place)
I1005 08:23:39.172020 21930 net.cpp:155] Setting up relu5_2
I1005 08:23:39.172031 21930 net.cpp:163] Top shape: 10 512 14 14 (1003520)
I1005 08:23:39.172035 21930 layer_factory.hpp:76] Creating layer conv5_3
I1005 08:23:39.172044 21930 net.cpp:110] Creating Layer conv5_3
I1005 08:23:39.172052 21930 net.cpp:477] conv5_3 <- conv5_2
I1005 08:23:39.172057 21930 net.cpp:433] conv5_3 -> conv5_3
I1005 08:23:39.176292 21930 net.cpp:155] Setting up conv5_3
I1005 08:23:39.176327 21930 net.cpp:163] Top shape: 10 512 14 14 (1003520)
I1005 08:23:39.176338 21930 layer_factory.hpp:76] Creating layer relu5_3
I1005 08:23:39.176347 21930 net.cpp:110] Creating Layer relu5_3
I1005 08:23:39.176352 21930 net.cpp:477] relu5_3 <- conv5_3
I1005 08:23:39.176357 21930 net.cpp:419] relu5_3 -> conv5_3 (in-place)
I1005 08:23:39.176482 21930 net.cpp:155] Setting up relu5_3
I1005 08:23:39.176494 21930 net.cpp:163] Top shape: 10 512 14 14 (1003520)
I1005 08:23:39.176499 21930 layer_factory.hpp:76] Creating layer pool5
I1005 08:23:39.176506 21930 net.cpp:110] Creating Layer pool5
I1005 08:23:39.176511 21930 net.cpp:477] pool5 <- conv5_3
I1005 08:23:39.176515 21930 net.cpp:433] pool5 -> pool5
I1005 08:23:39.176729 21930 net.cpp:155] Setting up pool5
I1005 08:23:39.176741 21930 net.cpp:163] Top shape: 10 512 7 7 (250880)
I1005 08:23:39.176745 21930 layer_factory.hpp:76] Creating layer fc6
I1005 08:23:39.176759 21930 net.cpp:110] Creating Layer fc6
I1005 08:23:39.176764 21930 net.cpp:477] fc6 <- pool5
I1005 08:23:39.176769 21930 net.cpp:433] fc6 -> fc6
I1005 08:23:39.328245 21930 net.cpp:155] Setting up fc6
I1005 08:23:39.328286 21930 net.cpp:163] Top shape: 10 4096 (40960)
I1005 08:23:39.328299 21930 layer_factory.hpp:76] Creating layer relu6
I1005 08:23:39.328310 21930 net.cpp:110] Creating Layer relu6
I1005 08:23:39.328315 21930 net.cpp:477] relu6 <- fc6
I1005 08:23:39.328322 21930 net.cpp:433] relu6 -> relu6
I1005 08:23:39.328518 21930 net.cpp:155] Setting up relu6
I1005 08:23:39.328528 21930 net.cpp:163] Top shape: 10 4096 (40960)
I1005 08:23:39.328532 21930 layer_factory.hpp:76] Creating layer drop6
I1005 08:23:39.328539 21930 net.cpp:110] Creating Layer drop6
I1005 08:23:39.328542 21930 net.cpp:477] drop6 <- relu6
I1005 08:23:39.328547 21930 net.cpp:433] drop6 -> drop6
I1005 08:23:39.328572 21930 net.cpp:155] Setting up drop6
I1005 08:23:39.328577 21930 net.cpp:163] Top shape: 10 4096 (40960)
I1005 08:23:39.328580 21930 layer_factory.hpp:76] Creating layer fc7
I1005 08:23:39.328601 21930 net.cpp:110] Creating Layer fc7
I1005 08:23:39.328605 21930 net.cpp:477] fc7 <- drop6
I1005 08:23:39.328641 21930 net.cpp:433] fc7 -> fc7
I1005 08:23:39.352069 21930 net.cpp:155] Setting up fc7
I1005 08:23:39.352110 21930 net.cpp:163] Top shape: 10 4096 (40960)
I1005 08:23:39.352124 21930 layer_factory.hpp:76] Creating layer relu7
I1005 08:23:39.352134 21930 net.cpp:110] Creating Layer relu7
I1005 08:23:39.352139 21930 net.cpp:477] relu7 <- fc7
I1005 08:23:39.352146 21930 net.cpp:433] relu7 -> relu7
I1005 08:23:39.352535 21930 net.cpp:155] Setting up relu7
I1005 08:23:39.352550 21930 net.cpp:163] Top shape: 10 4096 (40960)
I1005 08:23:39.352555 21930 layer_factory.hpp:76] Creating layer drop7
I1005 08:23:39.352560 21930 net.cpp:110] Creating Layer drop7
I1005 08:23:39.352565 21930 net.cpp:477] drop7 <- relu7
I1005 08:23:39.352569 21930 net.cpp:433] drop7 -> drop7
I1005 08:23:39.352588 21930 net.cpp:155] Setting up drop7
I1005 08:23:39.352603 21930 net.cpp:163] Top shape: 10 4096 (40960)
I1005 08:23:39.352607 21930 layer_factory.hpp:76] Creating layer fc8
I1005 08:23:39.352623 21930 net.cpp:110] Creating Layer fc8
I1005 08:23:39.352628 21930 net.cpp:477] fc8 <- drop7
I1005 08:23:39.352643 21930 net.cpp:433] fc8 -> fc8
I1005 08:23:39.358383 21930 net.cpp:155] Setting up fc8
I1005 08:23:39.358420 21930 net.cpp:163] Top shape: 10 1000 (10000)
I1005 08:23:39.358433 21930 layer_factory.hpp:76] Creating layer prob
I1005 08:23:39.358443 21930 net.cpp:110] Creating Layer prob
I1005 08:23:39.358448 21930 net.cpp:477] prob <- fc8
I1005 08:23:39.358455 21930 net.cpp:433] prob -> prob
I1005 08:23:39.358716 21930 net.cpp:155] Setting up prob
I1005 08:23:39.358729 21930 net.cpp:163] Top shape: 10 1000 (10000)
I1005 08:23:39.358733 21930 net.cpp:240] prob does not need backward computation.
I1005 08:23:39.358737 21930 net.cpp:240] fc8 does not need backward computation.
I1005 08:23:39.358741 21930 net.cpp:240] drop7 does not need backward computation.
I1005 08:23:39.358743 21930 net.cpp:240] relu7 does not need backward computation.
I1005 08:23:39.358747 21930 net.cpp:240] fc7 does not need backward computation.
…
I1005 08:23:39.887998 21930 upgrade_proto.cpp:618] Attempting to upgrade input file specified using deprecated V1LayerParameter: /works/caffe/models/vgg/vgg_layer16.caffemodel
I1005 08:23:40.124038 21930 upgrade_proto.cpp:626] Successfully upgraded file specified using deprecated V1LayerParameter
INFO:root:Load vision model, /works/caffe/models/vgg/vgg_layer16_deploy.prototxt
I1005 08:23:40.212039 21930 net.cpp:50] Initializing net from parameters: 
name: "GoogleNet"
input: "data"
input_dim: 10
input_dim: 3
input_dim: 224
input_dim: 224
state {
  phase: TEST
}
layer {
  name: "conv1/7x7_s2"
  type: "Convolution"
  bottom: "data"
  top: "conv1/7x7_s2"
  param {
    lr_mult: 1
    decay_mult: 1
  }
  param {
    lr_mult: 2
    decay_mult: 0
  }
  convolution_param {
    num_output: 64
    pad: 3
    kernel_size: 7
    stride: 2
    weight_filler {
      type: "xavier"
      std: 0.1
    }
    bias_filler {
      type: "constant"
      value: 0.2
    }
  }
}
layer {
  name: "conv1/relu_7x7"
  type: "ReLU"
  bottom: "conv1/7x7_s2"
  top: "conv1/7x7_s2"
}
layer {
  name: "pool1/3x3_s2"
  type: "Pooling"
  bottom: "conv1/7x7_s2"
  top: "pool1/3x3_s2"
  pooling_param {
    pool: MAX
    kernel_size: 3
    stride: 2
  }
}
layer {
  name: "pool1/norm1"
  type: "LRN"
  bottom: "pool1/3x3_s2"
  top: "pool1/norm1"
  lrn_param {
    local_size: 5
    alpha: 0.0001
    beta: 0.75
  }
}
layer {
  name: "conv2/3x3_reduce"
  type: "Convolution"
  bottom: "pool1/norm1"
  top: "conv2/3x3_reduce"
  param {
    lr_mult: 1
    decay_mult: 1
  }
  param {
    lr_mult: 2
    decay_mult: 0
  }
  convolution_param {
    num_output: 64
    kernel_size: 1
    weight_filler {
      type: "xavier"
      std: 0.1
    }
    bias_filler {
      type: "constant"
      value: 0.2
    }
  }
}
layer {
  name: "conv2/relu_3x3_reduce"
  type: "ReLU"
  bottom: "conv2/3x3_reduce"
  top: "conv2/3x3_reduce"
}
layer {
  name: "conv2/3x3"
  type: "Convolution"
  bottom: "conv2/3x3_reduce"
  top: "conv2/3x3"
  param {
    lr_mult: 1
    decay_mult: 1
  }
  param {
    lr_mult: 2
    decay_mult: 0
  }
  convolution_param {
    num_output: 192
    pad: 1
    kernel_size: 3
    weight_filler {
      type: "xavier"
      std: 0.03
    }
    bias_filler {
      type: "constant"
      value: 0.2
    }
  }
}
layer {
  name: "conv2/relu_3x3"
  type: "ReLU"
  bottom: "conv2/3x3"
  top: "conv2/3x3"
}
layer {
  name: "conv2/norm2"
  type: "LRN"
  bottom: "conv2/3x3"
  top: "conv2/norm2"
  lrn_param {
    local_size: 5
    alpha: 0.0001
    beta: 0.75
  }
}
layer {
  name: "pool2/3x3_s2"
  type: "Pooling"
  bottom: "conv2/norm2"
  top: "pool2/3x3_s2"
  pooling_param {
    pool: MAX
    kernel_size: 3
    stride: 2
  }
}
layer {
  name: "inception_3a/1x1"
  type: "Convolution"
  bottom: "pool2/3x3_s2"
  top: "inception_3a/1x1"
  param {
    lr_mult: 1
    decay_mult: 1
  }
  param {
    lr_mult: 2
    decay_mult: 0
  }
  convolution_param {
    num_output: 64
    kernel_size: 1
    weight_filler {
      type: "xavier"
      std: 0.03
    }
    bias_filler {
      type: "constant"
      value: 0.2
    }
  }
}
layer {
  name: "inception_3a/relu_1x1"
  type: "ReLU"
  bottom: "inception_3a/1x1"
  top: "inception_3a/1x1"
}
layer {
  name: "inception_3a/3x3_reduce"
  type: "Convolution"
  bottom: "pool2/3x3_s2"
  top: "inception_3a/3x3_reduce"
  param {
    lr_mult: 1
    decay_mult: 1
  }
  param {
    lr_mult: 2
    decay_mult: 0
  }
  convolution_param {
    num_output: 96
    kernel_size: 1
    weight_filler {
      type: "xavier"
      std: 0.09
    }
    bias_filler {
      type: "constant"
      value: 0.2
    }
  }
}
layer {
  name: "inception_3a/relu_3x3_reduce"
  type: "ReLU"
  bottom: "inception_3a/3x3_reduce"
  top: "inception_3a/3x3_reduce"
}
layer {
  name: "inception_3a/3x3"
  type: "Convolution"
  bottom: "inception_3a/3x3_reduce"
  top: "inception_3a/3x3"
  param {
    lr_mult: 1
    decay_mult: 1
  }
  param {
    lr_mult: 2
    decay_mult: 0
  }
  convolution_param {
    num_output: 128
    pad: 1
    kernel_size: 3
    weight_filler {
      type: "xavier"
      std: 0.03
    }
    bias_filler {
      type: "constant"
      value: 0.2
    }
  }
}
layer {
  name: "inception_3a/relu_3x3"
  type: "ReLU"
  bottom: "inception_3a/3x3"
  top: "inception_3a/3x3"
}
layer {
  name: "inception_3a/5x5_reduce"
  type: "Convolution"
  bottom: "pool2/3x3_s2"
  top: "inception_3a/5x5_reduce"
  param {
    lr_mult: 1
    decay_mult: 1
  }
  param {
    lr_mult: 2
    decay_mult: 0
  }
  convolution_param {
    num_output: 16
    kernel_size: 1
    weight_filler {
      type: "xavier"
      std: 0.2
    }
    bias_filler {
      type: "constant"
      value: 0.2
    }
  }
}
layer {
  name: "inception_3a/relu_5x5_reduce"
  type: "ReLU"
  bottom: "inception_3a/5x5_reduce"
  top: "inception_3a/5x5_reduce"
}
layer {
  name: "inception_3a/5x5"
  type: "Convolution"
  bottom: "inception_3a/5x5_reduce"
  top: "inception_3a/5x5"
  param {
    lr_mult: 1
    decay_mult: 1
  }
  param {
    lr_mult: 2
    decay_mult: 0
  }
  convolution_param {
    num_output: 32
    pad: 2
    kernel_size: 5
    weight_filler {
      type: "xavier"
      std: 0.03
    }
    bias_filler {
      type: "constant"
      value: 0.2
    }
  }
}
layer {
  name: "inception_3a/relu_5x5"
  type: "ReLU"
  bottom: "inception_3a/5x5"
  top: "inception_3a/5x5"
}
layer {
  name: "inception_3a/pool"
  type: "Pooling"
  bottom: "pool2/3x3_s2"
  top: "inception_3a/pool"
  pooling_param {
    pool: MAX
    kernel_size: 3
    stride: 1
    pad: 1
  }
}
layer {
  name: "inception_3a/pool_proj"
  type: "Convolution"
  bottom: "inception_3a/pool"
  top: "inception_3a/pool_proj"
  param {
    lr_mult: 1
    decay_mult: 1
  }
  param {
    lr_mult: 2
    decay_mult: 0
  }
  convolution_param {
    num_output: 32
    kernel_size: 1
    weight_filler {
      type: "xavier"
      std: 0.1
    }
    bias_filler {
      type: "constant"
      value: 0.2
    }
  }
}
layer {
  name: "inception_3a/relu_pool_proj"
  type: "ReLU"
  bottom: "inception_3a/pool_proj"
  top: "inception_3a/pool_proj"
}
layer {
  name: "inception_3a/output"
  type: "Concat"
  bottom: "inception_3a/1x1"
  bottom: "inception_3a/3x3"
  bottom: "inception_3a/5x5"
  bottom: "inception_3a/pool_proj"
  top: "inception_3a/output"
}
layer {
  name: "inception_3b/1x1"
  type: "Convolution"
  bottom: "inception_3a/output"
  top: "inception_3b/1x1"
  param {
    lr_mult: 1
    decay_mult: 1
  }
  param {
    lr_mult: 2
    decay_mult: 0
  }
  convolution_param {
    num_output: 128
    kernel_size: 1
    weight_filler {
      type: "xavier"
      std: 0.03
    }
    bias_filler {
      type: "constant"
      value: 0.2
    }
  }
}
layer {
  name: "inception_3b/relu_1x1"
  type: "ReLU"
  bottom: "inception_3b/1x1"
  top: "inception_3b/1x1"
}
layer {
  name: "inception_3b/3x3_reduce"
  type: "Convolution"
  bottom: "inception_3a/output"
  top: "inception_3b/3x3_reduce"
  param {
    lr_mult: 1
    decay_mult: 1
  }
  param {
    lr_mult: 2
    decay_mult: 0
  }
  convolution_param {
    num_output: 128
    kernel_size: 1
    weight_filler {
      type: "xavier"
      std: 0.09
    }
    bias_filler {
      type: "constant"
      value: 0.2
    }
  }
}
layer {
  name: "inception_3b/relu_3x3_reduce"
  type: "ReLU"
  bottom: "inception_3b/3x3_reduce"
  top: "inception_3b/3x3_reduce"
}
layer {
  name: "inception_3b/3x3"
  type: "Convolution"
  bottom: "inception_3b/3x3_reduce"
  top: "inception_3b/3x3"
  param {
    lr_mult: 1
    decay_mult: 1
  }
  param {
    lr_mult: 2
    decay_mult: 0
  }
  convolution_param {
    num_output: 192
    pad: 1
    kernel_size: 3
    weight_filler {
      type: "xavier"
      std: 0.03
    }
    bias_filler {
      type: "constant"
      value: 0.2
    }
  }
}
layer {
  name: "inception_3b/relu_3x3"
  type: "ReLU"
  bottom: "inception_3b/3x3"
  top: "inception_3b/3x3"
}
layer {
  name: "inception_3b/5x5_reduce"
  type: "Convolution"
  bottom: "inception_3a/output"
  top: "inception_3b/5x5_reduce"
  param {
    lr_mult: 1
    decay_mult: 1
  }
  param {
    lr_mult: 2
    decay_mult: 0
  }
  convolution_param {
    num_output: 32
    kernel_size: 1
    weight_filler {
      type: "xavier"
      std: 0.2
    }
    bias_filler {
      type: "constant"
      value: 0.2
    }
  }
}
layer {
  name: "inception_3b/relu_5x5_reduce"
  type: "ReLU"
  bottom: "inception_3b/5x5_reduce"
  top: "inception_3b/5x5_reduce"
}
layer {
  name: "inception_3b/5x5"
  type: "Convolution"
  bottom: "inception_3b/5x5_reduce"
  top: "inception_3b/5x5"
  param {
    lr_mult: 1
    decay_mult: 1
  }
  param {
    lr_mult: 2
    decay_mult: 0
  }
  convolution_param {
    num_output: 96
    pad: 2
    kernel_size: 5
    weight_filler {
      type: "xavier"
      std: 0.03
    }
    bias_filler {
      type: "constant"
      value: 0.2
    }
  }
}
layer {
  name: "inception_3b/relu_5x5"
  type: "ReLU"
  bottom: "inception_3b/5x5"
  top: "inception_3b/5x5"
}
layer {
  name: "inception_3b/pool"
  type: "Pooling"
  bottom: "inception_3a/output"
  top: "inception_3b/pool"
  pooling_param {
    pool: MAX
    kernel_size: 3
    stride: 1
    pad: 1
  }
}
layer {
  name: "inception_3b/pool_proj"
  type: "Convolution"
  bottom: "inception_3b/pool"
  top: "inception_3b/pool_proj"
  param {
    lr_mult: 1
    decay_mult: 1
  }
  param {
    lr_mult: 2
    decay_mult: 0
  }
  convolution_param {
    num_output: 64
    kernel_size: 1
    weight_filler {
      type: "xavier"
      std: 0.1
    }
    bias_filler {
      type: "constant"
      value: 0.2
    }
  }
}
layer {
  name: "inception_3b/relu_pool_proj"
  type: "ReLU"
  bottom: "inception_3b/pool_proj"
  top: "inception_3b/pool_proj"
}
layer {
  name: "inception_3b/output"
  type: "Concat"
  bottom: "inception_3b/1x1"
  bottom: "inception_3b/3x3"
  bottom: "inception_3b/5x5"
  bottom: "inception_3b/pool_proj"
  top: "inception_3b/output"
}
layer {
  name: "pool3/3x3_s2"
  type: "Pooling"
  bottom: "inception_3b/output"
  top: "pool3/3x3_s2"
  pooling_param {
    pool: MAX
    kernel_size: 3
    stride: 2
  }
}
layer {
  name: "inception_4a/1x1"
  type: "Convolution"
  bottom: "pool3/3x3_s2"
  top: "inception_4a/1x1"
  param {
    lr_mult: 1
    decay_mult: 1
  }
  param {
    lr_mult: 2
    decay_mult: 0
  }
  convolution_param {
    num_output: 192
    kernel_size: 1
    weight_filler {
      type: "xavier"
      std: 0.03
    }
    bias_filler {
      type: "constant"
      value: 0.2
    }
  }
}
layer {
  name: "inception_4a/relu_1x1"
  type: "ReLU"
  bottom: "inception_4a/1x1"
  top: "inception_4a/1x1"
}
layer {
  name: "inception_4a/3x3_reduce"
  type: "Convolution"
  bottom: "pool3/3x3_s2"
  top: "inception_4a/3x3_reduce"
  param {
    lr_mult: 1
    decay_mult: 1
  }
  param {
    lr_mult: 2
    decay_mult: 0
  }
  convolution_param {
    num_output: 96
    kernel_size: 1
    weight_filler {
      type: "xavier"
      std: 0.09
    }
    bias_filler {
      type: "constant"
      value: 0.2
    }
  }
}
layer {
  name: "inception_4a/relu_3x3_reduce"
  type: "ReLU"
  bottom: "inception_4a/3x3_reduce"
  top: "inception_4a/3x3_reduce"
}
layer {
  name: "inception_4a/3x3"
  type: "Convolution"
  bottom: "inception_4a/3x3_reduce"
  top: "inception_4a/3x3"
  param {
    lr_mult: 1
    decay_mult: 1
  }
  param {
    lr_mult: 2
    decay_mult: 0
  }
  convolution_param {
    num_output: 208
    pad: 1
    kernel_size: 3
    weight_filler {
      type: "xavier"
      std: 0.03
    }
    bias_filler {
      type: "constant"
      value: 0.2
    }
  }
}
layer {
  name: "inception_4a/relu_3x3"
  type: "ReLU"
  bottom: "inception_4a/3x3"
  top: "inception_4a/3x3"
}
layer {
  name: "inception_4a/5x5_reduce"
  type: "Convolution"
  bottom: "pool3/3x3_s2"
  top: "inception_4a/5x5_reduce"
  param {
    lr_mult: 1
    decay_mult: 1
  }
  param {
    lr_mult: 2
    decay_mult: 0
  }
  convolution_param {
    num_output: 16
    kernel_size: 1
    weight_filler {
      type: "xavier"
      std: 0.2
    }
    bias_filler {
      type: "constant"
      value: 0.2
    }
  }
}
layer {
  name: "inception_4a/relu_5x5_reduce"
  type: "ReLU"
  bottom: "inception_4a/5x5_reduce"
  top: "inception_4a/5x5_reduce"
}
layer {
  name: "inception_4a/5x5"
  type: "Convolution"
  bottom: "inception_4a/5x5_reduce"
  top: "inception_4a/5x5"
  param {
    lr_mult: 1
    decay_mult: 1
  }
  param {
    lr_mult: 2
    decay_mult: 0
  }
  convolution_param {
    num_output: 48
    pad: 2
    kernel_size: 5
    weight_filler {
      type: "xavier"
      std: 0.03
    }
    bias_filler {
      type: "constant"
      value: 0.2
    }
  }
}
layer {
  name: "inception_4a/relu_5x5"
  type: "ReLU"
  bottom: "inception_4a/5x5"
  top: "inception_4a/5x5"
}
layer {
  name: "inception_4a/pool"
  type: "Pooling"
  bottom: "pool3/3x3_s2"
  top: "inception_4a/pool"
  pooling_param {
    pool: MAX
    kernel_size: 3
    stride: 1
    pad: 1
  }
}
layer {
  name: "inception_4a/pool_proj"
  type: "Convolution"
  bottom: "inception_4a/pool"
  top: "inception_4a/pool_proj"
  param {
    lr_mult: 1
    decay_mult: 1
  }
  param {
    lr_mult: 2
    decay_mult: 0
  }
  convolution_param {
    num_output: 64
    kernel_size: 1
    weight_filler {
      type: "xavier"
      std: 0.1
    }
    bias_filler {
      type: "constant"
      value: 0.2
    }
  }
}
layer {
  name: "inception_4a/relu_pool_proj"
  type: "ReLU"
  bottom: "inception_4a/pool_proj"
  top: "inception_4a/pool_proj"
}
layer {
  name: "inception_4a/output"
  type: "Concat"
  bottom: "inception_4a/1x1"
  bottom: "inception_4a/3x3"
  bottom: "inception_4a/5x5"
  bottom: "inception_4a/pool_proj"
  top: "inception_4a/output"
}
layer {
  name: "inception_4b/1x1"
  type: "Convolution"
  bottom: "inception_4a/output"
  top: "inception_4b/1x1"
  param {
    lr_mult: 1
    decay_mult: 1
  }
  param {
    lr_mult: 2
    decay_mult: 0
  }
  convolution_param {
    num_output: 160
    kernel_size: 1
    weight_filler {
      type: "xavier"
      std: 0.03
    }
    bias_filler {
      type: "constant"
      value: 0.2
    }
  }
}
layer {
  name: "inception_4b/relu_1x1"
  type: "ReLU"
  bottom: "inception_4b/1x1"
  top: "inception_4b/1x1"
}
layer {
  name: "inception_4b/3x3_reduce"
  type: "Convolution"
  bottom: "inception_4a/output"
  top: "inception_4b/3x3_reduce"
  param {
    lr_mult: 1
    decay_mult: 1
  }
  param {
    lr_mult: 2
    decay_mult: 0
  }
  convolution_param {
    num_output: 112
    kernel_size: 1
    weight_filler {
      type: "xavier"
      std: 0.09
    }
    bias_filler {
      type: "constant"
      value: 0.2
    }
  }
}
layer {
  name: "inception_4b/relu_3x3_reduce"
  type: "ReLU"
  bottom: "inception_4b/3x3_reduce"
  top: "inception_4b/3x3_reduce"
}
layer {
  name: "inception_4b/3x3"
  type: "Convolution"
  bottom: "inception_4b/3x3_reduce"
  top: "inception_4b/3x3"
  param {
    lr_mult: 1
    decay_mult: 1
  }
  param {
    lr_mult: 2
    decay_mult: 0
  }
  convolution_param {
    num_output: 224
    pad: 1
    kernel_size: 3
    weight_filler {
      type: "xavier"
      std: 0.03
    }
    bias_filler {
      type: "constant"
      value: 0.2
    }
  }
}
layer {
  name: "inception_4b/relu_3x3"
  type: "ReLU"
  bottom: "inception_4b/3x3"
  top: "inception_4b/3x3"
}
layer {
  name: "inception_4b/5x5_reduce"
  type: "Convolution"
  bottom: "inception_4a/output"
  top: "inception_4b/5x5_reduce"
  param {
    lr_mult: 1
    decay_mult: 1
  }
  param {
    lr_mult: 2
    decay_mult: 0
  }
  convolution_param {
    num_output: 24
    kernel_size: 1
    weight_filler {
      type: "xavier"
      std: 0.2
    }
    bias_filler {
      type: "constant"
      value: 0.2
    }
  }
}
layer {
  name: "inception_4b/relu_5x5_reduce"
  type: "ReLU"
  bottom: "inception_4b/5x5_reduce"
  top: "inception_4b/5x5_reduce"
}
layer {
  name: "inception_4b/5x5"
  type: "Convolution"
  bottom: "inception_4b/5x5_reduce"
  top: "inception_4b/5x5"
  param {
    lr_mult: 1
    decay_mult: 1
  }
  param {
    lr_mult: 2
    decay_mult: 0
  }
  convolution_param {
    num_output: 64
    pad: 2
    kernel_size: 5
    weight_filler {
      type: "xavier"
      std: 0.03
    }
    bias_filler {
      type: "constant"
      value: 0.2
    }
  }
}
layer {
  name: "inception_4b/relu_5x5"
  type: "ReLU"
  bottom: "inception_4b/5x5"
  top: "inception_4b/5x5"
}
layer {
  name: "inception_4b/pool"
  type: "Pooling"
  bottom: "inception_4a/output"
  top: "inception_4b/pool"
  pooling_param {
    pool: MAX
    kernel_size: 3
    stride: 1
    pad: 1
  }
}
layer {
  name: "inception_4b/pool_proj"
  type: "Convolution"
  bottom: "inception_4b/pool"
  top: "inception_4b/pool_proj"
  param {
    lr_mult: 1
    decay_mult: 1
  }
  param {
    lr_mult: 2
    decay_mult: 0
  }
  convolution_param {
    num_output: 64
    kernel_size: 1
    weight_filler {
      type: "xavier"
      std: 0.1
    }
    bias_filler {
      type: "constant"
      value: 0.2
    }
  }
}
layer {
  name: "inception_4b/relu_pool_proj"
  type: "ReLU"
  bottom: "inception_4b/pool_proj"
  top: "inception_4b/pool_proj"
}
layer {
  name: "inception_4b/output"
  type: "Concat"
  bottom: "inception_4b/1x1"
  bottom: "inception_4b/3x3"
  bottom: "inception_4b/5x5"
  bottom: "inception_4b/pool_proj"
  top: "inception_4b/output"
}
layer {
  name: "inception_4c/1x1"
  type: "Convolution"
  bottom: "inception_4b/output"
  top: "inception_4c/1x1"
  param {
    lr_mult: 1
    decay_mult: 1
  }
  param {
    lr_mult: 2
    decay_mult: 0
  }
  convolution_param {
    num_output: 128
    kernel_size: 1
    weight_filler {
      type: "xavier"
      std: 0.03
    }
    bias_filler {
      type: "constant"
      value: 0.2
    }
  }
}
layer {
  name: "inception_4c/relu_1x1"
  type: "ReLU"
  bottom: "inception_4c/1x1"
  top: "inception_4c/1x1"
}
layer {
  name: "inception_4c/3x3_reduce"
  type: "Convolution"
  bottom: "inception_4b/output"
  top: "inception_4c/3x3_reduce"
  param {
    lr_mult: 1
    decay_mult: 1
  }
  param {
    lr_mult: 2
    decay_mult: 0
  }
  convolution_param {
    num_output: 128
    kernel_size: 1
    weight_filler {
      type: "xavier"
      std: 0.09
    }
    bias_filler {
      type: "constant"
      value: 0.2
    }
  }
}
layer {
  name: "inception_4c/relu_3x3_reduce"
  type: "ReLU"
  bottom: "inception_4c/3x3_reduce"
  top: "inception_4c/3x3_reduce"
}
layer {
  name: "inception_4c/3x3"
  type: "Convolution"
  bottom: "inception_4c/3x3_reduce"
  top: "inception_4c/3x3"
  param {
    lr_mult: 1
    decay_mult: 1
  }
  param {
    lr_mult: 2
    decay_mult: 0
  }
  convolution_param {
    num_output: 256
    pad: 1
    kernel_size: 3
    weight_filler {
      type: "xavier"
      std: 0.03
    }
    bias_filler {
      type: "constant"
      value: 0.2
    }
  }
}
layer {
  name: "inception_4c/relu_3x3"
  type: "ReLU"
  bottom: "inception_4c/3x3"
  top: "inception_4c/3x3"
}
layer {
  name: "inception_4c/5x5_reduce"
  type: "Convolution"
  bottom: "inception_4b/output"
  top: "inception_4c/5x5_reduce"
  param {
    lr_mult: 1
    decay_mult: 1
  }
  param {
    lr_mult: 2
    decay_mult: 0
  }
  convolution_param {
    num_output: 24
    kernel_size: 1
    weight_filler {
      type: "xavier"
      std: 0.2
    }
    bias_filler {
      type: "constant"
      value: 0.2
    }
  }
}
layer {
  name: "inception_4c/relu_5x5_reduce"
  type: "ReLU"
  bottom: "inception_4c/5x5_reduce"
  top: "inception_4c/5x5_reduce"
}
layer {
  name: "inception_4c/5x5"
  type: "Convolution"
  bottom: "inception_4c/5x5_reduce"
  top: "inception_4c/5x5"
  param {
    lr_mult: 1
    decay_mult: 1
  }
  param {
    lr_mult: 2
    decay_mult: 0
  }
  convolution_param {
    num_output: 64
    pad: 2
    kernel_size: 5
    weight_filler {
      type: "xavier"
      std: 0.03
    }
    bias_filler {
      type: "constant"
      value: 0.2
    }
  }
}
layer {
  name: "inception_4c/relu_5x5"
  type: "ReLU"
  bottom: "inception_4c/5x5"
  top: "inception_4c/5x5"
}
layer {
  name: "inception_4c/pool"
  type: "Pooling"
  bottom: "inception_4b/output"
  top: "inception_4c/pool"
  pooling_param {
    pool: MAX
    kernel_size: 3
    stride: 1
    pad: 1
  }
}
layer {
  name: "inception_4c/pool_proj"
  type: "Convolution"
  bottom: "inception_4c/pool"
  top: "inception_4c/pool_proj"
  param {
    lr_mult: 1
    decay_mult: 1
  }
  param {
    lr_mult: 2
    decay_mult: 0
  }
  convolution_param {
    num_output: 64
    kernel_size: 1
    weight_filler {
      type: "xavier"
      std: 0.1
    }
    bias_filler {
      type: "constant"
      value: 0.2
    }
  }
}
layer {
  name: "inception_4c/relu_pool_proj"
  type: "ReLU"
  bottom: "inception_4c/pool_proj"
  top: "inception_4c/pool_proj"
}
layer {
  name: "inception_4c/output"
  type: "Concat"
  bottom: "inception_4c/1x1"
  bottom: "inception_4c/3x3"
  bottom: "inception_4c/5x5"
  bottom: "inception_4c/pool_proj"
  top: "inception_4c/output"
}
layer {
  name: "inception_4d/1x1"
  type: "Convolution"
  bottom: "inception_4c/output"
  top: "inception_4d/1x1"
  param {
    lr_mult: 1
    decay_mult: 1
  }
  param {
    lr_mult: 2
    decay_mult: 0
  }
  convolution_param {
    num_output: 112
    kernel_size: 1
    weight_filler {
      type: "xavier"
      std: 0.03
    }
    bias_filler {
      type: "constant"
      value: 0.2
    }
  }
}
layer {
  name: "inception_4d/relu_1x1"
  type: "ReLU"
  bottom: "inception_4d/1x1"
  top: "inception_4d/1x1"
}
layer {
  name: "inception_4d/3x3_reduce"
  type: "Convolution"
  bottom: "inception_4c/output"
  top: "inception_4d/3x3_reduce"
  param {
    lr_mult: 1
    decay_mult: 1
  }
  param {
    lr_mult: 2
    decay_mult: 0
  }
  convolution_param {
    num_output: 144
    kernel_size: 1
    weight_filler {
      type: "xavier"
      std: 0.09
    }
    bias_filler {
      type: "constant"
      value: 0.2
    }
  }
}
layer {
  name: "inception_4d/relu_3x3_reduce"
  type: "ReLU"
  bottom: "inception_4d/3x3_reduce"
  top: "inception_4d/3x3_reduce"
}
layer {
  name: "inception_4d/3x3"
  type: "Convolution"
  bottom: "inception_4d/3x3_reduce"
  top: "inception_4d/3x3"
  param {
    lr_mult: 1
    decay_mult: 1
  }
  param {
    lr_mult: 2
    decay_mult: 0
  }
  convolution_param {
    num_output: 288
    pad: 1
    kernel_size: 3
    weight_filler {
      type: "xavier"
      std: 0.03
    }
    bias_filler {
      type: "constant"
      value: 0.2
    }
  }
}
layer {
  name: "inception_4d/relu_3x3"
  type: "ReLU"
  bottom: "inception_4d/3x3"
  top: "inception_4d/3x3"
}
layer {
  name: "inception_4d/5x5_reduce"
  type: "Convolution"
  bottom: "inception_4c/output"
  top: "inception_4d/5x5_reduce"
  param {
    lr_mult: 1
    decay_mult: 1
  }
  param {
    lr_mult: 2
    decay_mult: 0
  }
  convolution_param {
    num_output: 32
    kernel_size: 1
    weight_filler {
      type: "xavier"
      std: 0.2
    }
    bias_filler {
      type: "constant"
      value: 0.2
    }
  }
}
layer {
  name: "inception_4d/relu_5x5_reduce"
  type: "ReLU"
  bottom: "inception_4d/5x5_reduce"
  top: "inception_4d/5x5_reduce"
}
layer {
  name: "inception_4d/5x5"
  type: "Convolution"
  bottom: "inception_4d/5x5_reduce"
  top: "inception_4d/5x5"
  param {
    lr_mult: 1
    decay_mult: 1
  }
  param {
    lr_mult: 2
    decay_mult: 0
  }
  convolution_param {
    num_output: 64
    pad: 2
    kernel_size: 5
    weight_filler {
      type: "xavier"
      std: 0.03
    }
    bias_filler {
      type: "constant"
      value: 0.2
    }
  }
}
layer {
  name: "inception_4d/relu_5x5"
  type: "ReLU"
  bottom: "inception_4d/5x5"
  top: "inception_4d/5x5"
}
layer {
  name: "inception_4d/pool"
  type: "Pooling"
  bottom: "inception_4c/output"
  top: "inception_4d/pool"
  pooling_param {
    pool: MAX
    kernel_size: 3
    stride: 1
    pad: 1
  }
}
layer {
  name: "inception_4d/pool_proj"
  type: "Convolution"
  bottom: "inception_4d/pool"
  top: "inception_4d/pool_proj"
  param {
    lr_mult: 1
    decay_mult: 1
  }
  param {
    lr_mult: 2
    decay_mult: 0
  }
  convolution_param {
    num_output: 64
    kernel_size: 1
    weight_filler {
      type: "xavier"
      std: 0.1
    }
    bias_filler {
      type: "constant"
      value: 0.2
    }
  }
}
layer {
  name: "inception_4d/relu_pool_proj"
  type: "ReLU"
  bottom: "inception_4d/pool_proj"
  top: "inception_4d/pool_proj"
}
layer {
  name: "inception_4d/output"
  type: "Concat"
  bottom: "inception_4d/1x1"
  bottom: "inception_4d/3x3"
  bottom: "inception_4d/5x5"
  bottom: "inception_4d/pool_proj"
  top: "inception_4d/output"
}
layer {
  name: "inception_4e/1x1"
  type: "Convolution"
  bottom: "inception_4d/output"
  top: "inception_4e/1x1"
  param {
    lr_mult: 1
    decay_mult: 1
  }
  param {
    lr_mult: 2
    decay_mult: 0
  }
  convolution_param {
    num_output: 256
    kernel_size: 1
    weight_filler {
      type: "xavier"
      std: 0.03
    }
    bias_filler {
      type: "constant"
      value: 0.2
    }
  }
}
layer {
  name: "inception_4e/relu_1x1"
  type: "ReLU"
  bottom: "inception_4e/1x1"
  top: "inception_4e/1x1"
}
layer {
  name: "inception_4e/3x3_reduce"
  type: "Convolution"
  bottom: "inception_4d/output"
  top: "inception_4e/3x3_reduce"
  param {
    lr_mult: 1
    decay_mult: 1
  }
  param {
    lr_mult: 2
    decay_mult: 0
  }
  convolution_param {
    num_output: 160
    kernel_size: 1
    weight_filler {
      type: "xavier"
      std: 0.09
    }
    bias_filler {
      type: "constant"
      value: 0.2
    }
  }
}
layer {
  name: "inception_4e/relu_3x3_reduce"
  type: "ReLU"
  bottom: "inception_4e/3x3_reduce"
  top: "inception_4e/3x3_reduce"
}
layer {
  name: "inception_4e/3x3"
  type: "Convolution"
  bottom: "inception_4e/3x3_reduce"
  top: "inception_4e/3x3"
  param {
    lr_mult: 1
    decay_mult: 1
  }
  param {
    lr_mult: 2
    decay_mult: 0
  }
  convolution_param {
    num_output: 320
    pad: 1
    kernel_size: 3
    weight_filler {
      type: "xavier"
      std: 0.03
    }
    bias_filler {
      type: "constant"
      value: 0.2
    }
  }
}
layer {
  name: "inception_4e/relu_3x3"
  type: "ReLU"
  bottom: "inception_4e/3x3"
  top: "inception_4e/3x3"
}
layer {
  name: "inception_4e/5x5_reduce"
  type: "Convolution"
  bottom: "inception_4d/output"
  top: "inception_4e/5x5_reduce"
  param {
    lr_mult: 1
    decay_mult: 1
  }
  param {
    lr_mult: 2
    decay_mult: 0
  }
  convolution_param {
    num_output: 32
    kernel_size: 1
    weight_filler {
      type: "xavier"
      std: 0.2
    }
    bias_filler {
      type: "constant"
      value: 0.2
    }
  }
}
layer {
  name: "inception_4e/relu_5x5_reduce"
  type: "ReLU"
  bottom: "inception_4e/5x5_reduce"
  top: "inception_4e/5x5_reduce"
}
layer {
  name: "inception_4e/5x5"
  type: "Convolution"
  bottom: "inception_4e/5x5_reduce"
  top: "inception_4e/5x5"
  param {
    lr_mult: 1
    decay_mult: 1
  }
  param {
    lr_mult: 2
    decay_mult: 0
  }
  convolution_param {
    num_output: 128
    pad: 2
    kernel_size: 5
    weight_filler {
      type: "xavier"
      std: 0.03
    }
    bias_filler {
      type: "constant"
      value: 0.2
    }
  }
}
layer {
  name: "inception_4e/relu_5x5"
  type: "ReLU"
  bottom: "inception_4e/5x5"
  top: "inception_4e/5x5"
}
layer {
  name: "inception_4e/pool"
  type: "Pooling"
  bottom: "inception_4d/output"
  top: "inception_4e/pool"
  pooling_param {
    pool: MAX
    kernel_size: 3
    stride: 1
    pad: 1
  }
}
layer {
  name: "inception_4e/pool_proj"
  type: "Convolution"
  bottom: "inception_4e/pool"
  top: "inception_4e/pool_proj"
  param {
    lr_mult: 1
    decay_mult: 1
  }
  param {
    lr_mult: 2
    decay_mult: 0
  }
  convolution_param {
    num_output: 128
    kernel_size: 1
    weight_filler {
      type: "xavier"
      std: 0.1
    }
    bias_filler {
      type: "constant"
      value: 0.2
    }
  }
}
layer {
  name: "inception_4e/relu_pool_proj"
  type: "ReLU"
  bottom: "inception_4e/pool_proj"
  top: "inception_4e/pool_proj"
}
layer {
  name: "inception_4e/output"
  type: "Concat"
  bottom: "inception_4e/1x1"
  bottom: "inception_4e/3x3"
  bottom: "inception_4e/5x5"
  bottom: "inception_4e/pool_proj"
  top: "inception_4e/output"
}
layer {
  name: "pool4/3x3_s2"
  type: "Pooling"
  bottom: "inception_4e/output"
  top: "pool4/3x3_s2"
  pooling_param {
    pool: MAX
    kernel_size: 3
    stride: 2
  }
}
layer {
  name: "inception_5a/1x1"
  type: "Convolution"
  bottom: "pool4/3x3_s2"
  top: "inception_5a/1x1"
  param {
    lr_mult: 1
    decay_mult: 1
  }
  param {
    lr_mult: 2
    decay_mult: 0
  }
  convolution_param {
    num_output: 256
    kernel_size: 1
    weight_filler {
      type: "xavier"
      std: 0.03
    }
    bias_filler {
      type: "constant"
      value: 0.2
    }
  }
}
layer {
  name: "inception_5a/relu_1x1"
  type: "ReLU"
  bottom: "inception_5a/1x1"
  top: "inception_5a/1x1"
}
layer {
  name: "inception_5a/3x3_reduce"
  type: "Convolution"
  bottom: "pool4/3x3_s2"
  top: "inception_5a/3x3_reduce"
  param {
    lr_mult: 1
    decay_mult: 1
  }
  param {
    lr_mult: 2
    decay_mult: 0
  }
  convolution_param {
    num_output: 160
    kernel_size: 1
    weight_filler {
      type: "xavier"
      std: 0.09
    }
    bias_filler {
      type: "constant"
      value: 0.2
    }
  }
}
layer {
  name: "inception_5a/relu_3x3_reduce"
  type: "ReLU"
  bottom: "inception_5a/3x3_reduce"
  top: "inception_5a/3x3_reduce"
}
layer {
  name: "inception_5a/3x3"
  type: "Convolution"
  bottom: "inception_5a/3x3_reduce"
  top: "inception_5a/3x3"
  param {
    lr_mult: 1
    decay_mult: 1
  }
  param {
    lr_mult: 2
    decay_mult: 0
  }
  convolution_param {
    num_output: 320
    pad: 1
    kernel_size: 3
    weight_filler {
      type: "xavier"
      std: 0.03
    }
    bias_filler {
      type: "constant"
      value: 0.2
    }
  }
}
layer {
  name: "inception_5a/relu_3x3"
  type: "ReLU"
  bottom: "inception_5a/3x3"
  top: "inception_5a/3x3"
}
layer {
  name: "inception_5a/5x5_reduce"
  type: "Convolution"
  bottom: "pool4/3x3_s2"
  top: "inception_5a/5x5_reduce"
  param {
    lr_mult: 1
    decay_mult: 1
  }
  param {
    lr_mult: 2
    decay_mult: 0
  }
  convolution_param {
    num_output: 32
    kernel_size: 1
    weight_filler {
      type: "xavier"
      std: 0.2
    }
    bias_filler {
      type: "constant"
      value: 0.2
    }
  }
}
layer {
  name: "inception_5a/relu_5x5_reduce"
  type: "ReLU"
  bottom: "
I1005 08:23:40.212443 21930 net.cpp:435] Input 0 -> data
I1005 08:23:40.212481 21930 layer_factory.hpp:76] Creating layer conv1/7x7_s2
I1005 08:23:40.212491 21930 net.cpp:110] Creating Layer conv1/7x7_s2
I1005 08:23:40.212496 21930 net.cpp:477] conv1/7x7_s2 <- data
I1005 08:23:40.212502 21930 net.cpp:433] conv1/7x7_s2 -> conv1/7x7_s2
I1005 08:23:40.213474 21930 net.cpp:155] Setting up conv1/7x7_s2
I1005 08:23:40.213498 21930 net.cpp:163] Top shape: 10 64 112 112 (8028160)
I1005 08:23:40.213507 21930 layer_factory.hpp:76] Creating layer conv1/relu_7x7
I1005 08:23:40.213516 21930 net.cpp:110] Creating Layer conv1/relu_7x7
I1005 08:23:40.213536 21930 net.cpp:477] conv1/relu_7x7 <- conv1/7x7_s2
I1005 08:23:40.213541 21930 net.cpp:419] conv1/relu_7x7 -> conv1/7x7_s2 (in-place)
I1005 08:23:40.213793 21930 net.cpp:155] Setting up conv1/relu_7x7
I1005 08:23:40.213804 21930 net.cpp:163] Top shape: 10 64 112 112 (8028160)
I1005 08:23:40.213819 21930 layer_factory.hpp:76] Creating layer pool1/3x3_s2
I1005 08:23:40.213824 21930 net.cpp:110] Creating Layer pool1/3x3_s2
I1005 08:23:40.213827 21930 net.cpp:477] pool1/3x3_s2 <- conv1/7x7_s2
I1005 08:23:40.213834 21930 net.cpp:433] pool1/3x3_s2 -> pool1/3x3_s2
I1005 08:23:40.213973 21930 net.cpp:155] Setting up pool1/3x3_s2
I1005 08:23:40.213981 21930 net.cpp:163] Top shape: 10 64 56 56 (2007040)
I1005 08:23:40.213995 21930 layer_factory.hpp:76] Creating layer pool1/norm1
I1005 08:23:40.214000 21930 net.cpp:110] Creating Layer pool1/norm1
I1005 08:23:40.214004 21930 net.cpp:477] pool1/norm1 <- pool1/3x3_s2
I1005 08:23:40.214010 21930 net.cpp:433] pool1/norm1 -> pool1/norm1
I1005 08:23:40.214025 21930 net.cpp:155] Setting up pool1/norm1
I1005 08:23:40.214030 21930 net.cpp:163] Top shape: 10 64 56 56 (2007040)
I1005 08:23:40.214043 21930 layer_factory.hpp:76] Creating layer conv2/3x3_reduce
I1005 08:23:40.214051 21930 net.cpp:110] Creating Layer conv2/3x3_reduce
I1005 08:23:40.214054 21930 net.cpp:477] conv2/3x3_reduce <- pool1/norm1
I1005 08:23:40.214059 21930 net.cpp:433] conv2/3x3_reduce -> conv2/3x3_reduce
I1005 08:23:40.214596 21930 net.cpp:155] Setting up conv2/3x3_reduce
I1005 08:23:40.214607 21930 net.cpp:163] Top shape: 10 64 56 56 (2007040)
I1005 08:23:40.214627 21930 layer_factory.hpp:76] Creating layer conv2/relu_3x3_reduce
I1005 08:23:40.214632 21930 net.cpp:110] Creating Layer conv2/relu_3x3_reduce
I1005 08:23:40.214637 21930 net.cpp:477] conv2/relu_3x3_reduce <- conv2/3x3_reduce
I1005 08:23:40.214643 21930 net.cpp:419] conv2/relu_3x3_reduce -> conv2/3x3_reduce (in-place)
I1005 08:23:40.214797 21930 net.cpp:155] Setting up conv2/relu_3x3_reduce
I1005 08:23:40.214805 21930 net.cpp:163] Top shape: 10 64 56 56 (2007040)
I1005 08:23:40.214819 21930 layer_factory.hpp:76] Creating layer conv2/3x3
I1005 08:23:40.214825 21930 net.cpp:110] Creating Layer conv2/3x3
I1005 08:23:40.214828 21930 net.cpp:477] conv2/3x3 <- conv2/3x3_reduce
I1005 08:23:40.214834 21930 net.cpp:433] conv2/3x3 -> conv2/3x3
I1005 08:23:40.216166 21930 net.cpp:155] Setting up conv2/3x3
I1005 08:23:40.216179 21930 net.cpp:163] Top shape: 10 192 56 56 (6021120)
I1005 08:23:40.216199 21930 layer_factory.hpp:76] Creating layer conv2/relu_3x3
I1005 08:23:40.216209 21930 net.cpp:110] Creating Layer conv2/relu_3x3
I1005 08:23:40.216214 21930 net.cpp:477] conv2/relu_3x3 <- conv2/3x3
I1005 08:23:40.216218 21930 net.cpp:419] conv2/relu_3x3 -> conv2/3x3 (in-place)
I1005 08:23:40.216408 21930 net.cpp:155] Setting up conv2/relu_3x3
I1005 08:23:40.216419 21930 net.cpp:163] Top shape: 10 192 56 56 (6021120)
I1005 08:23:40.216434 21930 layer_factory.hpp:76] Creating layer conv2/norm2
I1005 08:23:40.216441 21930 net.cpp:110] Creating Layer conv2/norm2
I1005 08:23:40.216455 21930 net.cpp:477] conv2/norm2 <- conv2/3x3
I1005 08:23:40.216460 21930 net.cpp:433] conv2/norm2 -> conv2/norm2
I1005 08:23:40.216466 21930 net.cpp:155] Setting up conv2/norm2
I1005 08:23:40.216481 21930 net.cpp:163] Top shape: 10 192 56 56 (6021120)
I1005 08:23:40.216486 21930 layer_factory.hpp:76] Creating layer pool2/3x3_s2
I1005 08:23:40.216501 21930 net.cpp:110] Creating Layer pool2/3x3_s2
I1005 08:23:40.216505 21930 net.cpp:477] pool2/3x3_s2 <- conv2/norm2
I1005 08:23:40.216508 21930 net.cpp:433] pool2/3x3_s2 -> pool2/3x3_s2
I1005 08:23:40.216632 21930 net.cpp:155] Setting up pool2/3x3_s2
I1005 08:23:40.216641 21930 net.cpp:163] Top shape: 10 192 28 28 (1505280)
I1005 08:23:40.216655 21930 layer_factory.hpp:76] Creating layer pool2/3x3_s2_pool2/3x3_s2_0_split
I1005 08:23:40.216660 21930 net.cpp:110] Creating Layer pool2/3x3_s2_pool2/3x3_s2_0_split
I1005 08:23:40.216662 21930 net.cpp:477] pool2/3x3_s2_pool2/3x3_s2_0_split <- pool2/3x3_s2
I1005 08:23:40.216672 21930 net.cpp:433] pool2/3x3_s2_pool2/3x3_s2_0_split -> pool2/3x3_s2_pool2/3x3_s2_0_split_0
I1005 08:23:40.216693 21930 net.cpp:433] pool2/3x3_s2_pool2/3x3_s2_0_split -> pool2/3x3_s2_pool2/3x3_s2_0_split_1
I1005 08:23:40.216709 21930 net.cpp:433] pool2/3x3_s2_pool2/3x3_s2_0_split -> pool2/3x3_s2_pool2/3x3_s2_0_split_2
I1005 08:23:40.216714 21930 net.cpp:433] pool2/3x3_s2_pool2/3x3_s2_0_split -> pool2/3x3_s2_pool2/3x3_s2_0_split_3
I1005 08:23:40.216722 21930 net.cpp:155] Setting up pool2/3x3_s2_pool2/3x3_s2_0_split
I1005 08:23:40.216727 21930 net.cpp:163] Top shape: 10 192 28 28 (1505280)
I1005 08:23:40.216732 21930 net.cpp:163] Top shape: 10 192 28 28 (1505280)
I1005 08:23:40.216735 21930 net.cpp:163] Top shape: 10 192 28 28 (1505280)
I1005 08:23:40.216740 21930 net.cpp:163] Top shape: 10 192 28 28 (1505280)
I1005 08:23:40.216744 21930 layer_factory.hpp:76] Creating layer inception_3a/1x1
I1005 08:23:40.216750 21930 net.cpp:110] Creating Layer inception_3a/1x1
I1005 08:23:40.216754 21930 net.cpp:477] inception_3a/1x1 <- pool2/3x3_s2_pool2/3x3_s2_0_split_0
I1005 08:23:40.216760 21930 net.cpp:433] inception_3a/1x1 -> inception_3a/1x1
I1005 08:23:40.217376 21930 net.cpp:155] Setting up inception_3a/1x1
I1005 08:23:40.217388 21930 net.cpp:163] Top shape: 10 64 28 28 (501760)
I1005 08:23:40.217406 21930 layer_factory.hpp:76] Creating layer inception_3a/relu_1x1
I1005 08:23:40.217411 21930 net.cpp:110] Creating Layer inception_3a/relu_1x1
I1005 08:23:40.217416 21930 net.cpp:477] inception_3a/relu_1x1 <- inception_3a/1x1
I1005 08:23:40.217420 21930 net.cpp:419] inception_3a/relu_1x1 -> inception_3a/1x1 (in-place)
I1005 08:23:40.217617 21930 net.cpp:155] Setting up inception_3a/relu_1x1
I1005 08:23:40.217630 21930 net.cpp:163] Top shape: 10 64 28 28 (501760)
I1005 08:23:40.217635 21930 layer_factory.hpp:76] Creating layer inception_3a/3x3_reduce
I1005 08:23:40.217641 21930 net.cpp:110] Creating Layer inception_3a/3x3_reduce
I1005 08:23:40.217646 21930 net.cpp:477] inception_3a/3x3_reduce <- pool2/3x3_s2_pool2/3x3_s2_0_split_1
I1005 08:23:40.217653 21930 net.cpp:433] inception_3a/3x3_reduce -> inception_3a/3x3_reduce
I1005 08:23:40.218186 21930 net.cpp:155] Setting up inception_3a/3x3_reduce
I1005 08:23:40.218199 21930 net.cpp:163] Top shape: 10 96 28 28 (752640)
I1005 08:23:40.218209 21930 layer_factory.hpp:76] Creating layer inception_3a/relu_3x3_reduce
I1005 08:23:40.218214 21930 net.cpp:110] Creating Layer inception_3a/relu_3x3_reduce
I1005 08:23:40.218219 21930 net.cpp:477] inception_3a/relu_3x3_reduce <- inception_3a/3x3_reduce
I1005 08:23:40.218225 21930 net.cpp:419] inception_3a/relu_3x3_reduce -> inception_3a/3x3_reduce (in-place)
I1005 08:23:40.218420 21930 net.cpp:155] Setting up inception_3a/relu_3x3_reduce
I1005 08:23:40.218432 21930 net.cpp:163] Top shape: 10 96 28 28 (752640)
I1005 08:23:40.218436 21930 layer_factory.hpp:76] Creating layer inception_3a/3x3
I1005 08:23:40.218443 21930 net.cpp:110] Creating Layer inception_3a/3x3
I1005 08:23:40.218447 21930 net.cpp:477] inception_3a/3x3 <- inception_3a/3x3_reduce
I1005 08:23:40.218453 21930 net.cpp:433] inception_3a/3x3 -> inception_3a/3x3
I1005 08:23:40.219511 21930 net.cpp:155] Setting up inception_3a/3x3
I1005 08:23:40.219522 21930 net.cpp:163] Top shape: 10 128 28 28 (1003520)
I1005 08:23:40.219529 21930 layer_factory.hpp:76] Creating layer inception_3a/relu_3x3
I1005 08:23:40.219537 21930 net.cpp:110] Creating Layer inception_3a/relu_3x3
I1005 08:23:40.219542 21930 net.cpp:477] inception_3a/relu_3x3 <- inception_3a/3x3
I1005 08:23:40.219547 21930 net.cpp:419] inception_3a/relu_3x3 -> inception_3a/3x3 (in-place)
I1005 08:23:40.219671 21930 net.cpp:155] Setting up inception_3a/relu_3x3
I1005 08:23:40.219679 21930 net.cpp:163] Top shape: 10 128 28 28 (1003520)
I1005 08:23:40.219693 21930 layer_factory.hpp:76] Creating layer inception_3a/5x5_reduce
I1005 08:23:40.219699 21930 net.cpp:110] Creating Layer inception_3a/5x5_reduce
I1005 08:23:40.219703 21930 net.cpp:477] inception_3a/5x5_reduce <- pool2/3x3_s2_pool2/3x3_s2_0_split_2
I1005 08:23:40.219713 21930 net.cpp:433] inception_3a/5x5_reduce -> inception_3a/5x5_reduce
I1005 08:23:40.220278 21930 net.cpp:155] Setting up inception_3a/5x5_reduce
I1005 08:23:40.220290 21930 net.cpp:163] Top shape: 10 16 28 28 (125440)
I1005 08:23:40.220298 21930 layer_factory.hpp:76] Creating layer inception_3a/relu_5x5_reduce
I1005 08:23:40.220304 21930 net.cpp:110] Creating Layer inception_3a/relu_5x5_reduce
I1005 08:23:40.220309 21930 net.cpp:477] inception_3a/relu_5x5_reduce <- inception_3a/5x5_reduce
I1005 08:23:40.220314 21930 net.cpp:419] inception_3a/relu_5x5_reduce -> inception_3a/5x5_reduce (in-place)
I1005 08:23:40.220495 21930 net.cpp:155] Setting up inception_3a/relu_5x5_reduce
I1005 08:23:40.220506 21930 net.cpp:163] Top shape: 10 16 28 28 (125440)
I1005 08:23:40.220511 21930 layer_factory.hpp:76] Creating layer inception_3a/5x5
I1005 08:23:40.220525 21930 net.cpp:110] Creating Layer inception_3a/5x5
I1005 08:23:40.220531 21930 net.cpp:477] inception_3a/5x5 <- inception_3a/5x5_reduce
I1005 08:23:40.220538 21930 net.cpp:433] inception_3a/5x5 -> inception_3a/5x5
I1005 08:23:40.221067 21930 net.cpp:155] Setting up inception_3a/5x5
I1005 08:23:40.221079 21930 net.cpp:163] Top shape: 10 32 28 28 (250880)
I1005 08:23:40.221096 21930 layer_factory.hpp:76] Creating layer inception_3a/relu_5x5
I1005 08:23:40.221101 21930 net.cpp:110] Creating Layer inception_3a/relu_5x5
I1005 08:23:40.221107 21930 net.cpp:477] inception_3a/relu_5x5 <- inception_3a/5x5
I1005 08:23:40.221112 21930 net.cpp:419] inception_3a/relu_5x5 -> inception_3a/5x5 (in-place)
I1005 08:23:40.221321 21930 net.cpp:155] Setting up inception_3a/relu_5x5
I1005 08:23:40.221333 21930 net.cpp:163] Top shape: 10 32 28 28 (250880)
I1005 08:23:40.221346 21930 layer_factory.hpp:76] Creating layer inception_3a/pool
I1005 08:23:40.221350 21930 layer_factory.cpp:60] CUDNN does not support padding or multiple tops. Using Caffe's own pooling layer.
I1005 08:23:40.221356 21930 net.cpp:110] Creating Layer inception_3a/pool
I1005 08:23:40.221360 21930 net.cpp:477] inception_3a/pool <- pool2/3x3_s2_pool2/3x3_s2_0_split_3
I1005 08:23:40.221365 21930 net.cpp:433] inception_3a/pool -> inception_3a/pool
I1005 08:23:40.221372 21930 net.cpp:155] Setting up inception_3a/pool
I1005 08:23:40.221377 21930 net.cpp:163] Top shape: 10 192 28 28 (1505280)
I1005 08:23:40.221380 21930 layer_factory.hpp:76] Creating layer inception_3a/pool_proj
I1005 08:23:40.221385 21930 net.cpp:110] Creating Layer inception_3a/pool_proj
I1005 08:23:40.221390 21930 net.cpp:477] inception_3a/pool_proj <- inception_3a/pool
I1005 08:23:40.221395 21930 net.cpp:433] inception_3a/pool_proj -> inception_3a/pool_proj
I1005 08:23:40.222018 21930 net.cpp:155] Setting up inception_3a/pool_proj
I1005 08:23:40.222029 21930 net.cpp:163] Top shape: 10 32 28 28 (250880)
I1005 08:23:40.222048 21930 layer_factory.hpp:76] Creating layer inception_3a/relu_pool_proj
I1005 08:23:40.222054 21930 net.cpp:110] Creating Layer inception_3a/relu_pool_proj
I1005 08:23:40.222057 21930 net.cpp:477] inception_3a/relu_pool_proj <- inception_3a/pool_proj
I1005 08:23:40.222062 21930 net.cpp:419] inception_3a/relu_pool_proj -> inception_3a/pool_proj (in-place)
I1005 08:23:40.222175 21930 net.cpp:155] Setting up inception_3a/relu_pool_proj
I1005 08:23:40.222183 21930 net.cpp:163] Top shape: 10 32 28 28 (250880)
I1005 08:23:40.222188 21930 layer_factory.hpp:76] Creating layer inception_3a/output
I1005 08:23:40.222194 21930 net.cpp:110] Creating Layer inception_3a/output
I1005 08:23:40.222208 21930 net.cpp:477] inception_3a/output <- inception_3a/1x1
I1005 08:23:40.222213 21930 net.cpp:477] inception_3a/output <- inception_3a/3x3
I1005 08:23:40.222216 21930 net.cpp:477] inception_3a/output <- inception_3a/5x5
I1005 08:23:40.222219 21930 net.cpp:477] inception_3a/output <- inception_3a/pool_proj
I1005 08:23:40.222225 21930 net.cpp:433] inception_3a/output -> inception_3a/output
I1005 08:23:40.222239 21930 net.cpp:155] Setting up inception_3a/output
I1005 08:23:40.222254 21930 net.cpp:163] Top shape: 10 256 28 28 (2007040)
I1005 08:23:40.222257 21930 layer_factory.hpp:76] Creating layer inception_3a/output_inception_3a/output_0_split
I1005 08:23:40.222265 21930 net.cpp:110] Creating Layer inception_3a/output_inception_3a/output_0_split
I1005 08:23:40.222270 21930 net.cpp:477] inception_3a/output_inception_3a/output_0_split <- inception_3a/output
I1005 08:23:40.222285 21930 net.cpp:433] inception_3a/output_inception_3a/output_0_split -> inception_3a/output_inception_3a/output_0_split_0
I1005 08:23:40.222292 21930 net.cpp:433] inception_3a/output_inception_3a/output_0_split -> inception_3a/output_inception_3a/output_0_split_1
I1005 08:23:40.222297 21930 net.cpp:433] inception_3a/output_inception_3a/output_0_split -> inception_3a/output_inception_3a/output_0_split_2
I1005 08:23:40.222301 21930 net.cpp:433] inception_3a/output_inception_3a/output_0_split -> inception_3a/output_inception_3a/output_0_split_3
I1005 08:23:40.222307 21930 net.cpp:155] Setting up inception_3a/output_inception_3a/output_0_split
I1005 08:23:40.222312 21930 net.cpp:163] Top shape: 10 256 28 28 (2007040)
I1005 08:23:40.222316 21930 net.cpp:163] Top shape: 10 256 28 28 (2007040)
I1005 08:23:40.222321 21930 net.cpp:163] Top shape: 10 256 28 28 (2007040)
I1005 08:23:40.222334 21930 net.cpp:163] Top shape: 10 256 28 28 (2007040)
I1005 08:23:40.222338 21930 layer_factory.hpp:76] Creating layer inception_3b/1x1
I1005 08:23:40.222353 21930 net.cpp:110] Creating Layer inception_3b/1x1
I1005 08:23:40.222358 21930 net.cpp:477] inception_3b/1x1 <- inception_3a/output_inception_3a/output_0_split_0
I1005 08:23:40.222363 21930 net.cpp:433] inception_3b/1x1 -> inception_3b/1x1
I1005 08:23:40.223042 21930 net.cpp:155] Setting up inception_3b/1x1
I1005 08:23:40.223054 21930 net.cpp:163] Top shape: 10 128 28 28 (1003520)
I1005 08:23:40.223073 21930 layer_factory.hpp:76] Creating layer inception_3b/relu_1x1
I1005 08:23:40.223089 21930 net.cpp:110] Creating Layer inception_3b/relu_1x1
I1005 08:23:40.223096 21930 net.cpp:477] inception_3b/relu_1x1 <- inception_3b/1x1
I1005 08:23:40.223101 21930 net.cpp:419] inception_3b/relu_1x1 -> inception_3b/1x1 (in-place)
I1005 08:23:40.223306 21930 net.cpp:155] Setting up inception_3b/relu_1x1
I1005 08:23:40.223317 21930 net.cpp:163] Top shape: 10 128 28 28 (1003520)
I1005 08:23:40.223332 21930 layer_factory.hpp:76] Creating layer inception_3b/3x3_reduce
I1005 08:23:40.223340 21930 net.cpp:110] Creating Layer inception_3b/3x3_reduce
I1005 08:23:40.223345 21930 net.cpp:477] inception_3b/3x3_reduce <- inception_3a/output_inception_3a/output_0_split_1
I1005 08:23:40.223351 21930 net.cpp:433] inception_3b/3x3_reduce -> inception_3b/3x3_reduce
I1005 08:23:40.223953 21930 net.cpp:155] Setting up inception_3b/3x3_reduce
I1005 08:23:40.223964 21930 net.cpp:163] Top shape: 10 128 28 28 (1003520)
I1005 08:23:40.223981 21930 layer_factory.hpp:76] Creating layer inception_3b/relu_3x3_reduce
I1005 08:23:40.223987 21930 net.cpp:110] Creating Layer inception_3b/relu_3x3_reduce
I1005 08:23:40.223992 21930 net.cpp:477] inception_3b/relu_3x3_reduce <- inception_3b/3x3_reduce
I1005 08:23:40.223997 21930 net.cpp:419] inception_3b/relu_3x3_reduce -> inception_3b/3x3_reduce (in-place)
I1005 08:23:40.224205 21930 net.cpp:155] Setting up inception_3b/relu_3x3_reduce
I1005 08:23:40.224217 21930 net.cpp:163] Top shape: 10 128 28 28 (1003520)
I1005 08:23:40.224241 21930 layer_factory.hpp:76] Creating layer inception_3b/3x3
I1005 08:23:40.224248 21930 net.cpp:110] Creating Layer inception_3b/3x3
I1005 08:23:40.224253 21930 net.cpp:477] inception_3b/3x3 <- inception_3b/3x3_reduce
I1005 08:23:40.224259 21930 net.cpp:433] inception_3b/3x3 -> inception_3b/3x3
I1005 08:23:40.226097 21930 net.cpp:155] Setting up inception_3b/3x3
I1005 08:23:40.226109 21930 net.cpp:163] Top shape: 10 192 28 28 (1505280)
I1005 08:23:40.226126 21930 layer_factory.hpp:76] Creating layer inception_3b/relu_3x3
I1005 08:23:40.226133 21930 net.cpp:110] Creating Layer inception_3b/relu_3x3
I1005 08:23:40.226137 21930 net.cpp:477] inception_3b/relu_3x3 <- inception_3b/3x3
I1005 08:23:40.226143 21930 net.cpp:419] inception_3b/relu_3x3 -> inception_3b/3x3 (in-place)
I1005 08:23:40.226276 21930 net.cpp:155] Setting up inception_3b/relu_3x3
I1005 08:23:40.226287 21930 net.cpp:163] Top shape: 10 192 28 28 (1505280)
I1005 08:23:40.226302 21930 layer_factory.hpp:76] Creating layer inception_3b/5x5_reduce
I1005 08:23:40.226311 21930 net.cpp:110] Creating Layer inception_3b/5x5_reduce
I1005 08:23:40.226316 21930 net.cpp:477] inception_3b/5x5_reduce <- inception_3a/output_inception_3a/output_0_split_2
I1005 08:23:40.226322 21930 net.cpp:433] inception_3b/5x5_reduce -> inception_3b/5x5_reduce
I1005 08:23:40.226900 21930 net.cpp:155] Setting up inception_3b/5x5_reduce
I1005 08:23:40.226912 21930 net.cpp:163] Top shape: 10 32 28 28 (250880)
I1005 08:23:40.226929 21930 layer_factory.hpp:76] Creating layer inception_3b/relu_5x5_reduce
I1005 08:23:40.226936 21930 net.cpp:110] Creating Layer inception_3b/relu_5x5_reduce
I1005 08:23:40.226941 21930 net.cpp:477] inception_3b/relu_5x5_reduce <- inception_3b/5x5_reduce
I1005 08:23:40.226948 21930 net.cpp:419] inception_3b/relu_5x5_reduce -> inception_3b/5x5_reduce (in-place)
I1005 08:23:40.227155 21930 net.cpp:155] Setting up inception_3b/relu_5x5_reduce
I1005 08:23:40.227167 21930 net.cpp:163] Top shape: 10 32 28 28 (250880)
I1005 08:23:40.227182 21930 layer_factory.hpp:76] Creating layer inception_3b/5x5
I1005 08:23:40.227190 21930 net.cpp:110] Creating Layer inception_3b/5x5
I1005 08:23:40.227195 21930 net.cpp:477] inception_3b/5x5 <- inception_3b/5x5_reduce
I1005 08:23:40.227201 21930 net.cpp:433] inception_3b/5x5 -> inception_3b/5x5
I1005 08:23:40.228312 21930 net.cpp:155] Setting up inception_3b/5x5
I1005 08:23:40.228324 21930 net.cpp:163] Top shape: 10 96 28 28 (752640)
I1005 08:23:40.228341 21930 layer_factory.hpp:76] Creating layer inception_3b/relu_5x5
I1005 08:23:40.228349 21930 net.cpp:110] Creating Layer inception_3b/relu_5x5
I1005 08:23:40.228353 21930 net.cpp:477] inception_3b/relu_5x5 <- inception_3b/5x5
I1005 08:23:40.228359 21930 net.cpp:419] inception_3b/relu_5x5 -> inception_3b/5x5 (in-place)
I1005 08:23:40.228591 21930 net.cpp:155] Setting up inception_3b/relu_5x5
I1005 08:23:40.228602 21930 net.cpp:163] Top shape: 10 96 28 28 (752640)
I1005 08:23:40.228617 21930 layer_factory.hpp:76] Creating layer inception_3b/pool
I1005 08:23:40.228622 21930 layer_factory.cpp:60] CUDNN does not support padding or multiple tops. Using Caffe's own pooling layer.
I1005 08:23:40.228628 21930 net.cpp:110] Creating Layer inception_3b/pool
I1005 08:23:40.228633 21930 net.cpp:477] inception_3b/pool <- inception_3a/output_inception_3a/output_0_split_3
I1005 08:23:40.228639 21930 net.cpp:433] inception_3b/pool -> inception_3b/pool
I1005 08:23:40.228647 21930 net.cpp:155] Setting up inception_3b/pool
I1005 08:23:40.228653 21930 net.cpp:163] Top shape: 10 256 28 28 (2007040)
I1005 08:23:40.228657 21930 layer_factory.hpp:76] Creating layer inception_3b/pool_proj
I1005 08:23:40.228664 21930 net.cpp:110] Creating Layer inception_3b/pool_proj
I1005 08:23:40.228675 21930 net.cpp:477] inception_3b/pool_proj <- inception_3b/pool
I1005 08:23:40.228682 21930 net.cpp:433] inception_3b/pool_proj -> inception_3b/pool_proj
I1005 08:23:40.229311 21930 net.cpp:155] Setting up inception_3b/pool_proj
I1005 08:23:40.229324 21930 net.cpp:163] Top shape: 10 64 28 28 (501760)
I1005 08:23:40.229341 21930 layer_factory.hpp:76] Creating layer inception_3b/relu_pool_proj
I1005 08:23:40.229347 21930 net.cpp:110] Creating Layer inception_3b/relu_pool_proj
I1005 08:23:40.229352 21930 net.cpp:477] inception_3b/relu_pool_proj <- inception_3b/pool_proj
I1005 08:23:40.229357 21930 net.cpp:419] inception_3b/relu_pool_proj -> inception_3b/pool_proj (in-place)
I1005 08:23:40.229491 21930 net.cpp:155] Setting up inception_3b/relu_pool_proj
I1005 08:23:40.229501 21930 net.cpp:163] Top shape: 10 64 28 28 (501760)
I1005 08:23:40.229516 21930 layer_factory.hpp:76] Creating layer inception_3b/output
I1005 08:23:40.229522 21930 net.cpp:110] Creating Layer inception_3b/output
I1005 08:23:40.229526 21930 net.cpp:477] inception_3b/output <- inception_3b/1x1
I1005 08:23:40.229537 21930 net.cpp:477] inception_3b/output <- inception_3b/3x3
I1005 08:23:40.229542 21930 net.cpp:477] inception_3b/output <- inception_3b/5x5
I1005 08:23:40.229547 21930 net.cpp:477] inception_3b/output <- inception_3b/pool_proj
I1005 08:23:40.229552 21930 net.cpp:433] inception_3b/output -> inception_3b/output
I1005 08:23:40.229559 21930 net.cpp:155] Setting up inception_3b/output
I1005 08:23:40.229564 21930 net.cpp:163] Top shape: 10 480 28 28 (3763200)
I1005 08:23:40.229576 21930 layer_factory.hpp:76] Creating layer pool3/3x3_s2
I1005 08:23:40.229583 21930 net.cpp:110] Creating Layer pool3/3x3_s2
I1005 08:23:40.229586 21930 net.cpp:477] pool3/3x3_s2 <- inception_3b/output
I1005 08:23:40.229593 21930 net.cpp:433] pool3/3x3_s2 -> pool3/3x3_s2
I1005 08:23:40.229792 21930 net.cpp:155] Setting up pool3/3x3_s2
I1005 08:23:40.229804 21930 net.cpp:163] Top shape: 10 480 14 14 (940800)
I1005 08:23:40.229809 21930 layer_factory.hpp:76] Creating layer pool3/3x3_s2_pool3/3x3_s2_0_split
I1005 08:23:40.229815 21930 net.cpp:110] Creating Layer pool3/3x3_s2_pool3/3x3_s2_0_split
I1005 08:23:40.229820 21930 net.cpp:477] pool3/3x3_s2_pool3/3x3_s2_0_split <- pool3/3x3_s2
I1005 08:23:40.229825 21930 net.cpp:433] pool3/3x3_s2_pool3/3x3_s2_0_split -> pool3/3x3_s2_pool3/3x3_s2_0_split_0
I1005 08:23:40.229831 21930 net.cpp:433] pool3/3x3_s2_pool3/3x3_s2_0_split -> pool3/3x3_s2_pool3/3x3_s2_0_split_1
I1005 08:23:40.229838 21930 net.cpp:433] pool3/3x3_s2_pool3/3x3_s2_0_split -> pool3/3x3_s2_pool3/3x3_s2_0_split_2
I1005 08:23:40.229843 21930 net.cpp:433] pool3/3x3_s2_pool3/3x3_s2_0_split -> pool3/3x3_s2_pool3/3x3_s2_0_split_3
I1005 08:23:40.229851 21930 net.cpp:155] Setting up pool3/3x3_s2_pool3/3x3_s2_0_split
I1005 08:23:40.229856 21930 net.cpp:163] Top shape: 10 480 14 14 (940800)
I1005 08:23:40.229861 21930 net.cpp:163] Top shape: 10 480 14 14 (940800)
I1005 08:23:40.229866 21930 net.cpp:163] Top shape: 10 480 14 14 (940800)
I1005 08:23:40.229869 21930 net.cpp:163] Top shape: 10 480 14 14 (940800)
I1005 08:23:40.229873 21930 layer_factory.hpp:76] Creating layer inception_4a/1x1
I1005 08:23:40.229881 21930 net.cpp:110] Creating Layer inception_4a/1x1
I1005 08:23:40.229883 21930 net.cpp:477] inception_4a/1x1 <- pool3/3x3_s2_pool3/3x3_s2_0_split_0
I1005 08:23:40.229899 21930 net.cpp:433] inception_4a/1x1 -> inception_4a/1x1
I1005 08:23:40.230873 21930 net.cpp:155] Setting up inception_4a/1x1
I1005 08:23:40.230885 21930 net.cpp:163] Top shape: 10 192 14 14 (376320)
I1005 08:23:40.230892 21930 layer_factory.hpp:76] Creating layer inception_4a/relu_1x1
I1005 08:23:40.230898 21930 net.cpp:110] Creating Layer inception_4a/relu_1x1
I1005 08:23:40.230903 21930 net.cpp:477] inception_4a/relu_1x1 <- inception_4a/1x1
I1005 08:23:40.230908 21930 net.cpp:419] inception_4a/relu_1x1 -> inception_4a/1x1 (in-place)
I1005 08:23:40.231025 21930 net.cpp:155] Setting up inception_4a/relu_1x1
I1005 08:23:40.231035 21930 net.cpp:163] Top shape: 10 192 14 14 (376320)
I1005 08:23:40.231040 21930 layer_factory.hpp:76] Creating layer inception_4a/3x3_reduce
I1005 08:23:40.231046 21930 net.cpp:110] Creating Layer inception_4a/3x3_reduce
I1005 08:23:40.231051 21930 net.cpp:477] inception_4a/3x3_reduce <- pool3/3x3_s2_pool3/3x3_s2_0_split_1
I1005 08:23:40.231057 21930 net.cpp:433] inception_4a/3x3_reduce -> inception_4a/3x3_reduce
I1005 08:23:40.232136 21930 net.cpp:155] Setting up inception_4a/3x3_reduce
I1005 08:23:40.232148 21930 net.cpp:163] Top shape: 10 96 14 14 (188160)
I1005 08:23:40.232159 21930 layer_factory.hpp:76] Creating layer inception_4a/relu_3x3_reduce
I1005 08:23:40.232166 21930 net.cpp:110] Creating Layer inception_4a/relu_3x3_reduce
I1005 08:23:40.232170 21930 net.cpp:477] inception_4a/relu_3x3_reduce <- inception_4a/3x3_reduce
I1005 08:23:40.232175 21930 net.cpp:419] inception_4a/relu_3x3_reduce -> inception_4a/3x3_reduce (in-place)
I1005 08:23:40.232300 21930 net.cpp:155] Setting up inception_4a/relu_3x3_reduce
I1005 08:23:40.232311 21930 net.cpp:163] Top shape: 10 96 14 14 (188160)
I1005 08:23:40.232316 21930 layer_factory.hpp:76] Creating layer inception_4a/3x3
I1005 08:23:40.232326 21930 net.cpp:110] Creating Layer inception_4a/3x3
I1005 08:23:40.232331 21930 net.cpp:477] inception_4a/3x3 <- inception_4a/3x3_reduce
I1005 08:23:40.232337 21930 net.cpp:433] inception_4a/3x3 -> inception_4a/3x3
I1005 08:23:40.233983 21930 net.cpp:155] Setting up inception_4a/3x3
I1005 08:23:40.233995 21930 net.cpp:163] Top shape: 10 208 14 14 (407680)
I1005 08:23:40.234002 21930 layer_factory.hpp:76] Creating layer inception_4a/relu_3x3
I1005 08:23:40.234009 21930 net.cpp:110] Creating Layer inception_4a/relu_3x3
I1005 08:23:40.234014 21930 net.cpp:477] inception_4a/relu_3x3 <- inception_4a/3x3
I1005 08:23:40.234019 21930 net.cpp:419] inception_4a/relu_3x3 -> inception_4a/3x3 (in-place)
I1005 08:23:40.234236 21930 net.cpp:155] Setting up inception_4a/relu_3x3
I1005 08:23:40.234247 21930 net.cpp:163] Top shape: 10 208 14 14 (407680)
I1005 08:23:40.234261 21930 layer_factory.hpp:76] Creating layer inception_4a/5x5_reduce
I1005 08:23:40.234267 21930 net.cpp:110] Creating Layer inception_4a/5x5_reduce
I1005 08:23:40.234272 21930 net.cpp:477] inception_4a/5x5_reduce <- pool3/3x3_s2_pool3/3x3_s2_0_split_2
I1005 08:23:40.234279 21930 net.cpp:433] inception_4a/5x5_reduce -> inception_4a/5x5_reduce
I1005 08:23:40.234844 21930 net.cpp:155] Setting up inception_4a/5x5_reduce
I1005 08:23:40.234855 21930 net.cpp:163] Top shape: 10 16 14 14 (31360)
I1005 08:23:40.234872 21930 layer_factory.hpp:76] Creating layer inception_4a/relu_5x5_reduce
I1005 08:23:40.234879 21930 net.cpp:110] Creating Layer inception_4a/relu_5x5_reduce
I1005 08:23:40.234884 21930 net.cpp:477] inception_4a/relu_5x5_reduce <- inception_4a/5x5_reduce
I1005 08:23:40.234889 21930 net.cpp:419] inception_4a/relu_5x5_reduce -> inception_4a/5x5_reduce (in-place)
I1005 08:23:40.235013 21930 net.cpp:155] Setting up inception_4a/relu_5x5_reduce
I1005 08:23:40.235021 21930 net.cpp:163] Top shape: 10 16 14 14 (31360)
I1005 08:23:40.235026 21930 layer_factory.hpp:76] Creating layer inception_4a/5x5
I1005 08:23:40.235044 21930 net.cpp:110] Creating Layer inception_4a/5x5
I1005 08:23:40.235057 21930 net.cpp:477] inception_4a/5x5 <- inception_4a/5x5_reduce
I1005 08:23:40.235062 21930 net.cpp:433] inception_4a/5x5 -> inception_4a/5x5
I1005 08:23:40.235689 21930 net.cpp:155] Setting up inception_4a/5x5
I1005 08:23:40.235700 21930 net.cpp:163] Top shape: 10 48 14 14 (94080)
I1005 08:23:40.235718 21930 layer_factory.hpp:76] Creating layer inception_4a/relu_5x5
I1005 08:23:40.235723 21930 net.cpp:110] Creating Layer inception_4a/relu_5x5
I1005 08:23:40.235728 21930 net.cpp:477] inception_4a/relu_5x5 <- inception_4a/5x5
I1005 08:23:40.235743 21930 net.cpp:419] inception_4a/relu_5x5 -> inception_4a/5x5 (in-place)
I1005 08:23:40.235888 21930 net.cpp:155] Setting up inception_4a/relu_5x5
I1005 08:23:40.235896 21930 net.cpp:163] Top shape: 10 48 14 14 (94080)
I1005 08:23:40.235901 21930 layer_factory.hpp:76] Creating layer inception_4a/pool
I1005 08:23:40.235916 21930 layer_factory.cpp:60] CUDNN does not support padding or multiple tops. Using Caffe's own pooling layer.
I1005 08:23:40.235931 21930 net.cpp:110] Creating Layer inception_4a/pool
I1005 08:23:40.235935 21930 net.cpp:477] inception_4a/pool <- pool3/3x3_s2_pool3/3x3_s2_0_split_3
I1005 08:23:40.235939 21930 net.cpp:433] inception_4a/pool -> inception_4a/pool
I1005 08:23:40.235946 21930 net.cpp:155] Setting up inception_4a/pool
I1005 08:23:40.235951 21930 net.cpp:163] Top shape: 10 480 14 14 (940800)
I1005 08:23:40.235956 21930 layer_factory.hpp:76] Creating layer inception_4a/pool_proj
I1005 08:23:40.235962 21930 net.cpp:110] Creating Layer inception_4a/pool_proj
I1005 08:23:40.235966 21930 net.cpp:477] inception_4a/pool_proj <- inception_4a/pool
I1005 08:23:40.235971 21930 net.cpp:433] inception_4a/pool_proj -> inception_4a/pool_proj
I1005 08:23:40.236655 21930 net.cpp:155] Setting up inception_4a/pool_proj
I1005 08:23:40.236667 21930 net.cpp:163] Top shape: 10 64 14 14 (125440)
I1005 08:23:40.236685 21930 layer_factory.hpp:76] Creating layer inception_4a/relu_pool_proj
I1005 08:23:40.236696 21930 net.cpp:110] Creating Layer inception_4a/relu_pool_proj
I1005 08:23:40.236701 21930 net.cpp:477] inception_4a/relu_pool_proj <- inception_4a/pool_proj
I1005 08:23:40.236706 21930 net.cpp:419] inception_4a/relu_pool_proj -> inception_4a/pool_proj (in-place)
I1005 08:23:40.236917 21930 net.cpp:155] Setting up inception_4a/relu_pool_proj
I1005 08:23:40.236927 21930 net.cpp:163] Top shape: 10 64 14 14 (125440)
I1005 08:23:40.236942 21930 layer_factory.hpp:76] Creating layer inception_4a/output
I1005 08:23:40.236949 21930 net.cpp:110] Creating Layer inception_4a/output
I1005 08:23:40.236953 21930 net.cpp:477] inception_4a/output <- inception_4a/1x1
I1005 08:23:40.236959 21930 net.cpp:477] inception_4a/output <- inception_4a/3x3
I1005 08:23:40.236963 21930 net.cpp:477] inception_4a/output <- inception_4a/5x5
I1005 08:23:40.236968 21930 net.cpp:477] inception_4a/output <- inception_4a/pool_proj
I1005 08:23:40.236974 21930 net.cpp:433] inception_4a/output -> inception_4a/output
I1005 08:23:40.236981 21930 net.cpp:155] Setting up inception_4a/output
I1005 08:23:40.236986 21930 net.cpp:163] Top shape: 10 512 14 14 (1003520)
I1005 08:23:40.236991 21930 layer_factory.hpp:76] Creating layer inception_4a/output_inception_4a/output_0_split
I1005 08:23:40.237004 21930 net.cpp:110] Creating Layer inception_4a/output_inception_4a/output_0_split
I1005 08:23:40.237010 21930 net.cpp:477] inception_4a/output_inception_4a/output_0_split <- inception_4a/output
I1005 08:23:40.237015 21930 net.cpp:433] inception_4a/output_inception_4a/output_0_split -> inception_4a/output_inception_4a/output_0_split_0
I1005 08:23:40.237021 21930 net.cpp:433] inception_4a/output_inception_4a/output_0_split -> inception_4a/output_inception_4a/output_0_split_1
I1005 08:23:40.237027 21930 net.cpp:433] inception_4a/output_inception_4a/output_0_split -> inception_4a/output_inception_4a/output_0_split_2
I1005 08:23:40.237033 21930 net.cpp:433] inception_4a/output_inception_4a/output_0_split -> inception_4a/output_inception_4a/output_0_split_3
I1005 08:23:40.237040 21930 net.cpp:155] Setting up inception_4a/output_inception_4a/output_0_split
I1005 08:23:40.237048 21930 net.cpp:163] Top shape: 10 512 14 14 (1003520)
I1005 08:23:40.237052 21930 net.cpp:163] Top shape: 10 512 14 14 (1003520)
I1005 08:23:40.237057 21930 net.cpp:163] Top shape: 10 512 14 14 (1003520)
I1005 08:23:40.237061 21930 net.cpp:163] Top shape: 10 512 14 14 (1003520)
I1005 08:23:40.237066 21930 layer_factory.hpp:76] Creating layer inception_4b/1x1
I1005 08:23:40.237073 21930 net.cpp:110] Creating Layer inception_4b/1x1
I1005 08:23:40.237077 21930 net.cpp:477] inception_4b/1x1 <- inception_4a/output_inception_4a/output_0_split_0
I1005 08:23:40.237085 21930 net.cpp:433] inception_4b/1x1 -> inception_4b/1x1
I1005 08:23:40.238039 21930 net.cpp:155] Setting up inception_4b/1x1
I1005 08:23:40.238050 21930 net.cpp:163] Top shape: 10 160 14 14 (313600)
I1005 08:23:40.238066 21930 layer_factory.hpp:76] Creating layer inception_4b/relu_1x1
I1005 08:23:40.238072 21930 net.cpp:110] Creating Layer inception_4b/relu_1x1
I1005 08:23:40.238078 21930 net.cpp:477] inception_4b/relu_1x1 <- inception_4b/1x1
I1005 08:23:40.238083 21930 net.cpp:419] inception_4b/relu_1x1 -> inception_4b/1x1 (in-place)
I1005 08:23:40.238209 21930 net.cpp:155] Setting up inception_4b/relu_1x1
I1005 08:23:40.238217 21930 net.cpp:163] Top shape: 10 160 14 14 (313600)
I1005 08:23:40.238221 21930 layer_factory.hpp:76] Creating layer inception_4b/3x3_reduce
I1005 08:23:40.238229 21930 net.cpp:110] Creating Layer inception_4b/3x3_reduce
I1005 08:23:40.238234 21930 net.cpp:477] inception_4b/3x3_reduce <- inception_4a/output_inception_4a/output_0_split_1
I1005 08:23:40.238241 21930 net.cpp:433] inception_4b/3x3_reduce -> inception_4b/3x3_reduce
I1005 08:23:40.239102 21930 net.cpp:155] Setting up inception_4b/3x3_reduce
I1005 08:23:40.239114 21930 net.cpp:163] Top shape: 10 112 14 14 (219520)
I1005 08:23:40.239131 21930 layer_factory.hpp:76] Creating layer inception_4b/relu_3x3_reduce
I1005 08:23:40.239138 21930 net.cpp:110] Creating Layer inception_4b/relu_3x3_reduce
I1005 08:23:40.239145 21930 net.cpp:477] inception_4b/relu_3x3_reduce <- inception_4b/3x3_reduce
I1005 08:23:40.239152 21930 net.cpp:419] inception_4b/relu_3x3_reduce -> inception_4b/3x3_reduce (in-place)
I1005 08:23:40.239298 21930 net.cpp:155] Setting up inception_4b/relu_3x3_reduce
I1005 08:23:40.239307 21930 net.cpp:163] Top shape: 10 112 14 14 (219520)
I1005 08:23:40.239312 21930 layer_factory.hpp:76] Creating layer inception_4b/3x3
I1005 08:23:40.239332 21930 net.cpp:110] Creating Layer inception_4b/3x3
I1005 08:23:40.239337 21930 net.cpp:477] inception_4b/3x3 <- inception_4b/3x3_reduce
I1005 08:23:40.239343 21930 net.cpp:433] inception_4b/3x3 -> inception_4b/3x3
I1005 08:23:40.241247 21930 net.cpp:155] Setting up inception_4b/3x3
I1005 08:23:40.241261 21930 net.cpp:163] Top shape: 10 224 14 14 (439040)
I1005 08:23:40.241267 21930 layer_factory.hpp:76] Creating layer inception_4b/relu_3x3
I1005 08:23:40.241276 21930 net.cpp:110] Creating Layer inception_4b/relu_3x3
I1005 08:23:40.241279 21930 net.cpp:477] inception_4b/relu_3x3 <- inception_4b/3x3
I1005 08:23:40.241286 21930 net.cpp:419] inception_4b/relu_3x3 -> inception_4b/3x3 (in-place)
I1005 08:23:40.241483 21930 net.cpp:155] Setting up inception_4b/relu_3x3
I1005 08:23:40.241495 21930 net.cpp:163] Top shape: 10 224 14 14 (439040)
I1005 08:23:40.241500 21930 layer_factory.hpp:76] Creating layer inception_4b/5x5_reduce
I1005 08:23:40.241508 21930 net.cpp:110] Creating Layer inception_4b/5x5_reduce
I1005 08:23:40.241513 21930 net.cpp:477] inception_4b/5x5_reduce <- inception_4a/output_inception_4a/output_0_split_2
I1005 08:23:40.241519 21930 net.cpp:433] inception_4b/5x5_reduce -> inception_4b/5x5_reduce
I1005 08:23:40.242210 21930 net.cpp:155] Setting up inception_4b/5x5_reduce
I1005 08:23:40.242223 21930 net.cpp:163] Top shape: 10 24 14 14 (47040)
I1005 08:23:40.242229 21930 layer_factory.hpp:76] Creating layer inception_4b/relu_5x5_reduce
I1005 08:23:40.242243 21930 net.cpp:110] Creating Layer inception_4b/relu_5x5_reduce
I1005 08:23:40.242247 21930 net.cpp:477] inception_4b/relu_5x5_reduce <- inception_4b/5x5_reduce
I1005 08:23:40.242262 21930 net.cpp:419] inception_4b/relu_5x5_reduce -> inception_4b/5x5_reduce (in-place)
I1005 08:23:40.242403 21930 net.cpp:155] Setting up inception_4b/relu_5x5_reduce
I1005 08:23:40.242413 21930 net.cpp:163] Top shape: 10 24 14 14 (47040)
I1005 08:23:40.242418 21930 layer_factory.hpp:76] Creating layer inception_4b/5x5
I1005 08:23:40.242425 21930 net.cpp:110] Creating Layer inception_4b/5x5
I1005 08:23:40.242430 21930 net.cpp:477] inception_4b/5x5 <- inception_4b/5x5_reduce
I1005 08:23:40.242437 21930 net.cpp:433] inception_4b/5x5 -> inception_4b/5x5
I1005 08:23:40.243160 21930 net.cpp:155] Setting up inception_4b/5x5
I1005 08:23:40.243172 21930 net.cpp:163] Top shape: 10 64 14 14 (125440)
I1005 08:23:40.243197 21930 layer_factory.hpp:76] Creating layer inception_4b/relu_5x5
I1005 08:23:40.243206 21930 net.cpp:110] Creating Layer inception_4b/relu_5x5
I1005 08:23:40.243219 21930 net.cpp:477] inception_4b/relu_5x5 <- inception_4b/5x5
I1005 08:23:40.243234 21930 net.cpp:419] inception_4b/relu_5x5 -> inception_4b/5x5 (in-place)
I1005 08:23:40.243371 21930 net.cpp:155] Setting up inception_4b/relu_5x5
I1005 08:23:40.243381 21930 net.cpp:163] Top shape: 10 64 14 14 (125440)
I1005 08:23:40.243396 21930 layer_factory.hpp:76] Creating layer inception_4b/pool
I1005 08:23:40.243401 21930 layer_factory.cpp:60] CUDNN does not support padding or multiple tops. Using Caffe's own pooling layer.
I1005 08:23:40.243405 21930 net.cpp:110] Creating Layer inception_4b/pool
I1005 08:23:40.243409 21930 net.cpp:477] inception_4b/pool <- inception_4a/output_inception_4a/output_0_split_3
I1005 08:23:40.243417 21930 net.cpp:433] inception_4b/pool -> inception_4b/pool
I1005 08:23:40.243424 21930 net.cpp:155] Setting up inception_4b/pool
I1005 08:23:40.243429 21930 net.cpp:163] Top shape: 10 512 14 14 (1003520)
I1005 08:23:40.243433 21930 layer_factory.hpp:76] Creating layer inception_4b/pool_proj
I1005 08:23:40.243451 21930 net.cpp:110] Creating Layer inception_4b/pool_proj
I1005 08:23:40.243458 21930 net.cpp:477] inception_4b/pool_proj <- inception_4b/pool
I1005 08:23:40.243463 21930 net.cpp:433] inception_4b/pool_proj -> inception_4b/pool_proj
I1005 08:23:40.244196 21930 net.cpp:155] Setting up inception_4b/pool_proj
I1005 08:23:40.244210 21930 net.cpp:163] Top shape: 10 64 14 14 (125440)
I1005 08:23:40.244225 21930 layer_factory.hpp:76] Creating layer inception_4b/relu_pool_proj
I1005 08:23:40.244232 21930 net.cpp:110] Creating Layer inception_4b/relu_pool_proj
I1005 08:23:40.244248 21930 net.cpp:477] inception_4b/relu_pool_proj <- inception_4b/pool_proj
I1005 08:23:40.244253 21930 net.cpp:419] inception_4b/relu_pool_proj -> inception_4b/pool_proj (in-place)
I1005 08:23:40.244467 21930 net.cpp:155] Setting up inception_4b/relu_pool_proj
I1005 08:23:40.244477 21930 net.cpp:163] Top shape: 10 64 14 14 (125440)
I1005 08:23:40.244493 21930 layer_factory.hpp:76] Creating layer inception_4b/output
I1005 08:23:40.244499 21930 net.cpp:110] Creating Layer inception_4b/output
I1005 08:23:40.244504 21930 net.cpp:477] inception_4b/output <- inception_4b/1x1
I1005 08:23:40.244509 21930 net.cpp:477] inception_4b/output <- inception_4b/3x3
I1005 08:23:40.244514 21930 net.cpp:477] inception_4b/output <- inception_4b/5x5
I1005 08:23:40.244520 21930 net.cpp:477] inception_4b/output <- inception_4b/pool_proj
I1005 08:23:40.244524 21930 net.cpp:433] inception_4b/output -> inception_4b/output
I1005 08:23:40.244532 21930 net.cpp:155] Setting up inception_4b/output
I1005 08:23:40.244537 21930 net.cpp:163] Top shape: 10 512 14 14 (1003520)
I1005 08:23:40.244542 21930 layer_factory.hpp:76] Creating layer inception_4b/output_inception_4b/output_0_split
I1005 08:23:40.244555 21930 net.cpp:110] Creating Layer inception_4b/output_inception_4b/output_0_split
I1005 08:23:40.244560 21930 net.cpp:477] inception_4b/output_inception_4b/output_0_split <- inception_4b/output
I1005 08:23:40.244567 21930 net.cpp:433] inception_4b/output_inception_4b/output_0_split -> inception_4b/output_inception_4b/output_0_split_0
I1005 08:23:40.244573 21930 net.cpp:433] inception_4b/output_inception_4b/output_0_split -> inception_4b/output_inception_4b/output_0_split_1
I1005 08:23:40.244580 21930 net.cpp:433] inception_4b/output_inception_4b/output_0_split -> inception_4b/output_inception_4b/output_0_split_2
I1005 08:23:40.244585 21930 net.cpp:433] inception_4b/output_inception_4b/output_0_split -> inception_4b/output_inception_4b/output_0_split_3
I1005 08:23:40.244598 21930 net.cpp:155] Setting up inception_4b/output_inception_4b/output_0_split
I1005 08:23:40.244606 21930 net.cpp:163] Top shape: 10 512 14 14 (1003520)
I1005 08:23:40.244609 21930 net.cpp:163] Top shape: 10 512 14 14 (1003520)
I1005 08:23:40.244614 21930 net.cpp:163] Top shape: 10 512 14 14 (1003520)
I1005 08:23:40.244619 21930 net.cpp:163] Top shape: 10 512 14 14 (1003520)
I1005 08:23:40.244623 21930 layer_factory.hpp:76] Creating layer inception_4c/1x1
I1005 08:23:40.244631 21930 net.cpp:110] Creating Layer inception_4c/1x1
I1005 08:23:40.244635 21930 net.cpp:477] inception_4c/1x1 <- inception_4b/output_inception_4b/output_0_split_0
I1005 08:23:40.244642 21930 net.cpp:433] inception_4c/1x1 -> inception_4c/1x1
I1005 08:23:40.245815 21930 net.cpp:155] Setting up inception_4c/1x1
I1005 08:23:40.245827 21930 net.cpp:163] Top shape: 10 128 14 14 (250880)
I1005 08:23:40.245836 21930 layer_factory.hpp:76] Creating layer inception_4c/relu_1x1
I1005 08:23:40.245842 21930 net.cpp:110] Creating Layer inception_4c/relu_1x1
I1005 08:23:40.245847 21930 net.cpp:477] inception_4c/relu_1x1 <- inception_4c/1x1
I1005 08:23:40.245853 21930 net.cpp:419] inception_4c/relu_1x1 -> inception_4c/1x1 (in-place)
I1005 08:23:40.245983 21930 net.cpp:155] Setting up inception_4c/relu_1x1
I1005 08:23:40.245995 21930 net.cpp:163] Top shape: 10 128 14 14 (250880)
I1005 08:23:40.246000 21930 layer_factory.hpp:76] Creating layer inception_4c/3x3_reduce
I1005 08:23:40.246006 21930 net.cpp:110] Creating Layer inception_4c/3x3_reduce
I1005 08:23:40.246011 21930 net.cpp:477] inception_4c/3x3_reduce <- inception_4b/output_inception_4b/output_0_split_1
I1005 08:23:40.246022 21930 net.cpp:433] inception_4c/3x3_reduce -> inception_4c/3x3_reduce
I1005 08:23:40.246903 21930 net.cpp:155] Setting up inception_4c/3x3_reduce
I1005 08:23:40.246915 21930 net.cpp:163] Top shape: 10 128 14 14 (250880)
I1005 08:23:40.246923 21930 layer_factory.hpp:76] Creating layer inception_4c/relu_3x3_reduce
I1005 08:23:40.246929 21930 net.cpp:110] Creating Layer inception_4c/relu_3x3_reduce
I1005 08:23:40.246934 21930 net.cpp:477] inception_4c/relu_3x3_reduce <- inception_4c/3x3_reduce
I1005 08:23:40.246954 21930 net.cpp:419] inception_4c/relu_3x3_reduce -> inception_4c/3x3_reduce (in-place)
I1005 08:23:40.247082 21930 net.cpp:155] Setting up inception_4c/relu_3x3_reduce
I1005 08:23:40.247092 21930 net.cpp:163] Top shape: 10 128 14 14 (250880)
I1005 08:23:40.247097 21930 layer_factory.hpp:76] Creating layer inception_4c/3x3
I1005 08:23:40.247104 21930 net.cpp:110] Creating Layer inception_4c/3x3
I1005 08:23:40.247109 21930 net.cpp:477] inception_4c/3x3 <- inception_4c/3x3_reduce
I1005 08:23:40.247115 21930 net.cpp:433] inception_4c/3x3 -> inception_4c/3x3
I1005 08:23:40.249435 21930 net.cpp:155] Setting up inception_4c/3x3
I1005 08:23:40.249449 21930 net.cpp:163] Top shape: 10 256 14 14 (501760)
I1005 08:23:40.249456 21930 layer_factory.hpp:76] Creating layer inception_4c/relu_3x3
I1005 08:23:40.249464 21930 net.cpp:110] Creating Layer inception_4c/relu_3x3
I1005 08:23:40.249469 21930 net.cpp:477] inception_4c/relu_3x3 <- inception_4c/3x3
I1005 08:23:40.249475 21930 net.cpp:419] inception_4c/relu_3x3 -> inception_4c/3x3 (in-place)
I1005 08:23:40.249689 21930 net.cpp:155] Setting up inception_4c/relu_3x3
I1005 08:23:40.249701 21930 net.cpp:163] Top shape: 10 256 14 14 (501760)
I1005 08:23:40.249716 21930 layer_factory.hpp:76] Creating layer inception_4c/5x5_reduce
I1005 08:23:40.249724 21930 net.cpp:110] Creating Layer inception_4c/5x5_reduce
I1005 08:23:40.249729 21930 net.cpp:477] inception_4c/5x5_reduce <- inception_4b/output_inception_4b/output_0_split_2
I1005 08:23:40.249737 21930 net.cpp:433] inception_4c/5x5_reduce -> inception_4c/5x5_reduce
I1005 08:23:40.250391 21930 net.cpp:155] Setting up inception_4c/5x5_reduce
I1005 08:23:40.250403 21930 net.cpp:163] Top shape: 10 24 14 14 (47040)
I1005 08:23:40.250422 21930 layer_factory.hpp:76] Creating layer inception_4c/relu_5x5_reduce
I1005 08:23:40.250429 21930 net.cpp:110] Creating Layer inception_4c/relu_5x5_reduce
I1005 08:23:40.250434 21930 net.cpp:477] inception_4c/relu_5x5_reduce <- inception_4c/5x5_reduce
I1005 08:23:40.250439 21930 net.cpp:419] inception_4c/relu_5x5_reduce -> inception_4c/5x5_reduce (in-place)
I1005 08:23:40.250578 21930 net.cpp:155] Setting up inception_4c/relu_5x5_reduce
I1005 08:23:40.250588 21930 net.cpp:163] Top shape: 10 24 14 14 (47040)
I1005 08:23:40.250592 21930 layer_factory.hpp:76] Creating layer inception_4c/5x5
I1005 08:23:40.250613 21930 net.cpp:110] Creating Layer inception_4c/5x5
I1005 08:23:40.250618 21930 net.cpp:477] inception_4c/5x5 <- inception_4c/5x5_reduce
I1005 08:23:40.250625 21930 net.cpp:433] inception_4c/5x5 -> inception_4c/5x5
I1005 08:23:40.251376 21930 net.cpp:155] Setting up inception_4c/5x5
I1005 08:23:40.251389 21930 net.cpp:163] Top shape: 10 64 14 14 (125440)
I1005 08:23:40.251406 21930 layer_factory.hpp:76] Creating layer inception_4c/relu_5x5
I1005 08:23:40.251415 21930 net.cpp:110] Creating Layer inception_4c/relu_5x5
I1005 08:23:40.251420 21930 net.cpp:477] inception_4c/relu_5x5 <- inception_4c/5x5
I1005 08:23:40.251425 21930 net.cpp:419] inception_4c/relu_5x5 -> inception_4c/5x5 (in-place)
I1005 08:23:40.251564 21930 net.cpp:155] Setting up inception_4c/relu_5x5
I1005 08:23:40.251574 21930 net.cpp:163] Top shape: 10 64 14 14 (125440)
I1005 08:23:40.251588 21930 layer_factory.hpp:76] Creating layer inception_4c/pool
I1005 08:23:40.251593 21930 layer_factory.cpp:60] CUDNN does not support padding or multiple tops. Using Caffe's own pooling layer.
I1005 08:23:40.251598 21930 net.cpp:110] Creating Layer inception_4c/pool
I1005 08:23:40.251606 21930 net.cpp:477] inception_4c/pool <- inception_4b/output_inception_4b/output_0_split_3
I1005 08:23:40.251615 21930 net.cpp:433] inception_4c/pool -> inception_4c/pool
I1005 08:23:40.251622 21930 net.cpp:155] Setting up inception_4c/pool
I1005 08:23:40.251628 21930 net.cpp:163] Top shape: 10 512 14 14 (1003520)
I1005 08:23:40.251632 21930 layer_factory.hpp:76] Creating layer inception_4c/pool_proj
I1005 08:23:40.251641 21930 net.cpp:110] Creating Layer inception_4c/pool_proj
I1005 08:23:40.251646 21930 net.cpp:477] inception_4c/pool_proj <- inception_4c/pool
I1005 08:23:40.251652 21930 net.cpp:433] inception_4c/pool_proj -> inception_4c/pool_proj
I1005 08:23:40.252445 21930 net.cpp:155] Setting up inception_4c/pool_proj
I1005 08:23:40.252459 21930 net.cpp:163] Top shape: 10 64 14 14 (125440)
I1005 08:23:40.252485 21930 layer_factory.hpp:76] Creating layer inception_4c/relu_pool_proj
I1005 08:23:40.252492 21930 net.cpp:110] Creating Layer inception_4c/relu_pool_proj
I1005 08:23:40.252497 21930 net.cpp:477] inception_4c/relu_pool_proj <- inception_4c/pool_proj
I1005 08:23:40.252503 21930 net.cpp:419] inception_4c/relu_pool_proj -> inception_4c/pool_proj (in-place)
I1005 08:23:40.252707 21930 net.cpp:155] Setting up inception_4c/relu_pool_proj
I1005 08:23:40.252718 21930 net.cpp:163] Top shape: 10 64 14 14 (125440)
I1005 08:23:40.252733 21930 layer_factory.hpp:76] Creating layer inception_4c/output
I1005 08:23:40.252740 21930 net.cpp:110] Creating Layer inception_4c/output
I1005 08:23:40.252745 21930 net.cpp:477] inception_4c/output <- inception_4c/1x1
I1005 08:23:40.252750 21930 net.cpp:477] inception_4c/output <- inception_4c/3x3
I1005 08:23:40.252755 21930 net.cpp:477] inception_4c/output <- inception_4c/5x5
I1005 08:23:40.252760 21930 net.cpp:477] inception_4c/output <- inception_4c/pool_proj
I1005 08:23:40.252766 21930 net.cpp:433] inception_4c/output -> inception_4c/output
I1005 08:23:40.252774 21930 net.cpp:155] Setting up inception_4c/output
I1005 08:23:40.252779 21930 net.cpp:163] Top shape: 10 512 14 14 (1003520)
I1005 08:23:40.252784 21930 layer_factory.hpp:76] Creating layer inception_4c/output_inception_4c/output_0_split
I1005 08:23:40.252789 21930 net.cpp:110] Creating Layer inception_4c/output_inception_4c/output_0_split
I1005 08:23:40.252795 21930 net.cpp:477] inception_4c/output_inception_4c/output_0_split <- inception_4c/output
I1005 08:23:40.252800 21930 net.cpp:433] inception_4c/output_inception_4c/output_0_split -> inception_4c/output_inception_4c/output_0_split_0
I1005 08:23:40.252807 21930 net.cpp:433] inception_4c/output_inception_4c/output_0_split -> inception_4c/output_inception_4c/output_0_split_1
I1005 08:23:40.252813 21930 net.cpp:433] inception_4c/output_inception_4c/output_0_split -> inception_4c/output_inception_4c/output_0_split_2
I1005 08:23:40.252820 21930 net.cpp:433] inception_4c/output_inception_4c/output_0_split -> inception_4c/output_inception_4c/output_0_split_3
I1005 08:23:40.252825 21930 net.cpp:155] Setting up inception_4c/output_inception_4c/output_0_split
I1005 08:23:40.252830 21930 net.cpp:163] Top shape: 10 512 14 14 (1003520)
I1005 08:23:40.252835 21930 net.cpp:163] Top shape: 10 512 14 14 (1003520)
I1005 08:23:40.252840 21930 net.cpp:163] Top shape: 10 512 14 14 (1003520)
I1005 08:23:40.252845 21930 net.cpp:163] Top shape: 10 512 14 14 (1003520)
I1005 08:23:40.252848 21930 layer_factory.hpp:76] Creating layer inception_4d/1x1
I1005 08:23:40.252856 21930 net.cpp:110] Creating Layer inception_4d/1x1
I1005 08:23:40.252861 21930 net.cpp:477] inception_4d/1x1 <- inception_4c/output_inception_4c/output_0_split_0
I1005 08:23:40.252867 21930 net.cpp:433] inception_4d/1x1 -> inception_4d/1x1
I1005 08:23:40.253717 21930 net.cpp:155] Setting up inception_4d/1x1
I1005 08:23:40.253728 21930 net.cpp:163] Top shape: 10 112 14 14 (219520)
I1005 08:23:40.253736 21930 layer_factory.hpp:76] Creating layer inception_4d/relu_1x1
I1005 08:23:40.253743 21930 net.cpp:110] Creating Layer inception_4d/relu_1x1
I1005 08:23:40.253748 21930 net.cpp:477] inception_4d/relu_1x1 <- inception_4d/1x1
I1005 08:23:40.253757 21930 net.cpp:419] inception_4d/relu_1x1 -> inception_4d/1x1 (in-place)
I1005 08:23:40.253878 21930 net.cpp:155] Setting up inception_4d/relu_1x1
I1005 08:23:40.253888 21930 net.cpp:163] Top shape: 10 112 14 14 (219520)
I1005 08:23:40.253892 21930 layer_factory.hpp:76] Creating layer inception_4d/3x3_reduce
I1005 08:23:40.253900 21930 net.cpp:110] Creating Layer inception_4d/3x3_reduce
I1005 08:23:40.253904 21930 net.cpp:477] inception_4d/3x3_reduce <- inception_4c/output_inception_4c/output_0_split_1
I1005 08:23:40.253911 21930 net.cpp:433] inception_4d/3x3_reduce -> inception_4d/3x3_reduce
I1005 08:23:40.254855 21930 net.cpp:155] Setting up inception_4d/3x3_reduce
I1005 08:23:40.254868 21930 net.cpp:163] Top shape: 10 144 14 14 (282240)
I1005 08:23:40.254874 21930 layer_factory.hpp:76] Creating layer inception_4d/relu_3x3_reduce
I1005 08:23:40.254881 21930 net.cpp:110] Creating Layer inception_4d/relu_3x3_reduce
I1005 08:23:40.254886 21930 net.cpp:477] inception_4d/relu_3x3_reduce <- inception_4d/3x3_reduce
I1005 08:23:40.254892 21930 net.cpp:419] inception_4d/relu_3x3_reduce -> inception_4d/3x3_reduce (in-place)
I1005 08:23:40.255014 21930 net.cpp:155] Setting up inception_4d/relu_3x3_reduce
I1005 08:23:40.255023 21930 net.cpp:163] Top shape: 10 144 14 14 (282240)
I1005 08:23:40.255028 21930 layer_factory.hpp:76] Creating layer inception_4d/3x3
I1005 08:23:40.255035 21930 net.cpp:110] Creating Layer inception_4d/3x3
I1005 08:23:40.255040 21930 net.cpp:477] inception_4d/3x3 <- inception_4d/3x3_reduce
I1005 08:23:40.255048 21930 net.cpp:433] inception_4d/3x3 -> inception_4d/3x3
I1005 08:23:40.257773 21930 net.cpp:155] Setting up inception_4d/3x3
I1005 08:23:40.257786 21930 net.cpp:163] Top shape: 10 288 14 14 (564480)
I1005 08:23:40.257794 21930 layer_factory.hpp:76] Creating layer inception_4d/relu_3x3
I1005 08:23:40.257802 21930 net.cpp:110] Creating Layer inception_4d/relu_3x3
I1005 08:23:40.257807 21930 net.cpp:477] inception_4d/relu_3x3 <- inception_4d/3x3
I1005 08:23:40.257813 21930 net.cpp:419] inception_4d/relu_3x3 -> inception_4d/3x3 (in-place)
I1005 08:23:40.258013 21930 net.cpp:155] Setting up inception_4d/relu_3x3
I1005 08:23:40.258023 21930 net.cpp:163] Top shape: 10 288 14 14 (564480)
I1005 08:23:40.258028 21930 layer_factory.hpp:76] Creating layer inception_4d/5x5_reduce
I1005 08:23:40.258036 21930 net.cpp:110] Creating Layer inception_4d/5x5_reduce
I1005 08:23:40.258043 21930 net.cpp:477] inception_4d/5x5_reduce <- inception_4c/output_inception_4c/output_0_split_2
I1005 08:23:40.258049 21930 net.cpp:433] inception_4d/5x5_reduce -> inception_4d/5x5_reduce
I1005 08:23:40.258703 21930 net.cpp:155] Setting up inception_4d/5x5_reduce
I1005 08:23:40.258715 21930 net.cpp:163] Top shape: 10 32 14 14 (62720)
I1005 08:23:40.258723 21930 layer_factory.hpp:76] Creating layer inception_4d/relu_5x5_reduce
I1005 08:23:40.258729 21930 net.cpp:110] Creating Layer inception_4d/relu_5x5_reduce
I1005 08:23:40.258734 21930 net.cpp:477] inception_4d/relu_5x5_reduce <- inception_4d/5x5_reduce
I1005 08:23:40.258741 21930 net.cpp:419] inception_4d/relu_5x5_reduce -> inception_4d/5x5_reduce (in-place)
I1005 08:23:40.258865 21930 net.cpp:155] Setting up inception_4d/relu_5x5_reduce
I1005 08:23:40.258874 21930 net.cpp:163] Top shape: 10 32 14 14 (62720)
I1005 08:23:40.258878 21930 layer_factory.hpp:76] Creating layer inception_4d/5x5
I1005 08:23:40.258887 21930 net.cpp:110] Creating Layer inception_4d/5x5
I1005 08:23:40.258891 21930 net.cpp:477] inception_4d/5x5 <- inception_4d/5x5_reduce
I1005 08:23:40.258898 21930 net.cpp:433] inception_4d/5x5 -> inception_4d/5x5
I1005 08:23:40.259968 21930 net.cpp:155] Setting up inception_4d/5x5
I1005 08:23:40.259979 21930 net.cpp:163] Top shape: 10 64 14 14 (125440)
I1005 08:23:40.259987 21930 layer_factory.hpp:76] Creating layer inception_4d/relu_5x5
I1005 08:23:40.259994 21930 net.cpp:110] Creating Layer inception_4d/relu_5x5
I1005 08:23:40.259999 21930 net.cpp:477] inception_4d/relu_5x5 <- inception_4d/5x5
I1005 08:23:40.260007 21930 net.cpp:419] inception_4d/relu_5x5 -> inception_4d/5x5 (in-place)
I1005 08:23:40.260149 21930 net.cpp:155] Setting up inception_4d/relu_5x5
I1005 08:23:40.260159 21930 net.cpp:163] Top shape: 10 64 14 14 (125440)
I1005 08:23:40.260164 21930 layer_factory.hpp:76] Creating layer inception_4d/pool
I1005 08:23:40.260169 21930 layer_factory.cpp:60] CUDNN does not support padding or multiple tops. Using Caffe's own pooling layer.
I1005 08:23:40.260176 21930 net.cpp:110] Creating Layer inception_4d/pool
I1005 08:23:40.260181 21930 net.cpp:477] inception_4d/pool <- inception_4c/output_inception_4c/output_0_split_3
I1005 08:23:40.260187 21930 net.cpp:433] inception_4d/pool -> inception_4d/pool
I1005 08:23:40.260195 21930 net.cpp:155] Setting up inception_4d/pool
I1005 08:23:40.260201 21930 net.cpp:163] Top shape: 10 512 14 14 (1003520)
I1005 08:23:40.260205 21930 layer_factory.hpp:76] Creating layer inception_4d/pool_proj
I1005 08:23:40.260215 21930 net.cpp:110] Creating Layer inception_4d/pool_proj
I1005 08:23:40.260220 21930 net.cpp:477] inception_4d/pool_proj <- inception_4d/pool
I1005 08:23:40.260226 21930 net.cpp:433] inception_4d/pool_proj -> inception_4d/pool_proj
I1005 08:23:40.260957 21930 net.cpp:155] Setting up inception_4d/pool_proj
I1005 08:23:40.260969 21930 net.cpp:163] Top shape: 10 64 14 14 (125440)
I1005 08:23:40.260977 21930 layer_factory.hpp:76] Creating layer inception_4d/relu_pool_proj
I1005 08:23:40.260982 21930 net.cpp:110] Creating Layer inception_4d/relu_pool_proj
I1005 08:23:40.260987 21930 net.cpp:477] inception_4d/relu_pool_proj <- inception_4d/pool_proj
I1005 08:23:40.260994 21930 net.cpp:419] inception_4d/relu_pool_proj -> inception_4d/pool_proj (in-place)
I1005 08:23:40.261198 21930 net.cpp:155] Setting up inception_4d/relu_pool_proj
I1005 08:23:40.261209 21930 net.cpp:163] Top shape: 10 64 14 14 (125440)
I1005 08:23:40.261214 21930 layer_factory.hpp:76] Creating layer inception_4d/output
I1005 08:23:40.261219 21930 net.cpp:110] Creating Layer inception_4d/output
I1005 08:23:40.261224 21930 net.cpp:477] inception_4d/output <- inception_4d/1x1
I1005 08:23:40.261230 21930 net.cpp:477] inception_4d/output <- inception_4d/3x3
I1005 08:23:40.261235 21930 net.cpp:477] inception_4d/output <- inception_4d/5x5
I1005 08:23:40.261240 21930 net.cpp:477] inception_4d/output <- inception_4d/pool_proj
I1005 08:23:40.261246 21930 net.cpp:433] inception_4d/output -> inception_4d/output
I1005 08:23:40.261255 21930 net.cpp:155] Setting up inception_4d/output
I1005 08:23:40.261260 21930 net.cpp:163] Top shape: 10 528 14 14 (1034880)
I1005 08:23:40.261265 21930 layer_factory.hpp:76] Creating layer inception_4d/output_inception_4d/output_0_split
I1005 08:23:40.261270 21930 net.cpp:110] Creating Layer inception_4d/output_inception_4d/output_0_split
I1005 08:23:40.261275 21930 net.cpp:477] inception_4d/output_inception_4d/output_0_split <- inception_4d/output
I1005 08:23:40.261282 21930 net.cpp:433] inception_4d/output_inception_4d/output_0_split -> inception_4d/output_inception_4d/output_0_split_0
I1005 08:23:40.261288 21930 net.cpp:433] inception_4d/output_inception_4d/output_0_split -> inception_4d/output_inception_4d/output_0_split_1
I1005 08:23:40.261294 21930 net.cpp:433] inception_4d/output_inception_4d/output_0_split -> inception_4d/output_inception_4d/output_0_split_2
I1005 08:23:40.261301 21930 net.cpp:433] inception_4d/output_inception_4d/output_0_split -> inception_4d/output_inception_4d/output_0_split_3
I1005 08:23:40.261307 21930 net.cpp:155] Setting up inception_4d/output_inception_4d/output_0_split
I1005 08:23:40.261313 21930 net.cpp:163] Top shape: 10 528 14 14 (1034880)
I1005 08:23:40.261317 21930 net.cpp:163] Top shape: 10 528 14 14 (1034880)
I1005 08:23:40.261322 21930 net.cpp:163] Top shape: 10 528 14 14 (1034880)
I1005 08:23:40.261327 21930 net.cpp:163] Top shape: 10 528 14 14 (1034880)
I1005 08:23:40.261332 21930 layer_factory.hpp:76] Creating layer inception_4e/1x1
I1005 08:23:40.261338 21930 net.cpp:110] Creating Layer inception_4e/1x1
I1005 08:23:40.261343 21930 net.cpp:477] inception_4e/1x1 <- inception_4d/output_inception_4d/output_0_split_0
I1005 08:23:40.261354 21930 net.cpp:433] inception_4e/1x1 -> inception_4e/1x1
I1005 08:23:40.262840 21930 net.cpp:155] Setting up inception_4e/1x1
I1005 08:23:40.262855 21930 net.cpp:163] Top shape: 10 256 14 14 (501760)
I1005 08:23:40.262861 21930 layer_factory.hpp:76] Creating layer inception_4e/relu_1x1
I1005 08:23:40.262868 21930 net.cpp:110] Creating Layer inception_4e/relu_1x1
I1005 08:23:40.262872 21930 net.cpp:477] inception_4e/relu_1x1 <- inception_4e/1x1
I1005 08:23:40.262878 21930 net.cpp:419] inception_4e/relu_1x1 -> inception_4e/1x1 (in-place)
I1005 08:23:40.263000 21930 net.cpp:155] Setting up inception_4e/relu_1x1
I1005 08:23:40.263010 21930 net.cpp:163] Top shape: 10 256 14 14 (501760)
I1005 08:23:40.263013 21930 layer_factory.hpp:76] Creating layer inception_4e/3x3_reduce
I1005 08:23:40.263022 21930 net.cpp:110] Creating Layer inception_4e/3x3_reduce
I1005 08:23:40.263027 21930 net.cpp:477] inception_4e/3x3_reduce <- inception_4d/output_inception_4d/output_0_split_1
I1005 08:23:40.263034 21930 net.cpp:433] inception_4e/3x3_reduce -> inception_4e/3x3_reduce
I1005 08:23:40.264111 21930 net.cpp:155] Setting up inception_4e/3x3_reduce
I1005 08:23:40.264124 21930 net.cpp:163] Top shape: 10 160 14 14 (313600)
I1005 08:23:40.264132 21930 layer_factory.hpp:76] Creating layer inception_4e/relu_3x3_reduce
I1005 08:23:40.264138 21930 net.cpp:110] Creating Layer inception_4e/relu_3x3_reduce
I1005 08:23:40.264143 21930 net.cpp:477] inception_4e/relu_3x3_reduce <- inception_4e/3x3_reduce
I1005 08:23:40.264150 21930 net.cpp:419] inception_4e/relu_3x3_reduce -> inception_4e/3x3_reduce (in-place)
I1005 08:23:40.264274 21930 net.cpp:155] Setting up inception_4e/relu_3x3_reduce
I1005 08:23:40.264283 21930 net.cpp:163] Top shape: 10 160 14 14 (313600)
I1005 08:23:40.264288 21930 layer_factory.hpp:76] Creating layer inception_4e/3x3
I1005 08:23:40.264297 21930 net.cpp:110] Creating Layer inception_4e/3x3
I1005 08:23:40.264302 21930 net.cpp:477] inception_4e/3x3 <- inception_4e/3x3_reduce
I1005 08:23:40.264307 21930 net.cpp:433] inception_4e/3x3 -> inception_4e/3x3
I1005 08:23:40.267529 21930 net.cpp:155] Setting up inception_4e/3x3
I1005 08:23:40.267541 21930 net.cpp:163] Top shape: 10 320 14 14 (627200)
I1005 08:23:40.267549 21930 layer_factory.hpp:76] Creating layer inception_4e/relu_3x3
I1005 08:23:40.267555 21930 net.cpp:110] Creating Layer inception_4e/relu_3x3
I1005 08:23:40.267560 21930 net.cpp:477] inception_4e/relu_3x3 <- inception_4e/3x3
I1005 08:23:40.267567 21930 net.cpp:419] inception_4e/relu_3x3 -> inception_4e/3x3 (in-place)
I1005 08:23:40.267770 21930 net.cpp:155] Setting up inception_4e/relu_3x3
I1005 08:23:40.267781 21930 net.cpp:163] Top shape: 10 320 14 14 (627200)
I1005 08:23:40.267786 21930 layer_factory.hpp:76] Creating layer inception_4e/5x5_reduce
I1005 08:23:40.267794 21930 net.cpp:110] Creating Layer inception_4e/5x5_reduce
I1005 08:23:40.267799 21930 net.cpp:477] inception_4e/5x5_reduce <- inception_4d/output_inception_4d/output_0_split_2
I1005 08:23:40.267807 21930 net.cpp:433] inception_4e/5x5_reduce -> inception_4e/5x5_reduce
I1005 08:23:40.268468 21930 net.cpp:155] Setting up inception_4e/5x5_reduce
I1005 08:23:40.268481 21930 net.cpp:163] Top shape: 10 32 14 14 (62720)
I1005 08:23:40.268488 21930 layer_factory.hpp:76] Creating layer inception_4e/relu_5x5_reduce
I1005 08:23:40.268496 21930 net.cpp:110] Creating Layer inception_4e/relu_5x5_reduce
I1005 08:23:40.268501 21930 net.cpp:477] inception_4e/relu_5x5_reduce <- inception_4e/5x5_reduce
I1005 08:23:40.268508 21930 net.cpp:419] inception_4e/relu_5x5_reduce -> inception_4e/5x5_reduce (in-place)
I1005 08:23:40.268676 21930 net.cpp:155] Setting up inception_4e/relu_5x5_reduce
I1005 08:23:40.268685 21930 net.cpp:163] Top shape: 10 32 14 14 (62720)
I1005 08:23:40.268690 21930 layer_factory.hpp:76] Creating layer inception_4e/5x5
I1005 08:23:40.268697 21930 net.cpp:110] Creating Layer inception_4e/5x5
I1005 08:23:40.268702 21930 net.cpp:477] inception_4e/5x5 <- inception_4e/5x5_reduce
I1005 08:23:40.268712 21930 net.cpp:433] inception_4e/5x5 -> inception_4e/5x5
I1005 08:23:40.270035 21930 net.cpp:155] Setting up inception_4e/5x5
I1005 08:23:40.270047 21930 net.cpp:163] Top shape: 10 128 14 14 (250880)
I1005 08:23:40.270056 21930 layer_factory.hpp:76] Creating layer inception_4e/relu_5x5
I1005 08:23:40.270063 21930 net.cpp:110] Creating Layer inception_4e/relu_5x5
I1005 08:23:40.270068 21930 net.cpp:477] inception_4e/relu_5x5 <- inception_4e/5x5
I1005 08:23:40.270074 21930 net.cpp:419] inception_4e/relu_5x5 -> inception_4e/5x5 (in-place)
I1005 08:23:40.270198 21930 net.cpp:155] Setting up inception_4e/relu_5x5
I1005 08:23:40.270208 21930 net.cpp:163] Top shape: 10 128 14 14 (250880)
I1005 08:23:40.270212 21930 layer_factory.hpp:76] Creating layer inception_4e/pool
I1005 08:23:40.270218 21930 layer_factory.cpp:60] CUDNN does not support padding or multiple tops. Using Caffe's own pooling layer.
I1005 08:23:40.270223 21930 net.cpp:110] Creating Layer inception_4e/pool
I1005 08:23:40.270228 21930 net.cpp:477] inception_4e/pool <- inception_4d/output_inception_4d/output_0_split_3
I1005 08:23:40.270236 21930 net.cpp:433] inception_4e/pool -> inception_4e/pool
I1005 08:23:40.270243 21930 net.cpp:155] Setting up inception_4e/pool
I1005 08:23:40.270249 21930 net.cpp:163] Top shape: 10 528 14 14 (1034880)
I1005 08:23:40.270253 21930 layer_factory.hpp:76] Creating layer inception_4e/pool_proj
I1005 08:23:40.270262 21930 net.cpp:110] Creating Layer inception_4e/pool_proj
I1005 08:23:40.270267 21930 net.cpp:477] inception_4e/pool_proj <- inception_4e/pool
I1005 08:23:40.270273 21930 net.cpp:433] inception_4e/pool_proj -> inception_4e/pool_proj
I1005 08:23:40.271169 21930 net.cpp:155] Setting up inception_4e/pool_proj
I1005 08:23:40.271181 21930 net.cpp:163] Top shape: 10 128 14 14 (250880)
I1005 08:23:40.271189 21930 layer_factory.hpp:76] Creating layer inception_4e/relu_pool_proj
I1005 08:23:40.271196 21930 net.cpp:110] Creating Layer inception_4e/relu_pool_proj
I1005 08:23:40.271203 21930 net.cpp:477] inception_4e/relu_pool_proj <- inception_4e/pool_proj
I1005 08:23:40.271208 21930 net.cpp:419] inception_4e/relu_pool_proj -> inception_4e/pool_proj (in-place)
I1005 08:23:40.271414 21930 net.cpp:155] Setting up inception_4e/relu_pool_proj
I1005 08:23:40.271426 21930 net.cpp:163] Top shape: 10 128 14 14 (250880)
I1005 08:23:40.271431 21930 layer_factory.hpp:76] Creating layer inception_4e/output
I1005 08:23:40.271440 21930 net.cpp:110] Creating Layer inception_4e/output
I1005 08:23:40.271443 21930 net.cpp:477] inception_4e/output <- inception_4e/1x1
I1005 08:23:40.271450 21930 net.cpp:477] inception_4e/output <- inception_4e/3x3
I1005 08:23:40.271455 21930 net.cpp:477] inception_4e/output <- inception_4e/5x5
I1005 08:23:40.271458 21930 net.cpp:477] inception_4e/output <- inception_4e/pool_proj
I1005 08:23:40.271466 21930 net.cpp:433] inception_4e/output -> inception_4e/output
I1005 08:23:40.271472 21930 net.cpp:155] Setting up inception_4e/output
I1005 08:23:40.271478 21930 net.cpp:163] Top shape: 10 832 14 14 (1630720)
I1005 08:23:40.271482 21930 layer_factory.hpp:76] Creating layer pool4/3x3_s2
I1005 08:23:40.271488 21930 net.cpp:110] Creating Layer pool4/3x3_s2
I1005 08:23:40.271493 21930 net.cpp:477] pool4/3x3_s2 <- inception_4e/output
I1005 08:23:40.271500 21930 net.cpp:433] pool4/3x3_s2 -> pool4/3x3_s2
I1005 08:23:40.271625 21930 net.cpp:155] Setting up pool4/3x3_s2
I1005 08:23:40.271636 21930 net.cpp:163] Top shape: 10 832 7 7 (407680)
I1005 08:23:40.271641 21930 layer_factory.hpp:76] Creating layer pool4/3x3_s2_pool4/3x3_s2_0_split
I1005 08:23:40.271646 21930 net.cpp:110] Creating Layer pool4/3x3_s2_pool4/3x3_s2_0_split
I1005 08:23:40.271651 21930 net.cpp:477] pool4/3x3_s2_pool4/3x3_s2_0_split <- pool4/3x3_s2
I1005 08:23:40.271656 21930 net.cpp:433] pool4/3x3_s2_pool4/3x3_s2_0_split -> pool4/3x3_s2_pool4/3x3_s2_0_split_0
I1005 08:23:40.271664 21930 net.cpp:433] pool4/3x3_s2_pool4/3x3_s2_0_split -> pool4/3x3_s2_pool4/3x3_s2_0_split_1
I1005 08:23:40.271672 21930 net.cpp:433] pool4/3x3_s2_pool4/3x3_s2_0_split -> pool4/3x3_s2_pool4/3x3_s2_0_split_2
I1005 08:23:40.271682 21930 net.cpp:433] pool4/3x3_s2_pool4/3x3_s2_0_split -> pool4/3x3_s2_pool4/3x3_s2_0_split_3
I1005 08:23:40.271688 21930 net.cpp:155] Setting up pool4/3x3_s2_pool4/3x3_s2_0_split
I1005 08:23:40.271693 21930 net.cpp:163] Top shape: 10 832 7 7 (407680)
I1005 08:23:40.271698 21930 net.cpp:163] Top shape: 10 832 7 7 (407680)
I1005 08:23:40.271703 21930 net.cpp:163] Top shape: 10 832 7 7 (407680)
I1005 08:23:40.271708 21930 net.cpp:163] Top shape: 10 832 7 7 (407680)
I1005 08:23:40.271711 21930 layer_factory.hpp:76] Creating layer inception_5a/1x1
I1005 08:23:40.271719 21930 net.cpp:110] Creating Layer inception_5a/1x1
I1005 08:23:40.271724 21930 net.cpp:477] inception_5a/1x1 <- pool4/3x3_s2_pool4/3x3_s2_0_split_0
I1005 08:23:40.271730 21930 net.cpp:433] inception_5a/1x1 -> inception_5a/1x1
I1005 08:23:40.273613 21930 net.cpp:155] Setting up inception_5a/1x1
I1005 08:23:40.273627 21930 net.cpp:163] Top shape: 10 256 7 7 (125440)
I1005 08:23:40.273634 21930 layer_factory.hpp:76] Creating layer inception_5a/relu_1x1
I1005 08:23:40.273641 21930 net.cpp:110] Creating Layer inception_5a/relu_1x1
I1005 08:23:40.273646 21930 net.cpp:477] inception_5a/relu_1x1 <- inception_5a/1x1
I1005 08:23:40.273653 21930 net.cpp:419] inception_5a/relu_1x1 -> inception_5a/1x1 (in-place)
I1005 08:23:40.273857 21930 net.cpp:155] Setting up inception_5a/relu_1x1
I1005 08:23:40.273869 21930 net.cpp:163] Top shape: 10 256 7 7 (125440)
I1005 08:23:40.273874 21930 layer_factory.hpp:76] Creating layer inception_5a/3x3_reduce
I1005 08:23:40.273881 21930 net.cpp:110] Creating Layer inception_5a/3x3_reduce
I1005 08:23:40.273887 21930 net.cpp:477] inception_5a/3x3_reduce <- pool4/3x3_s2_pool4/3x3_s2_0_split_1
I1005 08:23:40.273895 21930 net.cpp:433] inception_5a/3x3_reduce -> inception_5a/3x3_reduce
I1005 08:23:40.275310 21930 net.cpp:155] Setting up inception_5a/3x3_reduce
I1005 08:23:40.275321 21930 net.cpp:163] Top shape: 10 160 7 7 (78400)
I1005 08:23:40.275328 21930 layer_factory.hpp:76] Creating layer inception_5a/relu_3x3_reduce
I1005 08:23:40.275336 21930 net.cpp:110] Creating Layer inception_5a/relu_3x3_reduce
I1005 08:23:40.275341 21930 net.cpp:477] inception_5a/relu_3x3_reduce <- inception_5a/3x3_reduce
I1005 08:23:40.275347 21930 net.cpp:419] inception_5a/relu_3x3_reduce -> inception_5a/3x3_reduce (in-place)
I1005 08:23:40.275553 21930 net.cpp:155] Setting up inception_5a/relu_3x3_reduce
I1005 08:23:40.275564 21930 net.cpp:163] Top shape: 10 160 7 7 (78400)
I1005 08:23:40.275569 21930 layer_factory.hpp:76] Creating layer inception_5a/3x3
I1005 08:23:40.275578 21930 net.cpp:110] Creating Layer inception_5a/3x3
I1005 08:23:40.275583 21930 net.cpp:477] inception_5a/3x3 <- inception_5a/3x3_reduce
I1005 08:23:40.275590 21930 net.cpp:433] inception_5a/3x3 -> inception_5a/3x3
I1005 08:23:40.278828 21930 net.cpp:155] Setting up inception_5a/3x3
I1005 08:23:40.278842 21930 net.cpp:163] Top shape: 10 320 7 7 (156800)
I1005 08:23:40.278851 21930 layer_factory.hpp:76] Creating layer inception_5a/relu_3x3
I1005 08:23:40.278856 21930 net.cpp:110] Creating Layer inception_5a/relu_3x3
I1005 08:23:40.278870 21930 net.cpp:477] inception_5a/relu_3x3 <- inception_5a/3x3
I1005 08:23:40.278875 21930 net.cpp:419] inception_5a/relu_3x3 -> inception_5a/3x3 (in-place)
I1005 08:23:40.279084 21930 net.cpp:155] Setting up inception_5a/relu_3x3
I1005 08:23:40.279095 21930 net.cpp:163] Top shape: 10 320 7 7 (156800)
I1005 08:23:40.279100 21930 layer_factory.hpp:76] Creating layer inception_5a/5x5_reduce
I1005 08:23:40.279109 21930 net.cpp:110] Creating Layer inception_5a/5x5_reduce
I1005 08:23:40.279112 21930 net.cpp:477] inception_5a/5x5_reduce <- pool4/3x3_s2_pool4/3x3_s2_0_split_2
I1005 08:23:40.279119 21930 net.cpp:433] inception_5a/5x5_reduce -> inception_5a/5x5_reduce
I1005 08:23:40.279834 21930 net.cpp:155] Setting up inception_5a/5x5_reduce
I1005 08:23:40.279846 21930 net.cpp:163] Top shape: 10 32 7 7 (15680)
I1005 08:23:40.279853 21930 layer_factory.hpp:76] Creating layer inception_5a/relu_5x5_reduce
I1005 08:23:40.279865 21930 net.cpp:110] Creating Layer inception_5a/relu_5x5_reduce
I1005 08:23:40.279870 21930 net.cpp:477] inception_5a/relu_5x5_reduce <- inception_5a/5x5_reduce
I1005 08:23:40.279875 21930 net.cpp:419] inception_5a/relu_5x5_reduce -> inception_5a/5x5_reduce (in-place)
I1005 08:23:40.280082 21930 net.cpp:155] Setting up inception_5a/relu_5x5_reduce
I1005 08:23:40.280094 21930 net.cpp:163] Top shape: 10 32 7 7 (15680)
I1005 08:23:40.280100 21930 layer_factory.hpp:76] Creating layer inception_5a/5x5
I1005 08:23:40.280107 21930 net.cpp:110] Creating Layer inception_5a/5x5
I1005 08:23:40.280112 21930 net.cpp:477] inception_5a/5x5 <- inception_5a/5x5_reduce
I1005 08:23:40.280128 21930 net.cpp:433] inception_5a/5x5 -> inception_5a/5x5
I1005 08:23:40.281121 21930 net.cpp:155] Setting up inception_5a/5x5
I1005 08:23:40.281131 21930 net.cpp:163] Top shape: 10 128 7 7 (62720)
I1005 08:23:40.281148 21930 layer_factory.hpp:76] Creating layer inception_5a/relu_5x5
I1005 08:23:40.281154 21930 net.cpp:110] Creating Layer inception_5a/relu_5x5
I1005 08:23:40.281159 21930 net.cpp:477] inception_5a/relu_5x5 <- inception_5a/5x5
I1005 08:23:40.281164 21930 net.cpp:419] inception_5a/relu_5x5 -> inception_5a/5x5 (in-place)
I1005 08:23:40.281391 21930 net.cpp:155] Setting up inception_5a/relu_5x5
I1005 08:23:40.281404 21930 net.cpp:163] Top shape: 10 128 7 7 (62720)
I1005 08:23:40.281417 21930 layer_factory.hpp:76] Creating layer inception_5a/pool
I1005 08:23:40.281424 21930 layer_factory.cpp:60] CUDNN does not support padding or multiple tops. Using Caffe's own pooling layer.
I1005 08:23:40.281448 21930 net.cpp:110] Creating Layer inception_5a/pool
I1005 08:23:40.281453 21930 net.cpp:477] inception_5a/pool <- pool4/3x3_s2_pool4/3x3_s2_0_split_3
I1005 08:23:40.281471 21930 net.cpp:433] inception_5a/pool -> inception_5a/pool
I1005 08:23:40.281478 21930 net.cpp:155] Setting up inception_5a/pool
I1005 08:23:40.281492 21930 net.cpp:163] Top shape: 10 832 7 7 (407680)
I1005 08:23:40.281497 21930 layer_factory.hpp:76] Creating layer inception_5a/pool_proj
I1005 08:23:40.281513 21930 net.cpp:110] Creating Layer inception_5a/pool_proj
I1005 08:23:40.281517 21930 net.cpp:477] inception_5a/pool_proj <- inception_5a/pool
I1005 08:23:40.281523 21930 net.cpp:433] inception_5a/pool_proj -> inception_5a/pool_proj
I1005 08:23:40.282860 21930 net.cpp:155] Setting up inception_5a/pool_proj
I1005 08:23:40.282871 21930 net.cpp:163] Top shape: 10 128 7 7 (62720)
I1005 08:23:40.282879 21930 layer_factory.hpp:76] Creating layer inception_5a/relu_pool_proj
I1005 08:23:40.282886 21930 net.cpp:110] Creating Layer inception_5a/relu_pool_proj
I1005 08:23:40.282891 21930 net.cpp:477] inception_5a/relu_pool_proj <- inception_5a/pool_proj
I1005 08:23:40.282896 21930 net.cpp:419] inception_5a/relu_pool_proj -> inception_5a/pool_proj (in-place)
I1005 08:23:40.283018 21930 net.cpp:155] Setting up inception_5a/relu_pool_proj
I1005 08:23:40.283026 21930 net.cpp:163] Top shape: 10 128 7 7 (62720)
I1005 08:23:40.283031 21930 layer_factory.hpp:76] Creating layer inception_5a/output
I1005 08:23:40.283040 21930 net.cpp:110] Creating Layer inception_5a/output
I1005 08:23:40.283053 21930 net.cpp:477] inception_5a/output <- inception_5a/1x1
I1005 08:23:40.283057 21930 net.cpp:477] inception_5a/output <- inception_5a/3x3
I1005 08:23:40.283062 21930 net.cpp:477] inception_5a/output <- inception_5a/5x5
I1005 08:23:40.283067 21930 net.cpp:477] inception_5a/output <- inception_5a/pool_proj
I1005 08:23:40.283071 21930 net.cpp:433] inception_5a/output -> inception_5a/output
I1005 08:23:40.283078 21930 net.cpp:155] Setting up inception_5a/output
I1005 08:23:40.283083 21930 net.cpp:163] Top shape: 10 832 7 7 (407680)
I1005 08:23:40.283087 21930 layer_factory.hpp:76] Creating layer inception_5a/output_inception_5a/output_0_split
I1005 08:23:40.283093 21930 net.cpp:110] Creating Layer inception_5a/output_inception_5a/output_0_split
I1005 08:23:40.283097 21930 net.cpp:477] inception_5a/output_inception_5a/output_0_split <- inception_5a/output
I1005 08:23:40.283102 21930 net.cpp:433] inception_5a/output_inception_5a/output_0_split -> inception_5a/output_inception_5a/output_0_split_0
I1005 08:23:40.283113 21930 net.cpp:433] inception_5a/output_inception_5a/output_0_split -> inception_5a/output_inception_5a/output_0_split_1
I1005 08:23:40.283120 21930 net.cpp:433] inception_5a/output_inception_5a/output_0_split -> inception_5a/output_inception_5a/output_0_split_2
I1005 08:23:40.283135 21930 net.cpp:433] inception_5a/output_inception_5a/output_0_split -> inception_5a/output_inception_5a/output_0_split_3
I1005 08:23:40.283143 21930 net.cpp:155] Setting up inception_5a/output_inception_5a/output_0_split
I1005 08:23:40.283148 21930 net.cpp:163] Top shape: 10 832 7 7 (407680)
I1005 08:23:40.283152 21930 net.cpp:163] Top shape: 10 832 7 7 (407680)
I1005 08:23:40.283156 21930 net.cpp:163] Top shape: 10 832 7 7 (407680)
I1005 08:23:40.283169 21930 net.cpp:163] Top shape: 10 832 7 7 (407680)
I1005 08:23:40.283174 21930 layer_factory.hpp:76] Creating layer inception_5b/1x1
I1005 08:23:40.283181 21930 net.cpp:110] Creating Layer inception_5b/1x1
I1005 08:23:40.283187 21930 net.cpp:477] inception_5b/1x1 <- inception_5a/output_inception_5a/output_0_split_0
I1005 08:23:40.283193 21930 net.cpp:433] inception_5b/1x1 -> inception_5b/1x1
I1005 08:23:40.285624 21930 net.cpp:155] Setting up inception_5b/1x1
I1005 08:23:40.285637 21930 net.cpp:163] Top shape: 10 384 7 7 (188160)
I1005 08:23:40.285645 21930 layer_factory.hpp:76] Creating layer inception_5b/relu_1x1
I1005 08:23:40.285651 21930 net.cpp:110] Creating Layer inception_5b/relu_1x1
I1005 08:23:40.285655 21930 net.cpp:477] inception_5b/relu_1x1 <- inception_5b/1x1
I1005 08:23:40.285661 21930 net.cpp:419] inception_5b/relu_1x1 -> inception_5b/1x1 (in-place)
I1005 08:23:40.285864 21930 net.cpp:155] Setting up inception_5b/relu_1x1
I1005 08:23:40.285876 21930 net.cpp:163] Top shape: 10 384 7 7 (188160)
I1005 08:23:40.285881 21930 layer_factory.hpp:76] Creating layer inception_5b/3x3_reduce
I1005 08:23:40.285887 21930 net.cpp:110] Creating Layer inception_5b/3x3_reduce
I1005 08:23:40.285892 21930 net.cpp:477] inception_5b/3x3_reduce <- inception_5a/output_inception_5a/output_0_split_1
I1005 08:23:40.285899 21930 net.cpp:433] inception_5b/3x3_reduce -> inception_5b/3x3_reduce
I1005 08:23:40.287417 21930 net.cpp:155] Setting up inception_5b/3x3_reduce
I1005 08:23:40.287431 21930 net.cpp:163] Top shape: 10 192 7 7 (94080)
I1005 08:23:40.287437 21930 layer_factory.hpp:76] Creating layer inception_5b/relu_3x3_reduce
I1005 08:23:40.287444 21930 net.cpp:110] Creating Layer inception_5b/relu_3x3_reduce
I1005 08:23:40.287449 21930 net.cpp:477] inception_5b/relu_3x3_reduce <- inception_5b/3x3_reduce
I1005 08:23:40.287454 21930 net.cpp:419] inception_5b/relu_3x3_reduce -> inception_5b/3x3_reduce (in-place)
I1005 08:23:40.287655 21930 net.cpp:155] Setting up inception_5b/relu_3x3_reduce
I1005 08:23:40.287667 21930 net.cpp:163] Top shape: 10 192 7 7 (94080)
I1005 08:23:40.287672 21930 layer_factory.hpp:76] Creating layer inception_5b/3x3
I1005 08:23:40.287679 21930 net.cpp:110] Creating Layer inception_5b/3x3
I1005 08:23:40.287684 21930 net.cpp:477] inception_5b/3x3 <- inception_5b/3x3_reduce
I1005 08:23:40.287691 21930 net.cpp:433] inception_5b/3x3 -> inception_5b/3x3
I1005 08:23:40.291952 21930 net.cpp:155] Setting up inception_5b/3x3
I1005 08:23:40.291966 21930 net.cpp:163] Top shape: 10 384 7 7 (188160)
I1005 08:23:40.291975 21930 layer_factory.hpp:76] Creating layer inception_5b/relu_3x3
I1005 08:23:40.291980 21930 net.cpp:110] Creating Layer inception_5b/relu_3x3
I1005 08:23:40.291985 21930 net.cpp:477] inception_5b/relu_3x3 <- inception_5b/3x3
I1005 08:23:40.292001 21930 net.cpp:419] inception_5b/relu_3x3 -> inception_5b/3x3 (in-place)
I1005 08:23:40.292139 21930 net.cpp:155] Setting up inception_5b/relu_3x3
I1005 08:23:40.292148 21930 net.cpp:163] Top shape: 10 384 7 7 (188160)
I1005 08:23:40.292162 21930 layer_factory.hpp:76] Creating layer inception_5b/5x5_reduce
I1005 08:23:40.292171 21930 net.cpp:110] Creating Layer inception_5b/5x5_reduce
I1005 08:23:40.292174 21930 net.cpp:477] inception_5b/5x5_reduce <- inception_5a/output_inception_5a/output_0_split_2
I1005 08:23:40.292186 21930 net.cpp:433] inception_5b/5x5_reduce -> inception_5b/5x5_reduce
I1005 08:23:40.292978 21930 net.cpp:155] Setting up inception_5b/5x5_reduce
I1005 08:23:40.292989 21930 net.cpp:163] Top shape: 10 48 7 7 (23520)
I1005 08:23:40.293005 21930 layer_factory.hpp:76] Creating layer inception_5b/relu_5x5_reduce
I1005 08:23:40.293011 21930 net.cpp:110] Creating Layer inception_5b/relu_5x5_reduce
I1005 08:23:40.293017 21930 net.cpp:477] inception_5b/relu_5x5_reduce <- inception_5b/5x5_reduce
I1005 08:23:40.293033 21930 net.cpp:419] inception_5b/relu_5x5_reduce -> inception_5b/5x5_reduce (in-place)
I1005 08:23:40.293254 21930 net.cpp:155] Setting up inception_5b/relu_5x5_reduce
I1005 08:23:40.293265 21930 net.cpp:163] Top shape: 10 48 7 7 (23520)
I1005 08:23:40.293279 21930 layer_factory.hpp:76] Creating layer inception_5b/5x5
I1005 08:23:40.293287 21930 net.cpp:110] Creating Layer inception_5b/5x5
I1005 08:23:40.293292 21930 net.cpp:477] inception_5b/5x5 <- inception_5b/5x5_reduce
I1005 08:23:40.293308 21930 net.cpp:433] inception_5b/5x5 -> inception_5b/5x5
I1005 08:23:40.294562 21930 net.cpp:155] Setting up inception_5b/5x5
I1005 08:23:40.294574 21930 net.cpp:163] Top shape: 10 128 7 7 (62720)
I1005 08:23:40.294591 21930 layer_factory.hpp:76] Creating layer inception_5b/relu_5x5
I1005 08:23:40.294598 21930 net.cpp:110] Creating Layer inception_5b/relu_5x5
I1005 08:23:40.294612 21930 net.cpp:477] inception_5b/relu_5x5 <- inception_5b/5x5
I1005 08:23:40.294616 21930 net.cpp:419] inception_5b/relu_5x5 -> inception_5b/5x5 (in-place)
I1005 08:23:40.294903 21930 net.cpp:155] Setting up inception_5b/relu_5x5
I1005 08:23:40.294914 21930 net.cpp:163] Top shape: 10 128 7 7 (62720)
I1005 08:23:40.294929 21930 layer_factory.hpp:76] Creating layer inception_5b/pool
I1005 08:23:40.294932 21930 layer_factory.cpp:60] CUDNN does not support padding or multiple tops. Using Caffe's own pooling layer.
I1005 08:23:40.294939 21930 net.cpp:110] Creating Layer inception_5b/pool
I1005 08:23:40.294945 21930 net.cpp:477] inception_5b/pool <- inception_5a/output_inception_5a/output_0_split_3
I1005 08:23:40.294960 21930 net.cpp:433] inception_5b/pool -> inception_5b/pool
I1005 08:23:40.294978 21930 net.cpp:155] Setting up inception_5b/pool
I1005 08:23:40.294984 21930 net.cpp:163] Top shape: 10 832 7 7 (407680)
I1005 08:23:40.294989 21930 layer_factory.hpp:76] Creating layer inception_5b/pool_proj
I1005 08:23:40.294996 21930 net.cpp:110] Creating Layer inception_5b/pool_proj
I1005 08:23:40.295001 21930 net.cpp:477] inception_5b/pool_proj <- inception_5b/pool
I1005 08:23:40.295006 21930 net.cpp:433] inception_5b/pool_proj -> inception_5b/pool_proj
I1005 08:23:40.296340 21930 net.cpp:155] Setting up inception_5b/pool_proj
I1005 08:23:40.296352 21930 net.cpp:163] Top shape: 10 128 7 7 (62720)
I1005 08:23:40.296370 21930 layer_factory.hpp:76] Creating layer inception_5b/relu_pool_proj
I1005 08:23:40.296377 21930 net.cpp:110] Creating Layer inception_5b/relu_pool_proj
I1005 08:23:40.296382 21930 net.cpp:477] inception_5b/relu_pool_proj <- inception_5b/pool_proj
I1005 08:23:40.296388 21930 net.cpp:419] inception_5b/relu_pool_proj -> inception_5b/pool_proj (in-place)
I1005 08:23:40.296512 21930 net.cpp:155] Setting up inception_5b/relu_pool_proj
I1005 08:23:40.296521 21930 net.cpp:163] Top shape: 10 128 7 7 (62720)
I1005 08:23:40.296526 21930 layer_factory.hpp:76] Creating layer inception_5b/output
I1005 08:23:40.296533 21930 net.cpp:110] Creating Layer inception_5b/output
I1005 08:23:40.296537 21930 net.cpp:477] inception_5b/output <- inception_5b/1x1
I1005 08:23:40.296543 21930 net.cpp:477] inception_5b/output <- inception_5b/3x3
I1005 08:23:40.296547 21930 net.cpp:477] inception_5b/output <- inception_5b/5x5
I1005 08:23:40.296552 21930 net.cpp:477] inception_5b/output <- inception_5b/pool_proj
I1005 08:23:40.296557 21930 net.cpp:433] inception_5b/output -> inception_5b/output
I1005 08:23:40.296566 21930 net.cpp:155] Setting up inception_5b/output
I1005 08:23:40.296576 21930 net.cpp:163] Top shape: 10 1024 7 7 (501760)
I1005 08:23:40.296581 21930 layer_factory.hpp:76] Creating layer pool5/7x7_s1
I1005 08:23:40.296587 21930 net.cpp:110] Creating Layer pool5/7x7_s1
I1005 08:23:40.296591 21930 net.cpp:477] pool5/7x7_s1 <- inception_5b/output
I1005 08:23:40.296597 21930 net.cpp:433] pool5/7x7_s1 -> pool5/7x7_s1
I1005 08:23:40.296803 21930 net.cpp:155] Setting up pool5/7x7_s1
I1005 08:23:40.296814 21930 net.cpp:163] Top shape: 10 1024 1 1 (10240)
I1005 08:23:40.296819 21930 layer_factory.hpp:76] Creating layer pool5/drop_7x7_s1
I1005 08:23:40.296825 21930 net.cpp:110] Creating Layer pool5/drop_7x7_s1
I1005 08:23:40.296830 21930 net.cpp:477] pool5/drop_7x7_s1 <- pool5/7x7_s1
I1005 08:23:40.296836 21930 net.cpp:433] pool5/drop_7x7_s1 -> dropout/pool5/7x7_s1
I1005 08:23:40.296844 21930 net.cpp:155] Setting up pool5/drop_7x7_s1
I1005 08:23:40.296849 21930 net.cpp:163] Top shape: 10 1024 1 1 (10240)
I1005 08:23:40.296854 21930 layer_factory.hpp:76] Creating layer loss3/classifier
I1005 08:23:40.296862 21930 net.cpp:110] Creating Layer loss3/classifier
I1005 08:23:40.296867 21930 net.cpp:477] loss3/classifier <- dropout/pool5/7x7_s1
I1005 08:23:40.296875 21930 net.cpp:433] loss3/classifier -> loss3/classifier
I1005 08:23:40.302613 21930 net.cpp:155] Setting up loss3/classifier
I1005 08:23:40.302626 21930 net.cpp:163] Top shape: 10 1000 (10000)
I1005 08:23:40.302644 21930 layer_factory.hpp:76] Creating layer prob
I1005 08:23:40.302649 21930 net.cpp:110] Creating Layer prob
I1005 08:23:40.302654 21930 net.cpp:477] prob <- loss3/classifier
I1005 08:23:40.302660 21930 net.cpp:433] prob -> prob
I1005 08:23:40.302822 21930 net.cpp:155] Setting up prob
I1005 08:23:40.302832 21930 net.cpp:163] Top shape: 10 1000 (10000)
I1005 08:23:40.302837 21930 net.cpp:240] prob does not need backward computation.
I1005 08:23:40.302841 21930 net.cpp:240] loss3/classifier does not need backward computation.
I1005 08:23:40.302855 21930 net.cpp:240] pool5/drop_7x7_s1 does not need backward computation.
I1005 08:23:40.302858 21930 net.cpp:240] pool5/7x7_s1 does not need backward computation.
I1005 08:23:40.302861 21930 net.cpp:240] inception_5b/output does not need backward computation.
…
