INFO:root:Loading net and associated files...
WARNING: Logging before InitGoogleLogging() is written to STDERR
I0921 08:21:54.464083 2063708928 net.cpp:50] Initializing net from parameters: 
name: "VGG_ILSVRC_16_layer"
input: "data"
input_dim: 10
input_dim: 3
input_dim: 224
input_dim: 224
state {
  phase: TEST
}
layer {
  name: "conv1_1"
  type: "Convolution"
  bottom: "data"
  top: "conv1_1"
  param {
    name: "conv1_1_w"
    lr_mult: 1
    decay_mult: 1
  }
  param {
    name: "conv1_1_b"
    lr_mult: 2
    decay_mult: 0
  }
  convolution_param {
    num_output: 64
    pad: 1
    kernel_size: 3
  }
}
layer {
  name: "relu1_1"
  type: "ReLU"
  bottom: "conv1_1"
  top: "conv1_1"
}
layer {
  name: "conv1_2"
  type: "Convolution"
  bottom: "conv1_1"
  top: "conv1_2"
  param {
    name: "conv1_2_w"
    lr_mult: 1
    decay_mult: 1
  }
  param {
    name: "conv1_2_b"
    lr_mult: 2
    decay_mult: 0
  }
  convolution_param {
    num_output: 64
    pad: 1
    kernel_size: 3
  }
}
layer {
  name: "relu1_2"
  type: "ReLU"
  bottom: "conv1_2"
  top: "conv1_2"
}
layer {
  name: "pool1"
  type: "Pooling"
  bottom: "conv1_2"
  top: "pool1"
  pooling_param {
    pool: MAX
    kernel_size: 2
    stride: 2
  }
}
layer {
  name: "conv2_1"
  type: "Convolution"
  bottom: "pool1"
  top: "conv2_1"
  param {
    name: "conv2_1_w"
    lr_mult: 1
    decay_mult: 1
  }
  param {
    name: "conv2_1_b"
    lr_mult: 2
    decay_mult: 0
  }
  convolution_param {
    num_output: 128
    pad: 1
    kernel_size: 3
  }
}
layer {
  name: "relu2_1"
  type: "ReLU"
  bottom: "conv2_1"
  top: "conv2_1"
}
layer {
  name: "conv2_2"
  type: "Convolution"
  bottom: "conv2_1"
  top: "conv2_2"
  param {
    name: "conv2_2_w"
    lr_mult: 1
    decay_mult: 1
  }
  param {
    name: "conv2_2_b"
    lr_mult: 2
    decay_mult: 0
  }
  convolution_param {
    num_output: 128
    pad: 1
    kernel_size: 3
  }
}
layer {
  name: "relu2_2"
  type: "ReLU"
  bottom: "conv2_2"
  top: "conv2_2"
}
layer {
  name: "pool2"
  type: "Pooling"
  bottom: "conv2_2"
  top: "pool2"
  pooling_param {
    pool: MAX
    kernel_size: 2
    stride: 2
  }
}
layer {
  name: "conv3_1"
  type: "Convolution"
  bottom: "pool2"
  top: "conv3_1"
  param {
    name: "conv3_1_w"
    lr_mult: 1
    decay_mult: 1
  }
  param {
    name: "conv3_1_b"
    lr_mult: 2
    decay_mult: 0
  }
  convolution_param {
    num_output: 256
    pad: 1
    kernel_size: 3
  }
}
layer {
  name: "relu3_1"
  type: "ReLU"
  bottom: "conv3_1"
  top: "conv3_1"
}
layer {
  name: "conv3_2"
  type: "Convolution"
  bottom: "conv3_1"
  top: "conv3_2"
  param {
    name: "conv3_2_w"
    lr_mult: 1
    decay_mult: 1
  }
  param {
    name: "conv3_2_b"
    lr_mult: 2
    decay_mult: 0
  }
  convolution_param {
    num_output: 256
    pad: 1
    kernel_size: 3
  }
}
layer {
  name: "relu3_2"
  type: "ReLU"
  bottom: "conv3_2"
  top: "conv3_2"
}
layer {
  name: "conv3_3"
  type: "Convolution"
  bottom: "conv3_2"
  top: "conv3_3"
  param {
    name: "conv3_3_w"
    lr_mult: 1
    decay_mult: 1
  }
  param {
    name: "conv3_3_b"
    lr_mult: 2
    decay_mult: 0
  }
  convolution_param {
    num_output: 256
    pad: 1
    kernel_size: 3
  }
}
layer {
  name: "relu3_3"
  type: "ReLU"
  bottom: "conv3_3"
  top: "conv3_3"
}
layer {
  name: "pool3"
  type: "Pooling"
  bottom: "conv3_3"
  top: "pool3"
  pooling_param {
    pool: MAX
    kernel_size: 2
    stride: 2
  }
}
layer {
  name: "conv4_1"
  type: "Convolution"
  bottom: "pool3"
  top: "conv4_1"
  param {
    name: "conv4_1_w"
    lr_mult: 1
    decay_mult: 1
  }
  param {
    name: "conv4_1_b"
    lr_mult: 2
    decay_mult: 0
  }
  convolution_param {
    num_output: 512
    pad: 1
    kernel_size: 3
  }
}
layer {
  name: "relu4_1"
  type: "ReLU"
  bottom: "conv4_1"
  top: "conv4_1"
}
layer {
  name: "conv4_2"
  type: "Convolution"
  bottom: "conv4_1"
  top: "conv4_2"
  param {
    name: "conv4_2_w"
    lr_mult: 1
    decay_mult: 1
  }
  param {
    name: "conv4_2_b"
    lr_mult: 2
    decay_mult: 0
  }
  convolution_param {
    num_output: 512
    pad: 1
    kernel_size: 3
  }
}
layer {
  name: "relu4_2"
  type: "ReLU"
  bottom: "conv4_2"
  top: "conv4_2"
}
layer {
  name: "conv4_3"
  type: "Convolution"
  bottom: "conv4_2"
  top: "conv4_3"
  param {
    name: "conv4_3_w"
    lr_mult: 1
    decay_mult: 1
  }
  param {
    name: "conv4_3_b"
    lr_mult: 2
    decay_mult: 0
  }
  convolution_param {
    num_output: 512
    pad: 1
    kernel_size: 3
  }
}
layer {
  name: "relu4_3"
  type: "ReLU"
  bottom: "conv4_3"
  top: "conv4_3"
}
layer {
  name: "pool4"
  type: "Pooling"
  bottom: "conv4_3"
  top: "pool4"
  pooling_param {
    pool: MAX
    kernel_size: 2
    stride: 2
  }
}
layer {
  name: "conv5_1"
  type: "Convolution"
  bottom: "pool4"
  top: "conv5_1"
  param {
    name: "conv5_1_w"
    lr_mult: 1
    decay_mult: 1
  }
  param {
    name: "conv5_1_b"
    lr_mult: 2
    decay_mult: 0
  }
  convolution_param {
    num_output: 512
    pad: 1
    kernel_size: 3
  }
}
layer {
  name: "relu5_1"
  type: "ReLU"
  bottom: "conv5_1"
  top: "conv5_1"
}
layer {
  name: "conv5_2"
  type: "Convolution"
  bottom: "conv5_1"
  top: "conv5_2"
  param {
    name: "conv5_2_w"
    lr_mult: 1
    decay_mult: 1
  }
  param {
    name: "conv5_2_b"
    lr_mult: 2
    decay_mult: 0
  }
  convolution_param {
    num_output: 512
    pad: 1
    kernel_size: 3
  }
}
layer {
  name: "relu5_2"
  type: "ReLU"
  bottom: "conv5_2"
  top: "conv5_2"
}
layer {
  name: "conv5_3"
  type: "Convolution"
  bottom: "conv5_2"
  top: "conv5_3"
  param {
    name: "conv5_3_w"
    lr_mult: 1
    decay_mult: 1
  }
  param {
    name: "conv5_3_b"
    lr_mult: 2
    decay_mult: 0
  }
  convolution_param {
    num_output: 512
    pad: 1
    kernel_size: 3
  }
}
layer {
  name: "relu5_3"
  type: "ReLU"
  bottom: "conv5_3"
  top: "conv5_3"
}
layer {
  name: "pool5"
  type: "Pooling"
  bottom: "conv5_3"
  top: "pool5"
  pooling_param {
    pool: MAX
    kernel_size: 2
    stride: 2
  }
}
layer {
  name: "fc6"
  type: "InnerProduct"
  bottom: "pool5"
  top: "fc6"
  param {
    name: "fc6_w"
    lr_mult: 1
    decay_mult: 1
  }
  param {
    name: "fc6_b"
    lr_mult: 2
    decay_mult: 0
  }
  inner_product_param {
    num_output: 4096
  }
}
layer {
  name: "relu6"
  type: "ReLU"
  bottom: "fc6"
  top: "relu6"
}
layer {
  name: "drop6"
  type: "Dropout"
  bottom: "relu6"
  top: "drop6"
  dropout_param {
    dropout_ratio: 0.5
  }
}
layer {
  name: "fc7"
  type: "InnerProduct"
  bottom: "drop6"
  top: "fc7"
  param {
    name: "fc7_w"
    lr_mult: 1
    decay_mult: 1
  }
  param {
    name: "fc7_b"
    lr_mult: 2
    decay_mult: 0
  }
  inner_product_param {
    num_output: 4096
  }
}
layer {
  name: "relu7"
  type: "ReLU"
  bottom: "fc7"
  top: "relu7"
}
layer {
  name: "drop7"
  type: "Dropout"
  bottom: "relu7"
  top: "drop7"
  dropout_param {
    dropout_ratio: 0.5
  }
}
layer {
  name: "fc8"
  type: "InnerProduct"
  bottom: "drop7"
  top: "fc8"
  param {
    name: "fc8_w"
    lr_mult: 1
    decay_mult: 1
  }
  param {
    name: "fc8_b"
    lr_mult: 2
    decay_mult: 0
  }
  inner_product_param {
    num_output: 1000
  }
}
layer {
  name: "prob"
  type: "Softmax"
  bottom: "fc8"
  top: "prob"
}
I0921 08:21:54.464565 2063708928 net.cpp:435] Input 0 -> data
I0921 08:21:54.464603 2063708928 layer_factory.hpp:76] Creating layer conv1_1
I0921 08:21:54.464617 2063708928 net.cpp:110] Creating Layer conv1_1
I0921 08:21:54.464625 2063708928 net.cpp:477] conv1_1 <- data
I0921 08:21:54.464633 2063708928 net.cpp:433] conv1_1 -> conv1_1
I0921 08:21:54.465301 2063708928 net.cpp:155] Setting up conv1_1
I0921 08:21:54.465338 2063708928 net.cpp:163] Top shape: 10 64 224 224 (32112640)
I0921 08:21:54.465369 2063708928 layer_factory.hpp:76] Creating layer relu1_1
I0921 08:21:54.465385 2063708928 net.cpp:110] Creating Layer relu1_1
I0921 08:21:54.465392 2063708928 net.cpp:477] relu1_1 <- conv1_1
I0921 08:21:54.465405 2063708928 net.cpp:419] relu1_1 -> conv1_1 (in-place)
I0921 08:21:54.465417 2063708928 net.cpp:155] Setting up relu1_1
I0921 08:21:54.465422 2063708928 net.cpp:163] Top shape: 10 64 224 224 (32112640)
I0921 08:21:54.465430 2063708928 layer_factory.hpp:76] Creating layer conv1_2
I0921 08:21:54.465459 2063708928 net.cpp:110] Creating Layer conv1_2
I0921 08:21:54.465466 2063708928 net.cpp:477] conv1_2 <- conv1_1
I0921 08:21:54.465472 2063708928 net.cpp:433] conv1_2 -> conv1_2
I0921 08:21:54.465653 2063708928 net.cpp:155] Setting up conv1_2
I0921 08:21:54.465662 2063708928 net.cpp:163] Top shape: 10 64 224 224 (32112640)
I0921 08:21:54.465673 2063708928 layer_factory.hpp:76] Creating layer relu1_2
I0921 08:21:54.465680 2063708928 net.cpp:110] Creating Layer relu1_2
I0921 08:21:54.465685 2063708928 net.cpp:477] relu1_2 <- conv1_2
I0921 08:21:54.465693 2063708928 net.cpp:419] relu1_2 -> conv1_2 (in-place)
I0921 08:21:54.465701 2063708928 net.cpp:155] Setting up relu1_2
I0921 08:21:54.465706 2063708928 net.cpp:163] Top shape: 10 64 224 224 (32112640)
I0921 08:21:54.465713 2063708928 layer_factory.hpp:76] Creating layer pool1
I0921 08:21:54.465721 2063708928 net.cpp:110] Creating Layer pool1
I0921 08:21:54.465726 2063708928 net.cpp:477] pool1 <- conv1_2
I0921 08:21:54.465733 2063708928 net.cpp:433] pool1 -> pool1
I0921 08:21:54.465747 2063708928 net.cpp:155] Setting up pool1
I0921 08:21:54.465754 2063708928 net.cpp:163] Top shape: 10 64 112 112 (8028160)
I0921 08:21:54.465761 2063708928 layer_factory.hpp:76] Creating layer conv2_1
I0921 08:21:54.465770 2063708928 net.cpp:110] Creating Layer conv2_1
I0921 08:21:54.465775 2063708928 net.cpp:477] conv2_1 <- pool1
I0921 08:21:54.465783 2063708928 net.cpp:433] conv2_1 -> conv2_1
I0921 08:21:54.465973 2063708928 net.cpp:155] Setting up conv2_1
I0921 08:21:54.465981 2063708928 net.cpp:163] Top shape: 10 128 112 112 (16056320)
I0921 08:21:54.465992 2063708928 layer_factory.hpp:76] Creating layer relu2_1
I0921 08:21:54.465999 2063708928 net.cpp:110] Creating Layer relu2_1
I0921 08:21:54.466007 2063708928 net.cpp:477] relu2_1 <- conv2_1
I0921 08:21:54.466022 2063708928 net.cpp:419] relu2_1 -> conv2_1 (in-place)
I0921 08:21:54.466028 2063708928 net.cpp:155] Setting up relu2_1
I0921 08:21:54.466033 2063708928 net.cpp:163] Top shape: 10 128 112 112 (16056320)
I0921 08:21:54.466039 2063708928 layer_factory.hpp:76] Creating layer conv2_2
I0921 08:21:54.466048 2063708928 net.cpp:110] Creating Layer conv2_2
I0921 08:21:54.466053 2063708928 net.cpp:477] conv2_2 <- conv2_1
I0921 08:21:54.466059 2063708928 net.cpp:433] conv2_2 -> conv2_2
I0921 08:21:54.466307 2063708928 net.cpp:155] Setting up conv2_2
I0921 08:21:54.466315 2063708928 net.cpp:163] Top shape: 10 128 112 112 (16056320)
I0921 08:21:54.466323 2063708928 layer_factory.hpp:76] Creating layer relu2_2
I0921 08:21:54.466331 2063708928 net.cpp:110] Creating Layer relu2_2
I0921 08:21:54.466334 2063708928 net.cpp:477] relu2_2 <- conv2_2
I0921 08:21:54.466342 2063708928 net.cpp:419] relu2_2 -> conv2_2 (in-place)
I0921 08:21:54.466349 2063708928 net.cpp:155] Setting up relu2_2
I0921 08:21:54.466354 2063708928 net.cpp:163] Top shape: 10 128 112 112 (16056320)
I0921 08:21:54.466361 2063708928 layer_factory.hpp:76] Creating layer pool2
I0921 08:21:54.466367 2063708928 net.cpp:110] Creating Layer pool2
I0921 08:21:54.466370 2063708928 net.cpp:477] pool2 <- conv2_2
I0921 08:21:54.466377 2063708928 net.cpp:433] pool2 -> pool2
I0921 08:21:54.466384 2063708928 net.cpp:155] Setting up pool2
I0921 08:21:54.466388 2063708928 net.cpp:163] Top shape: 10 128 56 56 (4014080)
I0921 08:21:54.466394 2063708928 layer_factory.hpp:76] Creating layer conv3_1
I0921 08:21:54.466400 2063708928 net.cpp:110] Creating Layer conv3_1
I0921 08:21:54.466405 2063708928 net.cpp:477] conv3_1 <- pool2
I0921 08:21:54.466411 2063708928 net.cpp:433] conv3_1 -> conv3_1
I0921 08:21:54.466990 2063708928 net.cpp:155] Setting up conv3_1
I0921 08:21:54.466998 2063708928 net.cpp:163] Top shape: 10 256 56 56 (8028160)
I0921 08:21:54.467007 2063708928 layer_factory.hpp:76] Creating layer relu3_1
I0921 08:21:54.467015 2063708928 net.cpp:110] Creating Layer relu3_1
I0921 08:21:54.467018 2063708928 net.cpp:477] relu3_1 <- conv3_1
I0921 08:21:54.467025 2063708928 net.cpp:419] relu3_1 -> conv3_1 (in-place)
I0921 08:21:54.467031 2063708928 net.cpp:155] Setting up relu3_1
I0921 08:21:54.467041 2063708928 net.cpp:163] Top shape: 10 256 56 56 (8028160)
I0921 08:21:54.467047 2063708928 layer_factory.hpp:76] Creating layer conv3_2
I0921 08:21:54.467054 2063708928 net.cpp:110] Creating Layer conv3_2
I0921 08:21:54.467059 2063708928 net.cpp:477] conv3_2 <- conv3_1
I0921 08:21:54.467067 2063708928 net.cpp:433] conv3_2 -> conv3_2
I0921 08:21:54.468114 2063708928 net.cpp:155] Setting up conv3_2
I0921 08:21:54.468123 2063708928 net.cpp:163] Top shape: 10 256 56 56 (8028160)
I0921 08:21:54.468130 2063708928 layer_factory.hpp:76] Creating layer relu3_2
I0921 08:21:54.468137 2063708928 net.cpp:110] Creating Layer relu3_2
I0921 08:21:54.468142 2063708928 net.cpp:477] relu3_2 <- conv3_2
I0921 08:21:54.468147 2063708928 net.cpp:419] relu3_2 -> conv3_2 (in-place)
I0921 08:21:54.468153 2063708928 net.cpp:155] Setting up relu3_2
I0921 08:21:54.468158 2063708928 net.cpp:163] Top shape: 10 256 56 56 (8028160)
I0921 08:21:54.468163 2063708928 layer_factory.hpp:76] Creating layer conv3_3
I0921 08:21:54.468170 2063708928 net.cpp:110] Creating Layer conv3_3
I0921 08:21:54.468174 2063708928 net.cpp:477] conv3_3 <- conv3_2
I0921 08:21:54.468183 2063708928 net.cpp:433] conv3_3 -> conv3_3
I0921 08:21:54.469368 2063708928 net.cpp:155] Setting up conv3_3
I0921 08:21:54.469377 2063708928 net.cpp:163] Top shape: 10 256 56 56 (8028160)
I0921 08:21:54.469383 2063708928 layer_factory.hpp:76] Creating layer relu3_3
I0921 08:21:54.469389 2063708928 net.cpp:110] Creating Layer relu3_3
I0921 08:21:54.469393 2063708928 net.cpp:477] relu3_3 <- conv3_3
I0921 08:21:54.469398 2063708928 net.cpp:419] relu3_3 -> conv3_3 (in-place)
I0921 08:21:54.469404 2063708928 net.cpp:155] Setting up relu3_3
I0921 08:21:54.469408 2063708928 net.cpp:163] Top shape: 10 256 56 56 (8028160)
I0921 08:21:54.469413 2063708928 layer_factory.hpp:76] Creating layer pool3
I0921 08:21:54.469422 2063708928 net.cpp:110] Creating Layer pool3
I0921 08:21:54.469426 2063708928 net.cpp:477] pool3 <- conv3_3
I0921 08:21:54.469432 2063708928 net.cpp:433] pool3 -> pool3
I0921 08:21:54.469440 2063708928 net.cpp:155] Setting up pool3
I0921 08:21:54.469444 2063708928 net.cpp:163] Top shape: 10 256 28 28 (2007040)
I0921 08:21:54.469449 2063708928 layer_factory.hpp:76] Creating layer conv4_1
I0921 08:21:54.469455 2063708928 net.cpp:110] Creating Layer conv4_1
I0921 08:21:54.469460 2063708928 net.cpp:477] conv4_1 <- pool3
I0921 08:21:54.469465 2063708928 net.cpp:433] conv4_1 -> conv4_1
I0921 08:21:54.471534 2063708928 net.cpp:155] Setting up conv4_1
I0921 08:21:54.471541 2063708928 net.cpp:163] Top shape: 10 512 28 28 (4014080)
I0921 08:21:54.471549 2063708928 layer_factory.hpp:76] Creating layer relu4_1
I0921 08:21:54.471555 2063708928 net.cpp:110] Creating Layer relu4_1
I0921 08:21:54.471560 2063708928 net.cpp:477] relu4_1 <- conv4_1
I0921 08:21:54.471565 2063708928 net.cpp:419] relu4_1 -> conv4_1 (in-place)
I0921 08:21:54.471570 2063708928 net.cpp:155] Setting up relu4_1
I0921 08:21:54.471575 2063708928 net.cpp:163] Top shape: 10 512 28 28 (4014080)
I0921 08:21:54.471578 2063708928 layer_factory.hpp:76] Creating layer conv4_2
I0921 08:21:54.471585 2063708928 net.cpp:110] Creating Layer conv4_2
I0921 08:21:54.471588 2063708928 net.cpp:477] conv4_2 <- conv4_1
I0921 08:21:54.471593 2063708928 net.cpp:433] conv4_2 -> conv4_2
I0921 08:21:54.475975 2063708928 net.cpp:155] Setting up conv4_2
I0921 08:21:54.475985 2063708928 net.cpp:163] Top shape: 10 512 28 28 (4014080)
I0921 08:21:54.475996 2063708928 layer_factory.hpp:76] Creating layer relu4_2
I0921 08:21:54.476003 2063708928 net.cpp:110] Creating Layer relu4_2
I0921 08:21:54.476007 2063708928 net.cpp:477] relu4_2 <- conv4_2
I0921 08:21:54.476012 2063708928 net.cpp:419] relu4_2 -> conv4_2 (in-place)
I0921 08:21:54.476017 2063708928 net.cpp:155] Setting up relu4_2
I0921 08:21:54.476022 2063708928 net.cpp:163] Top shape: 10 512 28 28 (4014080)
I0921 08:21:54.476027 2063708928 layer_factory.hpp:76] Creating layer conv4_3
I0921 08:21:54.476033 2063708928 net.cpp:110] Creating Layer conv4_3
I0921 08:21:54.476037 2063708928 net.cpp:477] conv4_3 <- conv4_2
I0921 08:21:54.476053 2063708928 net.cpp:433] conv4_3 -> conv4_3
I0921 08:21:54.479743 2063708928 net.cpp:155] Setting up conv4_3
I0921 08:21:54.479751 2063708928 net.cpp:163] Top shape: 10 512 28 28 (4014080)
I0921 08:21:54.479758 2063708928 layer_factory.hpp:76] Creating layer relu4_3
I0921 08:21:54.479763 2063708928 net.cpp:110] Creating Layer relu4_3
I0921 08:21:54.479768 2063708928 net.cpp:477] relu4_3 <- conv4_3
I0921 08:21:54.479773 2063708928 net.cpp:419] relu4_3 -> conv4_3 (in-place)
I0921 08:21:54.479778 2063708928 net.cpp:155] Setting up relu4_3
I0921 08:21:54.479781 2063708928 net.cpp:163] Top shape: 10 512 28 28 (4014080)
I0921 08:21:54.479785 2063708928 layer_factory.hpp:76] Creating layer pool4
I0921 08:21:54.479791 2063708928 net.cpp:110] Creating Layer pool4
I0921 08:21:54.479794 2063708928 net.cpp:477] pool4 <- conv4_3
I0921 08:21:54.479801 2063708928 net.cpp:433] pool4 -> pool4
I0921 08:21:54.479809 2063708928 net.cpp:155] Setting up pool4
I0921 08:21:54.479814 2063708928 net.cpp:163] Top shape: 10 512 14 14 (1003520)
I0921 08:21:54.479818 2063708928 layer_factory.hpp:76] Creating layer conv5_1
I0921 08:21:54.479825 2063708928 net.cpp:110] Creating Layer conv5_1
I0921 08:21:54.479828 2063708928 net.cpp:477] conv5_1 <- pool4
I0921 08:21:54.479832 2063708928 net.cpp:433] conv5_1 -> conv5_1
I0921 08:21:54.483597 2063708928 net.cpp:155] Setting up conv5_1
I0921 08:21:54.483605 2063708928 net.cpp:163] Top shape: 10 512 14 14 (1003520)
I0921 08:21:54.483613 2063708928 layer_factory.hpp:76] Creating layer relu5_1
I0921 08:21:54.483620 2063708928 net.cpp:110] Creating Layer relu5_1
I0921 08:21:54.483624 2063708928 net.cpp:477] relu5_1 <- conv5_1
I0921 08:21:54.483629 2063708928 net.cpp:419] relu5_1 -> conv5_1 (in-place)
I0921 08:21:54.483634 2063708928 net.cpp:155] Setting up relu5_1
I0921 08:21:54.483639 2063708928 net.cpp:163] Top shape: 10 512 14 14 (1003520)
I0921 08:21:54.483644 2063708928 layer_factory.hpp:76] Creating layer conv5_2
I0921 08:21:54.483649 2063708928 net.cpp:110] Creating Layer conv5_2
I0921 08:21:54.483652 2063708928 net.cpp:477] conv5_2 <- conv5_1
I0921 08:21:54.483657 2063708928 net.cpp:433] conv5_2 -> conv5_2
I0921 08:21:54.487262 2063708928 net.cpp:155] Setting up conv5_2
I0921 08:21:54.487270 2063708928 net.cpp:163] Top shape: 10 512 14 14 (1003520)
I0921 08:21:54.487277 2063708928 layer_factory.hpp:76] Creating layer relu5_2
I0921 08:21:54.487282 2063708928 net.cpp:110] Creating Layer relu5_2
I0921 08:21:54.487287 2063708928 net.cpp:477] relu5_2 <- conv5_2
I0921 08:21:54.487290 2063708928 net.cpp:419] relu5_2 -> conv5_2 (in-place)
I0921 08:21:54.487296 2063708928 net.cpp:155] Setting up relu5_2
I0921 08:21:54.487299 2063708928 net.cpp:163] Top shape: 10 512 14 14 (1003520)
I0921 08:21:54.487304 2063708928 layer_factory.hpp:76] Creating layer conv5_3
I0921 08:21:54.487310 2063708928 net.cpp:110] Creating Layer conv5_3
I0921 08:21:54.487313 2063708928 net.cpp:477] conv5_3 <- conv5_2
I0921 08:21:54.487320 2063708928 net.cpp:433] conv5_3 -> conv5_3
I0921 08:21:54.490977 2063708928 net.cpp:155] Setting up conv5_3
I0921 08:21:54.490984 2063708928 net.cpp:163] Top shape: 10 512 14 14 (1003520)
I0921 08:21:54.490991 2063708928 layer_factory.hpp:76] Creating layer relu5_3
I0921 08:21:54.490998 2063708928 net.cpp:110] Creating Layer relu5_3
I0921 08:21:54.491001 2063708928 net.cpp:477] relu5_3 <- conv5_3
I0921 08:21:54.491005 2063708928 net.cpp:419] relu5_3 -> conv5_3 (in-place)
I0921 08:21:54.491011 2063708928 net.cpp:155] Setting up relu5_3
I0921 08:21:54.491014 2063708928 net.cpp:163] Top shape: 10 512 14 14 (1003520)
I0921 08:21:54.491019 2063708928 layer_factory.hpp:76] Creating layer pool5
I0921 08:21:54.491026 2063708928 net.cpp:110] Creating Layer pool5
I0921 08:21:54.491031 2063708928 net.cpp:477] pool5 <- conv5_3
I0921 08:21:54.491035 2063708928 net.cpp:433] pool5 -> pool5
I0921 08:21:54.491042 2063708928 net.cpp:155] Setting up pool5
I0921 08:21:54.491046 2063708928 net.cpp:163] Top shape: 10 512 7 7 (250880)
I0921 08:21:54.491051 2063708928 layer_factory.hpp:76] Creating layer fc6
I0921 08:21:54.491066 2063708928 net.cpp:110] Creating Layer fc6
I0921 08:21:54.491070 2063708928 net.cpp:477] fc6 <- pool5
I0921 08:21:54.491075 2063708928 net.cpp:433] fc6 -> fc6
I0921 08:21:54.686760 2063708928 net.cpp:155] Setting up fc6
I0921 08:21:54.686785 2063708928 net.cpp:163] Top shape: 10 4096 (40960)
I0921 08:21:54.686796 2063708928 layer_factory.hpp:76] Creating layer relu6
I0921 08:21:54.686812 2063708928 net.cpp:110] Creating Layer relu6
I0921 08:21:54.686817 2063708928 net.cpp:477] relu6 <- fc6
I0921 08:21:54.686825 2063708928 net.cpp:433] relu6 -> relu6
I0921 08:21:54.686832 2063708928 net.cpp:155] Setting up relu6
I0921 08:21:54.686837 2063708928 net.cpp:163] Top shape: 10 4096 (40960)
I0921 08:21:54.686842 2063708928 layer_factory.hpp:76] Creating layer drop6
I0921 08:21:54.686848 2063708928 net.cpp:110] Creating Layer drop6
I0921 08:21:54.686852 2063708928 net.cpp:477] drop6 <- relu6
I0921 08:21:54.686857 2063708928 net.cpp:433] drop6 -> drop6
I0921 08:21:54.686871 2063708928 net.cpp:155] Setting up drop6
I0921 08:21:54.686875 2063708928 net.cpp:163] Top shape: 10 4096 (40960)
I0921 08:21:54.686880 2063708928 layer_factory.hpp:76] Creating layer fc7
I0921 08:21:54.686887 2063708928 net.cpp:110] Creating Layer fc7
I0921 08:21:54.686892 2063708928 net.cpp:477] fc7 <- drop6
I0921 08:21:54.686897 2063708928 net.cpp:433] fc7 -> fc7
I0921 08:21:54.718739 2063708928 net.cpp:155] Setting up fc7
I0921 08:21:54.718768 2063708928 net.cpp:163] Top shape: 10 4096 (40960)
I0921 08:21:54.718780 2063708928 layer_factory.hpp:76] Creating layer relu7
I0921 08:21:54.718791 2063708928 net.cpp:110] Creating Layer relu7
I0921 08:21:54.718797 2063708928 net.cpp:477] relu7 <- fc7
I0921 08:21:54.718804 2063708928 net.cpp:433] relu7 -> relu7
I0921 08:21:54.718814 2063708928 net.cpp:155] Setting up relu7
I0921 08:21:54.718818 2063708928 net.cpp:163] Top shape: 10 4096 (40960)
I0921 08:21:54.718824 2063708928 layer_factory.hpp:76] Creating layer drop7
I0921 08:21:54.718830 2063708928 net.cpp:110] Creating Layer drop7
I0921 08:21:54.718834 2063708928 net.cpp:477] drop7 <- relu7
I0921 08:21:54.718839 2063708928 net.cpp:433] drop7 -> drop7
I0921 08:21:54.718847 2063708928 net.cpp:155] Setting up drop7
I0921 08:21:54.718852 2063708928 net.cpp:163] Top shape: 10 4096 (40960)
I0921 08:21:54.718857 2063708928 layer_factory.hpp:76] Creating layer fc8
I0921 08:21:54.718864 2063708928 net.cpp:110] Creating Layer fc8
I0921 08:21:54.718868 2063708928 net.cpp:477] fc8 <- drop7
I0921 08:21:54.718874 2063708928 net.cpp:433] fc8 -> fc8
I0921 08:21:54.725419 2063708928 net.cpp:155] Setting up fc8
I0921 08:21:54.725432 2063708928 net.cpp:163] Top shape: 10 1000 (10000)
I0921 08:21:54.725440 2063708928 layer_factory.hpp:76] Creating layer prob
I0921 08:21:54.725451 2063708928 net.cpp:110] Creating Layer prob
I0921 08:21:54.725456 2063708928 net.cpp:477] prob <- fc8
I0921 08:21:54.725462 2063708928 net.cpp:433] prob -> prob
I0921 08:21:54.725474 2063708928 net.cpp:155] Setting up prob
I0921 08:21:54.725479 2063708928 net.cpp:163] Top shape: 10 1000 (10000)
I0921 08:21:54.725484 2063708928 net.cpp:240] prob does not need backward computation.
I0921 08:21:54.725487 2063708928 net.cpp:240] fc8 does not need backward computation.
I0921 08:21:54.725492 2063708928 net.cpp:240] drop7 does not need backward computation.
I0921 08:21:54.725497 2063708928 net.cpp:240] relu7 does not need backward computation.
I0921 08:21:54.725499 2063708928 net.cpp:240] fc7 does not need backward computation.
…
I0921 08:21:55.846590 2063708928 upgrade_proto.cpp:618] Attempting to upgrade input file specified using deprecated V1LayerParameter: /works/caffe/models/vgg/vgg_layer16.caffemodel
I0921 08:21:56.403120 2063708928 upgrade_proto.cpp:626] Successfully upgraded file specified using deprecated V1LayerParameter
INFO:root:Load vision model, /works/caffe/models/vgg/vgg_layer16_deploy.prototxt
I0921 08:21:56.584543 2063708928 net.cpp:50] Initializing net from parameters: 
name: "GoogleNet"
input: "data"
input_dim: 10
input_dim: 3
input_dim: 224
input_dim: 224
state {
  phase: TEST
}
layer {
  name: "conv1/7x7_s2"
  type: "Convolution"
  bottom: "data"
  top: "conv1/7x7_s2"
  param {
    lr_mult: 1
    decay_mult: 1
  }
  param {
    lr_mult: 2
    decay_mult: 0
  }
  convolution_param {
    num_output: 64
    pad: 3
    kernel_size: 7
    stride: 2
    weight_filler {
      type: "xavier"
      std: 0.1
    }
    bias_filler {
      type: "constant"
      value: 0.2
    }
  }
}
layer {
  name: "conv1/relu_7x7"
  type: "ReLU"
  bottom: "conv1/7x7_s2"
  top: "conv1/7x7_s2"
}
layer {
  name: "pool1/3x3_s2"
  type: "Pooling"
  bottom: "conv1/7x7_s2"
  top: "pool1/3x3_s2"
  pooling_param {
    pool: MAX
    kernel_size: 3
    stride: 2
  }
}
layer {
  name: "pool1/norm1"
  type: "LRN"
  bottom: "pool1/3x3_s2"
  top: "pool1/norm1"
  lrn_param {
    local_size: 5
    alpha: 0.0001
    beta: 0.75
  }
}
layer {
  name: "conv2/3x3_reduce"
  type: "Convolution"
  bottom: "pool1/norm1"
  top: "conv2/3x3_reduce"
  param {
    lr_mult: 1
    decay_mult: 1
  }
  param {
    lr_mult: 2
    decay_mult: 0
  }
  convolution_param {
    num_output: 64
    kernel_size: 1
    weight_filler {
      type: "xavier"
      std: 0.1
    }
    bias_filler {
      type: "constant"
      value: 0.2
    }
  }
}
layer {
  name: "conv2/relu_3x3_reduce"
  type: "ReLU"
  bottom: "conv2/3x3_reduce"
  top: "conv2/3x3_reduce"
}
layer {
  name: "conv2/3x3"
  type: "Convolution"
  bottom: "conv2/3x3_reduce"
  top: "conv2/3x3"
  param {
    lr_mult: 1
    decay_mult: 1
  }
  param {
    lr_mult: 2
    decay_mult: 0
  }
  convolution_param {
    num_output: 192
    pad: 1
    kernel_size: 3
    weight_filler {
      type: "xavier"
      std: 0.03
    }
    bias_filler {
      type: "constant"
      value: 0.2
    }
  }
}
layer {
  name: "conv2/relu_3x3"
  type: "ReLU"
  bottom: "conv2/3x3"
  top: "conv2/3x3"
}
layer {
  name: "conv2/norm2"
  type: "LRN"
  bottom: "conv2/3x3"
  top: "conv2/norm2"
  lrn_param {
    local_size: 5
    alpha: 0.0001
    beta: 0.75
  }
}
layer {
  name: "pool2/3x3_s2"
  type: "Pooling"
  bottom: "conv2/norm2"
  top: "pool2/3x3_s2"
  pooling_param {
    pool: MAX
    kernel_size: 3
    stride: 2
  }
}
layer {
  name: "inception_3a/1x1"
  type: "Convolution"
  bottom: "pool2/3x3_s2"
  top: "inception_3a/1x1"
  param {
    lr_mult: 1
    decay_mult: 1
  }
  param {
    lr_mult: 2
    decay_mult: 0
  }
  convolution_param {
    num_output: 64
    kernel_size: 1
    weight_filler {
      type: "xavier"
      std: 0.03
    }
    bias_filler {
      type: "constant"
      value: 0.2
    }
  }
}
layer {
  name: "inception_3a/relu_1x1"
  type: "ReLU"
  bottom: "inception_3a/1x1"
  top: "inception_3a/1x1"
}
layer {
  name: "inception_3a/3x3_reduce"
  type: "Convolution"
  bottom: "pool2/3x3_s2"
  top: "inception_3a/3x3_reduce"
  param {
    lr_mult: 1
    decay_mult: 1
  }
  param {
    lr_mult: 2
    decay_mult: 0
  }
  convolution_param {
    num_output: 96
    kernel_size: 1
    weight_filler {
      type: "xavier"
      std: 0.09
    }
    bias_filler {
      type: "constant"
      value: 0.2
    }
  }
}
layer {
  name: "inception_3a/relu_3x3_reduce"
  type: "ReLU"
  bottom: "inception_3a/3x3_reduce"
  top: "inception_3a/3x3_reduce"
}
layer {
  name: "inception_3a/3x3"
  type: "Convolution"
  bottom: "inception_3a/3x3_reduce"
  top: "inception_3a/3x3"
  param {
    lr_mult: 1
    decay_mult: 1
  }
  param {
    lr_mult: 2
    decay_mult: 0
  }
  convolution_param {
    num_output: 128
    pad: 1
    kernel_size: 3
    weight_filler {
      type: "xavier"
      std: 0.03
    }
    bias_filler {
      type: "constant"
      value: 0.2
    }
  }
}
layer {
  name: "inception_3a/relu_3x3"
  type: "ReLU"
  bottom: "inception_3a/3x3"
  top: "inception_3a/3x3"
}
layer {
  name: "inception_3a/5x5_reduce"
  type: "Convolution"
  bottom: "pool2/3x3_s2"
  top: "inception_3a/5x5_reduce"
  param {
    lr_mult: 1
    decay_mult: 1
  }
  param {
    lr_mult: 2
    decay_mult: 0
  }
  convolution_param {
    num_output: 16
    kernel_size: 1
    weight_filler {
      type: "xavier"
      std: 0.2
    }
    bias_filler {
      type: "constant"
      value: 0.2
    }
  }
}
layer {
  name: "inception_3a/relu_5x5_reduce"
  type: "ReLU"
  bottom: "inception_3a/5x5_reduce"
  top: "inception_3a/5x5_reduce"
}
layer {
  name: "inception_3a/5x5"
  type: "Convolution"
  bottom: "inception_3a/5x5_reduce"
  top: "inception_3a/5x5"
  param {
    lr_mult: 1
    decay_mult: 1
  }
  param {
    lr_mult: 2
    decay_mult: 0
  }
  convolution_param {
    num_output: 32
    pad: 2
    kernel_size: 5
    weight_filler {
      type: "xavier"
      std: 0.03
    }
    bias_filler {
      type: "constant"
      value: 0.2
    }
  }
}
layer {
  name: "inception_3a/relu_5x5"
  type: "ReLU"
  bottom: "inception_3a/5x5"
  top: "inception_3a/5x5"
}
layer {
  name: "inception_3a/pool"
  type: "Pooling"
  bottom: "pool2/3x3_s2"
  top: "inception_3a/pool"
  pooling_param {
    pool: MAX
    kernel_size: 3
    stride: 1
    pad: 1
  }
}
layer {
  name: "inception_3a/pool_proj"
  type: "Convolution"
  bottom: "inception_3a/pool"
  top: "inception_3a/pool_proj"
  param {
    lr_mult: 1
    decay_mult: 1
  }
  param {
    lr_mult: 2
    decay_mult: 0
  }
  convolution_param {
    num_output: 32
    kernel_size: 1
    weight_filler {
      type: "xavier"
      std: 0.1
    }
    bias_filler {
      type: "constant"
      value: 0.2
    }
  }
}
layer {
  name: "inception_3a/relu_pool_proj"
  type: "ReLU"
  bottom: "inception_3a/pool_proj"
  top: "inception_3a/pool_proj"
}
layer {
  name: "inception_3a/output"
  type: "Concat"
  bottom: "inception_3a/1x1"
  bottom: "inception_3a/3x3"
  bottom: "inception_3a/5x5"
  bottom: "inception_3a/pool_proj"
  top: "inception_3a/output"
}
layer {
  name: "inception_3b/1x1"
  type: "Convolution"
  bottom: "inception_3a/output"
  top: "inception_3b/1x1"
  param {
    lr_mult: 1
    decay_mult: 1
  }
  param {
    lr_mult: 2
    decay_mult: 0
  }
  convolution_param {
    num_output: 128
    kernel_size: 1
    weight_filler {
      type: "xavier"
      std: 0.03
    }
    bias_filler {
      type: "constant"
      value: 0.2
    }
  }
}
layer {
  name: "inception_3b/relu_1x1"
  type: "ReLU"
  bottom: "inception_3b/1x1"
  top: "inception_3b/1x1"
}
layer {
  name: "inception_3b/3x3_reduce"
  type: "Convolution"
  bottom: "inception_3a/output"
  top: "inception_3b/3x3_reduce"
  param {
    lr_mult: 1
    decay_mult: 1
  }
  param {
    lr_mult: 2
    decay_mult: 0
  }
  convolution_param {
    num_output: 128
    kernel_size: 1
    weight_filler {
      type: "xavier"
      std: 0.09
    }
    bias_filler {
      type: "constant"
      value: 0.2
    }
  }
}
layer {
  name: "inception_3b/relu_3x3_reduce"
  type: "ReLU"
  bottom: "inception_3b/3x3_reduce"
  top: "inception_3b/3x3_reduce"
}
layer {
  name: "inception_3b/3x3"
  type: "Convolution"
  bottom: "inception_3b/3x3_reduce"
  top: "inception_3b/3x3"
  param {
    lr_mult: 1
    decay_mult: 1
  }
  param {
    lr_mult: 2
    decay_mult: 0
  }
  convolution_param {
    num_output: 192
    pad: 1
    kernel_size: 3
    weight_filler {
      type: "xavier"
      std: 0.03
    }
    bias_filler {
      type: "constant"
      value: 0.2
    }
  }
}
layer {
  name: "inception_3b/relu_3x3"
  type: "ReLU"
  bottom: "inception_3b/3x3"
  top: "inception_3b/3x3"
}
layer {
  name: "inception_3b/5x5_reduce"
  type: "Convolution"
  bottom: "inception_3a/output"
  top: "inception_3b/5x5_reduce"
  param {
    lr_mult: 1
    decay_mult: 1
  }
  param {
    lr_mult: 2
    decay_mult: 0
  }
  convolution_param {
    num_output: 32
    kernel_size: 1
    weight_filler {
      type: "xavier"
      std: 0.2
    }
    bias_filler {
      type: "constant"
      value: 0.2
    }
  }
}
layer {
  name: "inception_3b/relu_5x5_reduce"
  type: "ReLU"
  bottom: "inception_3b/5x5_reduce"
  top: "inception_3b/5x5_reduce"
}
layer {
  name: "inception_3b/5x5"
  type: "Convolution"
  bottom: "inception_3b/5x5_reduce"
  top: "inception_3b/5x5"
  param {
    lr_mult: 1
    decay_mult: 1
  }
  param {
    lr_mult: 2
    decay_mult: 0
  }
  convolution_param {
    num_output: 96
    pad: 2
    kernel_size: 5
    weight_filler {
      type: "xavier"
      std: 0.03
    }
    bias_filler {
      type: "constant"
      value: 0.2
    }
  }
}
layer {
  name: "inception_3b/relu_5x5"
  type: "ReLU"
  bottom: "inception_3b/5x5"
  top: "inception_3b/5x5"
}
layer {
  name: "inception_3b/pool"
  type: "Pooling"
  bottom: "inception_3a/output"
  top: "inception_3b/pool"
  pooling_param {
    pool: MAX
    kernel_size: 3
    stride: 1
    pad: 1
  }
}
layer {
  name: "inception_3b/pool_proj"
  type: "Convolution"
  bottom: "inception_3b/pool"
  top: "inception_3b/pool_proj"
  param {
    lr_mult: 1
    decay_mult: 1
  }
  param {
    lr_mult: 2
    decay_mult: 0
  }
  convolution_param {
    num_output: 64
    kernel_size: 1
    weight_filler {
      type: "xavier"
      std: 0.1
    }
    bias_filler {
      type: "constant"
      value: 0.2
    }
  }
}
layer {
  name: "inception_3b/relu_pool_proj"
  type: "ReLU"
  bottom: "inception_3b/pool_proj"
  top: "inception_3b/pool_proj"
}
layer {
  name: "inception_3b/output"
  type: "Concat"
  bottom: "inception_3b/1x1"
  bottom: "inception_3b/3x3"
  bottom: "inception_3b/5x5"
  bottom: "inception_3b/pool_proj"
  top: "inception_3b/output"
}
layer {
  name: "pool3/3x3_s2"
  type: "Pooling"
  bottom: "inception_3b/output"
  top: "pool3/3x3_s2"
  pooling_param {
    pool: MAX
    kernel_size: 3
    stride: 2
  }
}
layer {
  name: "inception_4a/1x1"
  type: "Convolution"
  bottom: "pool3/3x3_s2"
  top: "inception_4a/1x1"
  param {
    lr_mult: 1
    decay_mult: 1
  }
  param {
    lr_mult: 2
    decay_mult: 0
  }
  convolution_param {
    num_output: 192
    kernel_size: 1
    weight_filler {
      type: "xavier"
      std: 0.03
    }
    bias_filler {
      type: "constant"
      value: 0.2
    }
  }
}
layer {
  name: "inception_4a/relu_1x1"
  type: "ReLU"
  bottom: "inception_4a/1x1"
  top: "inception_4a/1x1"
}
layer {
  name: "inception_4a/3x3_reduce"
  type: "Convolution"
  bottom: "pool3/3x3_s2"
  top: "inception_4a/3x3_reduce"
  param {
    lr_mult: 1
    decay_mult: 1
  }
  param {
    lr_mult: 2
    decay_mult: 0
  }
  convolution_param {
    num_output: 96
    kernel_size: 1
    weight_filler {
      type: "xavier"
      std: 0.09
    }
    bias_filler {
      type: "constant"
      value: 0.2
    }
  }
}
layer {
  name: "inception_4a/relu_3x3_reduce"
  type: "ReLU"
  bottom: "inception_4a/3x3_reduce"
  top: "inception_4a/3x3_reduce"
}
layer {
  name: "inception_4a/3x3"
  type: "Convolution"
  bottom: "inception_4a/3x3_reduce"
  top: "inception_4a/3x3"
  param {
    lr_mult: 1
    decay_mult: 1
  }
  param {
    lr_mult: 2
    decay_mult: 0
  }
  convolution_param {
    num_output: 208
    pad: 1
    kernel_size: 3
    weight_filler {
      type: "xavier"
      std: 0.03
    }
    bias_filler {
      type: "constant"
      value: 0.2
    }
  }
}
layer {
  name: "inception_4a/relu_3x3"
  type: "ReLU"
  bottom: "inception_4a/3x3"
  top: "inception_4a/3x3"
}
layer {
  name: "inception_4a/5x5_reduce"
  type: "Convolution"
  bottom: "pool3/3x3_s2"
  top: "inception_4a/5x5_reduce"
  param {
    lr_mult: 1
    decay_mult: 1
  }
  param {
    lr_mult: 2
    decay_mult: 0
  }
  convolution_param {
    num_output: 16
    kernel_size: 1
    weight_filler {
      type: "xavier"
      std: 0.2
    }
    bias_filler {
      type: "constant"
      value: 0.2
    }
  }
}
layer {
  name: "inception_4a/relu_5x5_reduce"
  type: "ReLU"
  bottom: "inception_4a/5x5_reduce"
  top: "inception_4a/5x5_reduce"
}
layer {
  name: "inception_4a/5x5"
  type: "Convolution"
  bottom: "inception_4a/5x5_reduce"
  top: "inception_4a/5x5"
  param {
    lr_mult: 1
    decay_mult: 1
  }
  param {
    lr_mult: 2
    decay_mult: 0
  }
  convolution_param {
    num_output: 48
    pad: 2
    kernel_size: 5
    weight_filler {
      type: "xavier"
      std: 0.03
    }
    bias_filler {
      type: "constant"
      value: 0.2
    }
  }
}
layer {
  name: "inception_4a/relu_5x5"
  type: "ReLU"
  bottom: "inception_4a/5x5"
  top: "inception_4a/5x5"
}
layer {
  name: "inception_4a/pool"
  type: "Pooling"
  bottom: "pool3/3x3_s2"
  top: "inception_4a/pool"
  pooling_param {
    pool: MAX
    kernel_size: 3
    stride: 1
    pad: 1
  }
}
layer {
  name: "inception_4a/pool_proj"
  type: "Convolution"
  bottom: "inception_4a/pool"
  top: "inception_4a/pool_proj"
  param {
    lr_mult: 1
    decay_mult: 1
  }
  param {
    lr_mult: 2
    decay_mult: 0
  }
  convolution_param {
    num_output: 64
    kernel_size: 1
    weight_filler {
      type: "xavier"
      std: 0.1
    }
    bias_filler {
      type: "constant"
      value: 0.2
    }
  }
}
layer {
  name: "inception_4a/relu_pool_proj"
  type: "ReLU"
  bottom: "inception_4a/pool_proj"
  top: "inception_4a/pool_proj"
}
layer {
  name: "inception_4a/output"
  type: "Concat"
  bottom: "inception_4a/1x1"
  bottom: "inception_4a/3x3"
  bottom: "inception_4a/5x5"
  bottom: "inception_4a/pool_proj"
  top: "inception_4a/output"
}
layer {
  name: "inception_4b/1x1"
  type: "Convolution"
  bottom: "inception_4a/output"
  top: "inception_4b/1x1"
  param {
    lr_mult: 1
    decay_mult: 1
  }
  param {
    lr_mult: 2
    decay_mult: 0
  }
  convolution_param {
    num_output: 160
    kernel_size: 1
    weight_filler {
      type: "xavier"
      std: 0.03
    }
    bias_filler {
      type: "constant"
      value: 0.2
    }
  }
}
layer {
  name: "inception_4b/relu_1x1"
  type: "ReLU"
  bottom: "inception_4b/1x1"
  top: "inception_4b/1x1"
}
layer {
  name: "inception_4b/3x3_reduce"
  type: "Convolution"
  bottom: "inception_4a/output"
  top: "inception_4b/3x3_reduce"
  param {
    lr_mult: 1
    decay_mult: 1
  }
  param {
    lr_mult: 2
    decay_mult: 0
  }
  convolution_param {
    num_output: 112
    kernel_size: 1
    weight_filler {
      type: "xavier"
      std: 0.09
    }
    bias_filler {
      type: "constant"
      value: 0.2
    }
  }
}
layer {
  name: "inception_4b/relu_3x3_reduce"
  type: "ReLU"
  bottom: "inception_4b/3x3_reduce"
  top: "inception_4b/3x3_reduce"
}
layer {
  name: "inception_4b/3x3"
  type: "Convolution"
  bottom: "inception_4b/3x3_reduce"
  top: "inception_4b/3x3"
  param {
    lr_mult: 1
    decay_mult: 1
  }
  param {
    lr_mult: 2
    decay_mult: 0
  }
  convolution_param {
    num_output: 224
    pad: 1
    kernel_size: 3
    weight_filler {
      type: "xavier"
      std: 0.03
    }
    bias_filler {
      type: "constant"
      value: 0.2
    }
  }
}
layer {
  name: "inception_4b/relu_3x3"
  type: "ReLU"
  bottom: "inception_4b/3x3"
  top: "inception_4b/3x3"
}
layer {
  name: "inception_4b/5x5_reduce"
  type: "Convolution"
  bottom: "inception_4a/output"
  top: "inception_4b/5x5_reduce"
  param {
    lr_mult: 1
    decay_mult: 1
  }
  param {
    lr_mult: 2
    decay_mult: 0
  }
  convolution_param {
    num_output: 24
    kernel_size: 1
    weight_filler {
      type: "xavier"
      std: 0.2
    }
    bias_filler {
      type: "constant"
      value: 0.2
    }
  }
}
layer {
  name: "inception_4b/relu_5x5_reduce"
  type: "ReLU"
  bottom: "inception_4b/5x5_reduce"
  top: "inception_4b/5x5_reduce"
}
layer {
  name: "inception_4b/5x5"
  type: "Convolution"
  bottom: "inception_4b/5x5_reduce"
  top: "inception_4b/5x5"
  param {
    lr_mult: 1
    decay_mult: 1
  }
  param {
    lr_mult: 2
    decay_mult: 0
  }
  convolution_param {
    num_output: 64
    pad: 2
    kernel_size: 5
    weight_filler {
      type: "xavier"
      std: 0.03
    }
    bias_filler {
      type: "constant"
      value: 0.2
    }
  }
}
layer {
  name: "inception_4b/relu_5x5"
  type: "ReLU"
  bottom: "inception_4b/5x5"
  top: "inception_4b/5x5"
}
layer {
  name: "inception_4b/pool"
  type: "Pooling"
  bottom: "inception_4a/output"
  top: "inception_4b/pool"
  pooling_param {
    pool: MAX
    kernel_size: 3
    stride: 1
    pad: 1
  }
}
layer {
  name: "inception_4b/pool_proj"
  type: "Convolution"
  bottom: "inception_4b/pool"
  top: "inception_4b/pool_proj"
  param {
    lr_mult: 1
    decay_mult: 1
  }
  param {
    lr_mult: 2
    decay_mult: 0
  }
  convolution_param {
    num_output: 64
    kernel_size: 1
    weight_filler {
      type: "xavier"
      std: 0.1
    }
    bias_filler {
      type: "constant"
      value: 0.2
    }
  }
}
layer {
  name: "inception_4b/relu_pool_proj"
  type: "ReLU"
  bottom: "inception_4b/pool_proj"
  top: "inception_4b/pool_proj"
}
layer {
  name: "inception_4b/output"
  type: "Concat"
  bottom: "inception_4b/1x1"
  bottom: "inception_4b/3x3"
  bottom: "inception_4b/5x5"
  bottom: "inception_4b/pool_proj"
  top: "inception_4b/output"
}
layer {
  name: "inception_4c/1x1"
  type: "Convolution"
  bottom: "inception_4b/output"
  top: "inception_4c/1x1"
  param {
    lr_mult: 1
    decay_mult: 1
  }
  param {
    lr_mult: 2
    decay_mult: 0
  }
  convolution_param {
    num_output: 128
    kernel_size: 1
    weight_filler {
      type: "xavier"
      std: 0.03
    }
    bias_filler {
      type: "constant"
      value: 0.2
    }
  }
}
layer {
  name: "inception_4c/relu_1x1"
  type: "ReLU"
  bottom: "inception_4c/1x1"
  top: "inception_4c/1x1"
}
layer {
  name: "inception_4c/3x3_reduce"
  type: "Convolution"
  bottom: "inception_4b/output"
  top: "inception_4c/3x3_reduce"
  param {
    lr_mult: 1
    decay_mult: 1
  }
  param {
    lr_mult: 2
    decay_mult: 0
  }
  convolution_param {
    num_output: 128
    kernel_size: 1
    weight_filler {
      type: "xavier"
      std: 0.09
    }
    bias_filler {
      type: "constant"
      value: 0.2
    }
  }
}
layer {
  name: "inception_4c/relu_3x3_reduce"
  type: "ReLU"
  bottom: "inception_4c/3x3_reduce"
  top: "inception_4c/3x3_reduce"
}
layer {
  name: "inception_4c/3x3"
  type: "Convolution"
  bottom: "inception_4c/3x3_reduce"
  top: "inception_4c/3x3"
  param {
    lr_mult: 1
    decay_mult: 1
  }
  param {
    lr_mult: 2
    decay_mult: 0
  }
  convolution_param {
    num_output: 256
    pad: 1
    kernel_size: 3
    weight_filler {
      type: "xavier"
      std: 0.03
    }
    bias_filler {
      type: "constant"
      value: 0.2
    }
  }
}
layer {
  name: "inception_4c/relu_3x3"
  type: "ReLU"
  bottom: "inception_4c/3x3"
  top: "inception_4c/3x3"
}
layer {
  name: "inception_4c/5x5_reduce"
  type: "Convolution"
  bottom: "inception_4b/output"
  top: "inception_4c/5x5_reduce"
  param {
    lr_mult: 1
    decay_mult: 1
  }
  param {
    lr_mult: 2
    decay_mult: 0
  }
  convolution_param {
    num_output: 24
    kernel_size: 1
    weight_filler {
      type: "xavier"
      std: 0.2
    }
    bias_filler {
      type: "constant"
      value: 0.2
    }
  }
}
layer {
  name: "inception_4c/relu_5x5_reduce"
  type: "ReLU"
  bottom: "inception_4c/5x5_reduce"
  top: "inception_4c/5x5_reduce"
}
layer {
  name: "inception_4c/5x5"
  type: "Convolution"
  bottom: "inception_4c/5x5_reduce"
  top: "inception_4c/5x5"
  param {
    lr_mult: 1
    decay_mult: 1
  }
  param {
    lr_mult: 2
    decay_mult: 0
  }
  convolution_param {
    num_output: 64
    pad: 2
    kernel_size: 5
    weight_filler {
      type: "xavier"
      std: 0.03
    }
    bias_filler {
      type: "constant"
      value: 0.2
    }
  }
}
layer {
  name: "inception_4c/relu_5x5"
  type: "ReLU"
  bottom: "inception_4c/5x5"
  top: "inception_4c/5x5"
}
layer {
  name: "inception_4c/pool"
  type: "Pooling"
  bottom: "inception_4b/output"
  top: "inception_4c/pool"
  pooling_param {
    pool: MAX
    kernel_size: 3
    stride: 1
    pad: 1
  }
}
layer {
  name: "inception_4c/pool_proj"
  type: "Convolution"
  bottom: "inception_4c/pool"
  top: "inception_4c/pool_proj"
  param {
    lr_mult: 1
    decay_mult: 1
  }
  param {
    lr_mult: 2
    decay_mult: 0
  }
  convolution_param {
    num_output: 64
    kernel_size: 1
    weight_filler {
      type: "xavier"
      std: 0.1
    }
    bias_filler {
      type: "constant"
      value: 0.2
    }
  }
}
layer {
  name: "inception_4c/relu_pool_proj"
  type: "ReLU"
  bottom: "inception_4c/pool_proj"
  top: "inception_4c/pool_proj"
}
layer {
  name: "inception_4c/output"
  type: "Concat"
  bottom: "inception_4c/1x1"
  bottom: "inception_4c/3x3"
  bottom: "inception_4c/5x5"
  bottom: "inception_4c/pool_proj"
  top: "inception_4c/output"
}
layer {
  name: "inception_4d/1x1"
  type: "Convolution"
  bottom: "inception_4c/output"
  top: "inception_4d/1x1"
  param {
    lr_mult: 1
    decay_mult: 1
  }
  param {
    lr_mult: 2
    decay_mult: 0
  }
  convolution_param {
    num_output: 112
    kernel_size: 1
    weight_filler {
      type: "xavier"
      std: 0.03
    }
    bias_filler {
      type: "constant"
      value: 0.2
    }
  }
}
layer {
  name: "inception_4d/relu_1x1"
  type: "ReLU"
  bottom: "inception_4d/1x1"
  top: "inception_4d/1x1"
}
layer {
  name: "inception_4d/3x3_reduce"
  type: "Convolution"
  bottom: "inception_4c/output"
  top: "inception_4d/3x3_reduce"
  param {
    lr_mult: 1
    decay_mult: 1
  }
  param {
    lr_mult: 2
    decay_mult: 0
  }
  convolution_param {
    num_output: 144
    kernel_size: 1
    weight_filler {
      type: "xavier"
      std: 0.09
    }
    bias_filler {
      type: "constant"
      value: 0.2
    }
  }
}
layer {
  name: "inception_4d/relu_3x3_reduce"
  type: "ReLU"
  bottom: "inception_4d/3x3_reduce"
  top: "inception_4d/3x3_reduce"
}
layer {
  name: "inception_4d/3x3"
  type: "Convolution"
  bottom: "inception_4d/3x3_reduce"
  top: "inception_4d/3x3"
  param {
    lr_mult: 1
    decay_mult: 1
  }
  param {
    lr_mult: 2
    decay_mult: 0
  }
  convolution_param {
    num_output: 288
    pad: 1
    kernel_size: 3
    weight_filler {
      type: "xavier"
      std: 0.03
    }
    bias_filler {
      type: "constant"
      value: 0.2
    }
  }
}
layer {
  name: "inception_4d/relu_3x3"
  type: "ReLU"
  bottom: "inception_4d/3x3"
  top: "inception_4d/3x3"
}
layer {
  name: "inception_4d/5x5_reduce"
  type: "Convolution"
  bottom: "inception_4c/output"
  top: "inception_4d/5x5_reduce"
  param {
    lr_mult: 1
    decay_mult: 1
  }
  param {
    lr_mult: 2
    decay_mult: 0
  }
  convolution_param {
    num_output: 32
    kernel_size: 1
    weight_filler {
      type: "xavier"
      std: 0.2
    }
    bias_filler {
      type: "constant"
      value: 0.2
    }
  }
}
layer {
  name: "inception_4d/relu_5x5_reduce"
  type: "ReLU"
  bottom: "inception_4d/5x5_reduce"
  top: "inception_4d/5x5_reduce"
}
layer {
  name: "inception_4d/5x5"
  type: "Convolution"
  bottom: "inception_4d/5x5_reduce"
  top: "inception_4d/5x5"
  param {
    lr_mult: 1
    decay_mult: 1
  }
  param {
    lr_mult: 2
    decay_mult: 0
  }
  convolution_param {
    num_output: 64
    pad: 2
    kernel_size: 5
    weight_filler {
      type: "xavier"
      std: 0.03
    }
    bias_filler {
      type: "constant"
      value: 0.2
    }
  }
}
layer {
  name: "inception_4d/relu_5x5"
  type: "ReLU"
  bottom: "inception_4d/5x5"
  top: "inception_4d/5x5"
}
layer {
  name: "inception_4d/pool"
  type: "Pooling"
  bottom: "inception_4c/output"
  top: "inception_4d/pool"
  pooling_param {
    pool: MAX
    kernel_size: 3
    stride: 1
    pad: 1
  }
}
layer {
  name: "inception_4d/pool_proj"
  type: "Convolution"
  bottom: "inception_4d/pool"
  top: "inception_4d/pool_proj"
  param {
    lr_mult: 1
    decay_mult: 1
  }
  param {
    lr_mult: 2
    decay_mult: 0
  }
  convolution_param {
    num_output: 64
    kernel_size: 1
    weight_filler {
      type: "xavier"
      std: 0.1
    }
    bias_filler {
      type: "constant"
      value: 0.2
    }
  }
}
layer {
  name: "inception_4d/relu_pool_proj"
  type: "ReLU"
  bottom: "inception_4d/pool_proj"
  top: "inception_4d/pool_proj"
}
layer {
  name: "inception_4d/output"
  type: "Concat"
  bottom: "inception_4d/1x1"
  bottom: "inception_4d/3x3"
  bottom: "inception_4d/5x5"
  bottom: "inception_4d/pool_proj"
  top: "inception_4d/output"
}
layer {
  name: "inception_4e/1x1"
  type: "Convolution"
  bottom: "inception_4d/output"
  top: "inception_4e/1x1"
  param {
    lr_mult: 1
    decay_mult: 1
  }
  param {
    lr_mult: 2
    decay_mult: 0
  }
  convolution_param {
    num_output: 256
    kernel_size: 1
    weight_filler {
      type: "xavier"
      std: 0.03
    }
    bias_filler {
      type: "constant"
      value: 0.2
    }
  }
}
layer {
  name: "inception_4e/relu_1x1"
  type: "ReLU"
  bottom: "inception_4e/1x1"
  top: "inception_4e/1x1"
}
layer {
  name: "inception_4e/3x3_reduce"
  type: "Convolution"
  bottom: "inception_4d/output"
  top: "inception_4e/3x3_reduce"
  param {
    lr_mult: 1
    decay_mult: 1
  }
  param {
    lr_mult: 2
    decay_mult: 0
  }
  convolution_param {
    num_output: 160
    kernel_size: 1
    weight_filler {
      type: "xavier"
      std: 0.09
    }
    bias_filler {
      type: "constant"
      value: 0.2
    }
  }
}
layer {
  name: "inception_4e/relu_3x3_reduce"
  type: "ReLU"
  bottom: "inception_4e/3x3_reduce"
  top: "inception_4e/3x3_reduce"
}
layer {
  name: "inception_4e/3x3"
  type: "Convolution"
  bottom: "inception_4e/3x3_reduce"
  top: "inception_4e/3x3"
  param {
    lr_mult: 1
    decay_mult: 1
  }
  param {
    lr_mult: 2
    decay_mult: 0
  }
  convolution_param {
    num_output: 320
    pad: 1
    kernel_size: 3
    weight_filler {
      type: "xavier"
      std: 0.03
    }
    bias_filler {
      type: "constant"
      value: 0.2
    }
  }
}
layer {
  name: "inception_4e/relu_3x3"
  type: "ReLU"
  bottom: "inception_4e/3x3"
  top: "inception_4e/3x3"
}
layer {
  name: "inception_4e/5x5_reduce"
  type: "Convolution"
  bottom: "inception_4d/output"
  top: "inception_4e/5x5_reduce"
  param {
    lr_mult: 1
    decay_mult: 1
  }
  param {
    lr_mult: 2
    decay_mult: 0
  }
  convolution_param {
    num_output: 32
    kernel_size: 1
    weight_filler {
      type: "xavier"
      std: 0.2
    }
    bias_filler {
      type: "constant"
      value: 0.2
    }
  }
}
layer {
  name: "inception_4e/relu_5x5_reduce"
  type: "ReLU"
  bottom: "inception_4e/5x5_reduce"
  top: "inception_4e/5x5_reduce"
}
layer {
  name: "inception_4e/5x5"
  type: "Convolution"
  bottom: "inception_4e/5x5_reduce"
  top: "inception_4e/5x5"
  param {
    lr_mult: 1
    decay_mult: 1
  }
  param {
    lr_mult: 2
    decay_mult: 0
  }
  convolution_param {
    num_output: 128
    pad: 2
    kernel_size: 5
    weight_filler {
      type: "xavier"
      std: 0.03
    }
    bias_filler {
      type: "constant"
      value: 0.2
    }
  }
}
layer {
  name: "inception_4e/relu_5x5"
  type: "ReLU"
  bottom: "inception_4e/5x5"
  top: "inception_4e/5x5"
}
layer {
  name: "inception_4e/pool"
  type: "Pooling"
  bottom: "inception_4d/output"
  top: "inception_4e/pool"
  pooling_param {
    pool: MAX
    kernel_size: 3
    stride: 1
    pad: 1
  }
}
layer {
  name: "inception_4e/pool_proj"
  type: "Convolution"
  bottom: "inception_4e/pool"
  top: "inception_4e/pool_proj"
  param {
    lr_mult: 1
    decay_mult: 1
  }
  param {
    lr_mult: 2
    decay_mult: 0
  }
  convolution_param {
    num_output: 128
    kernel_size: 1
    weight_filler {
      type: "xavier"
      std: 0.1
    }
    bias_filler {
      type: "constant"
      value: 0.2
    }
  }
}
layer {
  name: "inception_4e/relu_pool_proj"
  type: "ReLU"
  bottom: "inception_4e/pool_proj"
  top: "inception_4e/pool_proj"
}
layer {
  name: "inception_4e/output"
  type: "Concat"
  bottom: "inception_4e/1x1"
  bottom: "inception_4e/3x3"
  bottom: "inception_4e/5x5"
  bottom: "inception_4e/pool_proj"
  top: "inception_4e/output"
}
layer {
  name: "pool4/3x3_s2"
  type: "Pooling"
  bottom: "inception_4e/output"
  top: "pool4/3x3_s2"
  pooling_param {
    pool: MAX
    kernel_size: 3
    stride: 2
  }
}
layer {
  name: "inception_5a/1x1"
  type: "Convolution"
  bottom: "pool4/3x3_s2"
  top: "inception_5a/1x1"
  param {
    lr_mult: 1
    decay_mult: 1
  }
  param {
    lr_mult: 2
    decay_mult: 0
  }
  convolution_param {
    num_output: 256
    kernel_size: 1
    weight_filler {
      type: "xavier"
      std: 0.03
    }
    bias_filler {
      type: "constant"
      value: 0.2
    }
  }
}
layer {
  name: "inception_5a/relu_1x1"
  type: "ReLU"
  bottom: "inception_5a/1x1"
  top: "inception_5a/1x1"
}
layer {
  name: "inception_5a/3x3_reduce"
  type: "Convolution"
  bottom: "pool4/3x3_s2"
  top: "inception_5a/3x3_reduce"
  param {
    lr_mult: 1
    decay_mult: 1
  }
  param {
    lr_mult: 2
    decay_mult: 0
  }
  convolution_param {
    num_output: 160
    kernel_size: 1
    weight_filler {
      type: "xavier"
      std: 0.09
    }
    bias_filler {
      type: "constant"
      value: 0.2
    }
  }
}
layer {
  name: "inception_5a/relu_3x3_reduce"
  type: "ReLU"
  bottom: "inception_5a/3x3_reduce"
  top: "inception_5a/3x3_reduce"
}
layer {
  name: "inception_5a/3x3"
  type: "Convolution"
  bottom: "inception_5a/3x3_reduce"
  top: "inception_5a/3x3"
  param {
    lr_mult: 1
    decay_mult: 1
  }
  param {
    lr_mult: 2
    decay_mult: 0
  }
  convolution_param {
    num_output: 320
    pad: 1
    kernel_size: 3
    weight_filler {
      type: "xavier"
      std: 0.03
    }
    bias_filler {
      type: "constant"
      value: 0.2
    }
  }
}
layer {
  name: "inception_5a/relu_3x3"
  type: "ReLU"
  bottom: "inception_5a/3x3"
  top: "inception_5a/3x3"
}
layer {
  name: "inception_5a/5x5_reduce"
  type: "Convolution"
  bottom: "pool4/3x3_s2"
  top: "inception_5a/5x5_reduce"
  param {
    lr_mult: 1
    decay_mult: 1
  }
  param {
    lr_mult: 2
    decay_mult: 0
  }
  convolution_param {
    num_output: 32
    kernel_size: 1
    weight_filler {
      type: "xavier"
      std: 0.2
    }
    bias_filler {
      type: "constant"
      value: 0.2
    }
  }
}
layer {
  name: "inception_5a/relu_5x5_reduce"
  type: "ReLU"
  bott
I0921 08:21:56.586669 2063708928 net.cpp:435] Input 0 -> data
I0921 08:21:56.586694 2063708928 layer_factory.hpp:76] Creating layer conv1/7x7_s2
I0921 08:21:56.586709 2063708928 net.cpp:110] Creating Layer conv1/7x7_s2
I0921 08:21:56.586715 2063708928 net.cpp:477] conv1/7x7_s2 <- data
I0921 08:21:56.586724 2063708928 net.cpp:433] conv1/7x7_s2 -> conv1/7x7_s2
I0921 08:21:56.592257 2063708928 net.cpp:155] Setting up conv1/7x7_s2
I0921 08:21:56.592267 2063708928 net.cpp:163] Top shape: 10 64 112 112 (8028160)
I0921 08:21:56.592279 2063708928 layer_factory.hpp:76] Creating layer conv1/relu_7x7
I0921 08:21:56.592288 2063708928 net.cpp:110] Creating Layer conv1/relu_7x7
I0921 08:21:56.592293 2063708928 net.cpp:477] conv1/relu_7x7 <- conv1/7x7_s2
I0921 08:21:56.592298 2063708928 net.cpp:419] conv1/relu_7x7 -> conv1/7x7_s2 (in-place)
I0921 08:21:56.592306 2063708928 net.cpp:155] Setting up conv1/relu_7x7
I0921 08:21:56.592310 2063708928 net.cpp:163] Top shape: 10 64 112 112 (8028160)
I0921 08:21:56.592317 2063708928 layer_factory.hpp:76] Creating layer pool1/3x3_s2
I0921 08:21:56.592324 2063708928 net.cpp:110] Creating Layer pool1/3x3_s2
I0921 08:21:56.592329 2063708928 net.cpp:477] pool1/3x3_s2 <- conv1/7x7_s2
I0921 08:21:56.592334 2063708928 net.cpp:433] pool1/3x3_s2 -> pool1/3x3_s2
I0921 08:21:56.592344 2063708928 net.cpp:155] Setting up pool1/3x3_s2
I0921 08:21:56.592349 2063708928 net.cpp:163] Top shape: 10 64 56 56 (2007040)
I0921 08:21:56.592355 2063708928 layer_factory.hpp:76] Creating layer pool1/norm1
I0921 08:21:56.592363 2063708928 net.cpp:110] Creating Layer pool1/norm1
I0921 08:21:56.592368 2063708928 net.cpp:477] pool1/norm1 <- pool1/3x3_s2
I0921 08:21:56.592375 2063708928 net.cpp:433] pool1/norm1 -> pool1/norm1
I0921 08:21:56.592386 2063708928 net.cpp:155] Setting up pool1/norm1
I0921 08:21:56.592391 2063708928 net.cpp:163] Top shape: 10 64 56 56 (2007040)
I0921 08:21:56.592396 2063708928 layer_factory.hpp:76] Creating layer conv2/3x3_reduce
I0921 08:21:56.592404 2063708928 net.cpp:110] Creating Layer conv2/3x3_reduce
I0921 08:21:56.592408 2063708928 net.cpp:477] conv2/3x3_reduce <- pool1/norm1
I0921 08:21:56.592416 2063708928 net.cpp:433] conv2/3x3_reduce -> conv2/3x3_reduce
I0921 08:21:56.592461 2063708928 net.cpp:155] Setting up conv2/3x3_reduce
I0921 08:21:56.592468 2063708928 net.cpp:163] Top shape: 10 64 56 56 (2007040)
I0921 08:21:56.592476 2063708928 layer_factory.hpp:76] Creating layer conv2/relu_3x3_reduce
I0921 08:21:56.592483 2063708928 net.cpp:110] Creating Layer conv2/relu_3x3_reduce
I0921 08:21:56.592486 2063708928 net.cpp:477] conv2/relu_3x3_reduce <- conv2/3x3_reduce
I0921 08:21:56.592492 2063708928 net.cpp:419] conv2/relu_3x3_reduce -> conv2/3x3_reduce (in-place)
I0921 08:21:56.592499 2063708928 net.cpp:155] Setting up conv2/relu_3x3_reduce
I0921 08:21:56.592504 2063708928 net.cpp:163] Top shape: 10 64 56 56 (2007040)
I0921 08:21:56.592509 2063708928 layer_factory.hpp:76] Creating layer conv2/3x3
I0921 08:21:56.592516 2063708928 net.cpp:110] Creating Layer conv2/3x3
I0921 08:21:56.592520 2063708928 net.cpp:477] conv2/3x3 <- conv2/3x3_reduce
I0921 08:21:56.592526 2063708928 net.cpp:433] conv2/3x3 -> conv2/3x3
I0921 08:21:56.593374 2063708928 net.cpp:155] Setting up conv2/3x3
I0921 08:21:56.593381 2063708928 net.cpp:163] Top shape: 10 192 56 56 (6021120)
I0921 08:21:56.593397 2063708928 layer_factory.hpp:76] Creating layer conv2/relu_3x3
I0921 08:21:56.593405 2063708928 net.cpp:110] Creating Layer conv2/relu_3x3
I0921 08:21:56.593410 2063708928 net.cpp:477] conv2/relu_3x3 <- conv2/3x3
I0921 08:21:56.593415 2063708928 net.cpp:419] conv2/relu_3x3 -> conv2/3x3 (in-place)
I0921 08:21:56.593421 2063708928 net.cpp:155] Setting up conv2/relu_3x3
I0921 08:21:56.593425 2063708928 net.cpp:163] Top shape: 10 192 56 56 (6021120)
I0921 08:21:56.593431 2063708928 layer_factory.hpp:76] Creating layer conv2/norm2
I0921 08:21:56.593437 2063708928 net.cpp:110] Creating Layer conv2/norm2
I0921 08:21:56.593442 2063708928 net.cpp:477] conv2/norm2 <- conv2/3x3
I0921 08:21:56.593448 2063708928 net.cpp:433] conv2/norm2 -> conv2/norm2
I0921 08:21:56.593456 2063708928 net.cpp:155] Setting up conv2/norm2
I0921 08:21:56.593461 2063708928 net.cpp:163] Top shape: 10 192 56 56 (6021120)
I0921 08:21:56.593466 2063708928 layer_factory.hpp:76] Creating layer pool2/3x3_s2
I0921 08:21:56.593472 2063708928 net.cpp:110] Creating Layer pool2/3x3_s2
I0921 08:21:56.593477 2063708928 net.cpp:477] pool2/3x3_s2 <- conv2/norm2
I0921 08:21:56.593482 2063708928 net.cpp:433] pool2/3x3_s2 -> pool2/3x3_s2
I0921 08:21:56.593489 2063708928 net.cpp:155] Setting up pool2/3x3_s2
I0921 08:21:56.593493 2063708928 net.cpp:163] Top shape: 10 192 28 28 (1505280)
I0921 08:21:56.593499 2063708928 layer_factory.hpp:76] Creating layer pool2/3x3_s2_pool2/3x3_s2_0_split
I0921 08:21:56.593507 2063708928 net.cpp:110] Creating Layer pool2/3x3_s2_pool2/3x3_s2_0_split
I0921 08:21:56.593511 2063708928 net.cpp:477] pool2/3x3_s2_pool2/3x3_s2_0_split <- pool2/3x3_s2
I0921 08:21:56.593516 2063708928 net.cpp:433] pool2/3x3_s2_pool2/3x3_s2_0_split -> pool2/3x3_s2_pool2/3x3_s2_0_split_0
I0921 08:21:56.593526 2063708928 net.cpp:433] pool2/3x3_s2_pool2/3x3_s2_0_split -> pool2/3x3_s2_pool2/3x3_s2_0_split_1
I0921 08:21:56.593535 2063708928 net.cpp:433] pool2/3x3_s2_pool2/3x3_s2_0_split -> pool2/3x3_s2_pool2/3x3_s2_0_split_2
I0921 08:21:56.593544 2063708928 net.cpp:433] pool2/3x3_s2_pool2/3x3_s2_0_split -> pool2/3x3_s2_pool2/3x3_s2_0_split_3
I0921 08:21:56.593554 2063708928 net.cpp:155] Setting up pool2/3x3_s2_pool2/3x3_s2_0_split
I0921 08:21:56.593559 2063708928 net.cpp:163] Top shape: 10 192 28 28 (1505280)
I0921 08:21:56.593564 2063708928 net.cpp:163] Top shape: 10 192 28 28 (1505280)
I0921 08:21:56.593569 2063708928 net.cpp:163] Top shape: 10 192 28 28 (1505280)
I0921 08:21:56.593575 2063708928 net.cpp:163] Top shape: 10 192 28 28 (1505280)
I0921 08:21:56.593580 2063708928 layer_factory.hpp:76] Creating layer inception_3a/1x1
I0921 08:21:56.593587 2063708928 net.cpp:110] Creating Layer inception_3a/1x1
I0921 08:21:56.593592 2063708928 net.cpp:477] inception_3a/1x1 <- pool2/3x3_s2_pool2/3x3_s2_0_split_0
I0921 08:21:56.593598 2063708928 net.cpp:433] inception_3a/1x1 -> inception_3a/1x1
I0921 08:21:56.593705 2063708928 net.cpp:155] Setting up inception_3a/1x1
I0921 08:21:56.593710 2063708928 net.cpp:163] Top shape: 10 64 28 28 (501760)
I0921 08:21:56.593719 2063708928 layer_factory.hpp:76] Creating layer inception_3a/relu_1x1
I0921 08:21:56.593724 2063708928 net.cpp:110] Creating Layer inception_3a/relu_1x1
I0921 08:21:56.593729 2063708928 net.cpp:477] inception_3a/relu_1x1 <- inception_3a/1x1
I0921 08:21:56.593734 2063708928 net.cpp:419] inception_3a/relu_1x1 -> inception_3a/1x1 (in-place)
I0921 08:21:56.593740 2063708928 net.cpp:155] Setting up inception_3a/relu_1x1
I0921 08:21:56.593744 2063708928 net.cpp:163] Top shape: 10 64 28 28 (501760)
I0921 08:21:56.593750 2063708928 layer_factory.hpp:76] Creating layer inception_3a/3x3_reduce
I0921 08:21:56.593756 2063708928 net.cpp:110] Creating Layer inception_3a/3x3_reduce
I0921 08:21:56.593761 2063708928 net.cpp:477] inception_3a/3x3_reduce <- pool2/3x3_s2_pool2/3x3_s2_0_split_1
I0921 08:21:56.593768 2063708928 net.cpp:433] inception_3a/3x3_reduce -> inception_3a/3x3_reduce
I0921 08:21:56.593950 2063708928 net.cpp:155] Setting up inception_3a/3x3_reduce
I0921 08:21:56.593961 2063708928 net.cpp:163] Top shape: 10 96 28 28 (752640)
I0921 08:21:56.593971 2063708928 layer_factory.hpp:76] Creating layer inception_3a/relu_3x3_reduce
I0921 08:21:56.593981 2063708928 net.cpp:110] Creating Layer inception_3a/relu_3x3_reduce
I0921 08:21:56.593986 2063708928 net.cpp:477] inception_3a/relu_3x3_reduce <- inception_3a/3x3_reduce
I0921 08:21:56.593992 2063708928 net.cpp:419] inception_3a/relu_3x3_reduce -> inception_3a/3x3_reduce (in-place)
I0921 08:21:56.593999 2063708928 net.cpp:155] Setting up inception_3a/relu_3x3_reduce
I0921 08:21:56.594004 2063708928 net.cpp:163] Top shape: 10 96 28 28 (752640)
I0921 08:21:56.594009 2063708928 layer_factory.hpp:76] Creating layer inception_3a/3x3
I0921 08:21:56.594017 2063708928 net.cpp:110] Creating Layer inception_3a/3x3
I0921 08:21:56.594022 2063708928 net.cpp:477] inception_3a/3x3 <- inception_3a/3x3_reduce
I0921 08:21:56.594027 2063708928 net.cpp:433] inception_3a/3x3 -> inception_3a/3x3
I0921 08:21:56.595048 2063708928 net.cpp:155] Setting up inception_3a/3x3
I0921 08:21:56.595055 2063708928 net.cpp:163] Top shape: 10 128 28 28 (1003520)
I0921 08:21:56.595062 2063708928 layer_factory.hpp:76] Creating layer inception_3a/relu_3x3
I0921 08:21:56.595069 2063708928 net.cpp:110] Creating Layer inception_3a/relu_3x3
I0921 08:21:56.595074 2063708928 net.cpp:477] inception_3a/relu_3x3 <- inception_3a/3x3
I0921 08:21:56.595079 2063708928 net.cpp:419] inception_3a/relu_3x3 -> inception_3a/3x3 (in-place)
I0921 08:21:56.595085 2063708928 net.cpp:155] Setting up inception_3a/relu_3x3
I0921 08:21:56.595090 2063708928 net.cpp:163] Top shape: 10 128 28 28 (1003520)
I0921 08:21:56.595095 2063708928 layer_factory.hpp:76] Creating layer inception_3a/5x5_reduce
I0921 08:21:56.595101 2063708928 net.cpp:110] Creating Layer inception_3a/5x5_reduce
I0921 08:21:56.595106 2063708928 net.cpp:477] inception_3a/5x5_reduce <- pool2/3x3_s2_pool2/3x3_s2_0_split_2
I0921 08:21:56.595114 2063708928 net.cpp:433] inception_3a/5x5_reduce -> inception_3a/5x5_reduce
I0921 08:21:56.595154 2063708928 net.cpp:155] Setting up inception_3a/5x5_reduce
I0921 08:21:56.595159 2063708928 net.cpp:163] Top shape: 10 16 28 28 (125440)
I0921 08:21:56.595165 2063708928 layer_factory.hpp:76] Creating layer inception_3a/relu_5x5_reduce
I0921 08:21:56.595170 2063708928 net.cpp:110] Creating Layer inception_3a/relu_5x5_reduce
I0921 08:21:56.595175 2063708928 net.cpp:477] inception_3a/relu_5x5_reduce <- inception_3a/5x5_reduce
I0921 08:21:56.595180 2063708928 net.cpp:419] inception_3a/relu_5x5_reduce -> inception_3a/5x5_reduce (in-place)
I0921 08:21:56.595186 2063708928 net.cpp:155] Setting up inception_3a/relu_5x5_reduce
I0921 08:21:56.595191 2063708928 net.cpp:163] Top shape: 10 16 28 28 (125440)
I0921 08:21:56.595196 2063708928 layer_factory.hpp:76] Creating layer inception_3a/5x5
I0921 08:21:56.595201 2063708928 net.cpp:110] Creating Layer inception_3a/5x5
I0921 08:21:56.595206 2063708928 net.cpp:477] inception_3a/5x5 <- inception_3a/5x5_reduce
I0921 08:21:56.595213 2063708928 net.cpp:433] inception_3a/5x5 -> inception_3a/5x5
I0921 08:21:56.595341 2063708928 net.cpp:155] Setting up inception_3a/5x5
I0921 08:21:56.595348 2063708928 net.cpp:163] Top shape: 10 32 28 28 (250880)
I0921 08:21:56.595355 2063708928 layer_factory.hpp:76] Creating layer inception_3a/relu_5x5
I0921 08:21:56.595360 2063708928 net.cpp:110] Creating Layer inception_3a/relu_5x5
I0921 08:21:56.595365 2063708928 net.cpp:477] inception_3a/relu_5x5 <- inception_3a/5x5
I0921 08:21:56.595371 2063708928 net.cpp:419] inception_3a/relu_5x5 -> inception_3a/5x5 (in-place)
I0921 08:21:56.595376 2063708928 net.cpp:155] Setting up inception_3a/relu_5x5
I0921 08:21:56.595379 2063708928 net.cpp:163] Top shape: 10 32 28 28 (250880)
I0921 08:21:56.595386 2063708928 layer_factory.hpp:76] Creating layer inception_3a/pool
I0921 08:21:56.595392 2063708928 net.cpp:110] Creating Layer inception_3a/pool
I0921 08:21:56.595397 2063708928 net.cpp:477] inception_3a/pool <- pool2/3x3_s2_pool2/3x3_s2_0_split_3
I0921 08:21:56.595402 2063708928 net.cpp:433] inception_3a/pool -> inception_3a/pool
I0921 08:21:56.595417 2063708928 net.cpp:155] Setting up inception_3a/pool
I0921 08:21:56.595422 2063708928 net.cpp:163] Top shape: 10 192 28 28 (1505280)
I0921 08:21:56.595427 2063708928 layer_factory.hpp:76] Creating layer inception_3a/pool_proj
I0921 08:21:56.595433 2063708928 net.cpp:110] Creating Layer inception_3a/pool_proj
I0921 08:21:56.595438 2063708928 net.cpp:477] inception_3a/pool_proj <- inception_3a/pool
I0921 08:21:56.595443 2063708928 net.cpp:433] inception_3a/pool_proj -> inception_3a/pool_proj
I0921 08:21:56.595506 2063708928 net.cpp:155] Setting up inception_3a/pool_proj
I0921 08:21:56.595511 2063708928 net.cpp:163] Top shape: 10 32 28 28 (250880)
I0921 08:21:56.595522 2063708928 layer_factory.hpp:76] Creating layer inception_3a/relu_pool_proj
I0921 08:21:56.595528 2063708928 net.cpp:110] Creating Layer inception_3a/relu_pool_proj
I0921 08:21:56.595532 2063708928 net.cpp:477] inception_3a/relu_pool_proj <- inception_3a/pool_proj
I0921 08:21:56.595537 2063708928 net.cpp:419] inception_3a/relu_pool_proj -> inception_3a/pool_proj (in-place)
I0921 08:21:56.595543 2063708928 net.cpp:155] Setting up inception_3a/relu_pool_proj
I0921 08:21:56.595547 2063708928 net.cpp:163] Top shape: 10 32 28 28 (250880)
I0921 08:21:56.595553 2063708928 layer_factory.hpp:76] Creating layer inception_3a/output
I0921 08:21:56.595558 2063708928 net.cpp:110] Creating Layer inception_3a/output
I0921 08:21:56.595562 2063708928 net.cpp:477] inception_3a/output <- inception_3a/1x1
I0921 08:21:56.595566 2063708928 net.cpp:477] inception_3a/output <- inception_3a/3x3
I0921 08:21:56.595571 2063708928 net.cpp:477] inception_3a/output <- inception_3a/5x5
I0921 08:21:56.595576 2063708928 net.cpp:477] inception_3a/output <- inception_3a/pool_proj
I0921 08:21:56.595580 2063708928 net.cpp:433] inception_3a/output -> inception_3a/output
I0921 08:21:56.595590 2063708928 net.cpp:155] Setting up inception_3a/output
I0921 08:21:56.595594 2063708928 net.cpp:163] Top shape: 10 256 28 28 (2007040)
I0921 08:21:56.595599 2063708928 layer_factory.hpp:76] Creating layer inception_3a/output_inception_3a/output_0_split
I0921 08:21:56.595607 2063708928 net.cpp:110] Creating Layer inception_3a/output_inception_3a/output_0_split
I0921 08:21:56.595610 2063708928 net.cpp:477] inception_3a/output_inception_3a/output_0_split <- inception_3a/output
I0921 08:21:56.595616 2063708928 net.cpp:433] inception_3a/output_inception_3a/output_0_split -> inception_3a/output_inception_3a/output_0_split_0
I0921 08:21:56.595624 2063708928 net.cpp:433] inception_3a/output_inception_3a/output_0_split -> inception_3a/output_inception_3a/output_0_split_1
I0921 08:21:56.595633 2063708928 net.cpp:433] inception_3a/output_inception_3a/output_0_split -> inception_3a/output_inception_3a/output_0_split_2
I0921 08:21:56.595640 2063708928 net.cpp:433] inception_3a/output_inception_3a/output_0_split -> inception_3a/output_inception_3a/output_0_split_3
I0921 08:21:56.595649 2063708928 net.cpp:155] Setting up inception_3a/output_inception_3a/output_0_split
I0921 08:21:56.595652 2063708928 net.cpp:163] Top shape: 10 256 28 28 (2007040)
I0921 08:21:56.595657 2063708928 net.cpp:163] Top shape: 10 256 28 28 (2007040)
I0921 08:21:56.595662 2063708928 net.cpp:163] Top shape: 10 256 28 28 (2007040)
I0921 08:21:56.595667 2063708928 net.cpp:163] Top shape: 10 256 28 28 (2007040)
I0921 08:21:56.595672 2063708928 layer_factory.hpp:76] Creating layer inception_3b/1x1
I0921 08:21:56.595680 2063708928 net.cpp:110] Creating Layer inception_3b/1x1
I0921 08:21:56.595685 2063708928 net.cpp:477] inception_3b/1x1 <- inception_3a/output_inception_3a/output_0_split_0
I0921 08:21:56.595691 2063708928 net.cpp:433] inception_3b/1x1 -> inception_3b/1x1
I0921 08:21:56.595932 2063708928 net.cpp:155] Setting up inception_3b/1x1
I0921 08:21:56.595937 2063708928 net.cpp:163] Top shape: 10 128 28 28 (1003520)
I0921 08:21:56.595944 2063708928 layer_factory.hpp:76] Creating layer inception_3b/relu_1x1
I0921 08:21:56.595949 2063708928 net.cpp:110] Creating Layer inception_3b/relu_1x1
I0921 08:21:56.595958 2063708928 net.cpp:477] inception_3b/relu_1x1 <- inception_3b/1x1
I0921 08:21:56.595966 2063708928 net.cpp:419] inception_3b/relu_1x1 -> inception_3b/1x1 (in-place)
I0921 08:21:56.595973 2063708928 net.cpp:155] Setting up inception_3b/relu_1x1
I0921 08:21:56.595978 2063708928 net.cpp:163] Top shape: 10 128 28 28 (1003520)
I0921 08:21:56.595983 2063708928 layer_factory.hpp:76] Creating layer inception_3b/3x3_reduce
I0921 08:21:56.595989 2063708928 net.cpp:110] Creating Layer inception_3b/3x3_reduce
I0921 08:21:56.595993 2063708928 net.cpp:477] inception_3b/3x3_reduce <- inception_3a/output_inception_3a/output_0_split_1
I0921 08:21:56.595999 2063708928 net.cpp:433] inception_3b/3x3_reduce -> inception_3b/3x3_reduce
I0921 08:21:56.596281 2063708928 net.cpp:155] Setting up inception_3b/3x3_reduce
I0921 08:21:56.596287 2063708928 net.cpp:163] Top shape: 10 128 28 28 (1003520)
I0921 08:21:56.596293 2063708928 layer_factory.hpp:76] Creating layer inception_3b/relu_3x3_reduce
I0921 08:21:56.596300 2063708928 net.cpp:110] Creating Layer inception_3b/relu_3x3_reduce
I0921 08:21:56.596304 2063708928 net.cpp:477] inception_3b/relu_3x3_reduce <- inception_3b/3x3_reduce
I0921 08:21:56.596310 2063708928 net.cpp:419] inception_3b/relu_3x3_reduce -> inception_3b/3x3_reduce (in-place)
I0921 08:21:56.596315 2063708928 net.cpp:155] Setting up inception_3b/relu_3x3_reduce
I0921 08:21:56.596319 2063708928 net.cpp:163] Top shape: 10 128 28 28 (1003520)
I0921 08:21:56.596324 2063708928 layer_factory.hpp:76] Creating layer inception_3b/3x3
I0921 08:21:56.596329 2063708928 net.cpp:110] Creating Layer inception_3b/3x3
I0921 08:21:56.596333 2063708928 net.cpp:477] inception_3b/3x3 <- inception_3b/3x3_reduce
I0921 08:21:56.596339 2063708928 net.cpp:433] inception_3b/3x3 -> inception_3b/3x3
I0921 08:21:56.597769 2063708928 net.cpp:155] Setting up inception_3b/3x3
I0921 08:21:56.597775 2063708928 net.cpp:163] Top shape: 10 192 28 28 (1505280)
I0921 08:21:56.597782 2063708928 layer_factory.hpp:76] Creating layer inception_3b/relu_3x3
I0921 08:21:56.597787 2063708928 net.cpp:110] Creating Layer inception_3b/relu_3x3
I0921 08:21:56.597791 2063708928 net.cpp:477] inception_3b/relu_3x3 <- inception_3b/3x3
I0921 08:21:56.597796 2063708928 net.cpp:419] inception_3b/relu_3x3 -> inception_3b/3x3 (in-place)
I0921 08:21:56.597801 2063708928 net.cpp:155] Setting up inception_3b/relu_3x3
I0921 08:21:56.597805 2063708928 net.cpp:163] Top shape: 10 192 28 28 (1505280)
I0921 08:21:56.597810 2063708928 layer_factory.hpp:76] Creating layer inception_3b/5x5_reduce
I0921 08:21:56.597820 2063708928 net.cpp:110] Creating Layer inception_3b/5x5_reduce
I0921 08:21:56.597825 2063708928 net.cpp:477] inception_3b/5x5_reduce <- inception_3a/output_inception_3a/output_0_split_2
I0921 08:21:56.597831 2063708928 net.cpp:433] inception_3b/5x5_reduce -> inception_3b/5x5_reduce
I0921 08:21:56.597906 2063708928 net.cpp:155] Setting up inception_3b/5x5_reduce
I0921 08:21:56.597911 2063708928 net.cpp:163] Top shape: 10 32 28 28 (250880)
I0921 08:21:56.597918 2063708928 layer_factory.hpp:76] Creating layer inception_3b/relu_5x5_reduce
I0921 08:21:56.597923 2063708928 net.cpp:110] Creating Layer inception_3b/relu_5x5_reduce
I0921 08:21:56.597929 2063708928 net.cpp:477] inception_3b/relu_5x5_reduce <- inception_3b/5x5_reduce
I0921 08:21:56.597934 2063708928 net.cpp:419] inception_3b/relu_5x5_reduce -> inception_3b/5x5_reduce (in-place)
I0921 08:21:56.597939 2063708928 net.cpp:155] Setting up inception_3b/relu_5x5_reduce
I0921 08:21:56.597942 2063708928 net.cpp:163] Top shape: 10 32 28 28 (250880)
I0921 08:21:56.597947 2063708928 layer_factory.hpp:76] Creating layer inception_3b/5x5
I0921 08:21:56.597952 2063708928 net.cpp:110] Creating Layer inception_3b/5x5
I0921 08:21:56.597956 2063708928 net.cpp:477] inception_3b/5x5 <- inception_3b/5x5_reduce
I0921 08:21:56.597961 2063708928 net.cpp:433] inception_3b/5x5 -> inception_3b/5x5
I0921 08:21:56.598558 2063708928 net.cpp:155] Setting up inception_3b/5x5
I0921 08:21:56.598564 2063708928 net.cpp:163] Top shape: 10 96 28 28 (752640)
I0921 08:21:56.598577 2063708928 layer_factory.hpp:76] Creating layer inception_3b/relu_5x5
I0921 08:21:56.598582 2063708928 net.cpp:110] Creating Layer inception_3b/relu_5x5
I0921 08:21:56.598587 2063708928 net.cpp:477] inception_3b/relu_5x5 <- inception_3b/5x5
I0921 08:21:56.598590 2063708928 net.cpp:419] inception_3b/relu_5x5 -> inception_3b/5x5 (in-place)
I0921 08:21:56.598597 2063708928 net.cpp:155] Setting up inception_3b/relu_5x5
I0921 08:21:56.598600 2063708928 net.cpp:163] Top shape: 10 96 28 28 (752640)
I0921 08:21:56.598604 2063708928 layer_factory.hpp:76] Creating layer inception_3b/pool
I0921 08:21:56.598609 2063708928 net.cpp:110] Creating Layer inception_3b/pool
I0921 08:21:56.598613 2063708928 net.cpp:477] inception_3b/pool <- inception_3a/output_inception_3a/output_0_split_3
I0921 08:21:56.598618 2063708928 net.cpp:433] inception_3b/pool -> inception_3b/pool
I0921 08:21:56.598625 2063708928 net.cpp:155] Setting up inception_3b/pool
I0921 08:21:56.598629 2063708928 net.cpp:163] Top shape: 10 256 28 28 (2007040)
I0921 08:21:56.598634 2063708928 layer_factory.hpp:76] Creating layer inception_3b/pool_proj
I0921 08:21:56.598642 2063708928 net.cpp:110] Creating Layer inception_3b/pool_proj
I0921 08:21:56.598646 2063708928 net.cpp:477] inception_3b/pool_proj <- inception_3b/pool
I0921 08:21:56.598652 2063708928 net.cpp:433] inception_3b/pool_proj -> inception_3b/pool_proj
I0921 08:21:56.598794 2063708928 net.cpp:155] Setting up inception_3b/pool_proj
I0921 08:21:56.598799 2063708928 net.cpp:163] Top shape: 10 64 28 28 (501760)
I0921 08:21:56.598805 2063708928 layer_factory.hpp:76] Creating layer inception_3b/relu_pool_proj
I0921 08:21:56.598810 2063708928 net.cpp:110] Creating Layer inception_3b/relu_pool_proj
I0921 08:21:56.598814 2063708928 net.cpp:477] inception_3b/relu_pool_proj <- inception_3b/pool_proj
I0921 08:21:56.598820 2063708928 net.cpp:419] inception_3b/relu_pool_proj -> inception_3b/pool_proj (in-place)
I0921 08:21:56.598826 2063708928 net.cpp:155] Setting up inception_3b/relu_pool_proj
I0921 08:21:56.598830 2063708928 net.cpp:163] Top shape: 10 64 28 28 (501760)
I0921 08:21:56.598835 2063708928 layer_factory.hpp:76] Creating layer inception_3b/output
I0921 08:21:56.598840 2063708928 net.cpp:110] Creating Layer inception_3b/output
I0921 08:21:56.598845 2063708928 net.cpp:477] inception_3b/output <- inception_3b/1x1
I0921 08:21:56.598848 2063708928 net.cpp:477] inception_3b/output <- inception_3b/3x3
I0921 08:21:56.598852 2063708928 net.cpp:477] inception_3b/output <- inception_3b/5x5
I0921 08:21:56.598856 2063708928 net.cpp:477] inception_3b/output <- inception_3b/pool_proj
I0921 08:21:56.598861 2063708928 net.cpp:433] inception_3b/output -> inception_3b/output
I0921 08:21:56.598867 2063708928 net.cpp:155] Setting up inception_3b/output
I0921 08:21:56.598871 2063708928 net.cpp:163] Top shape: 10 480 28 28 (3763200)
I0921 08:21:56.598876 2063708928 layer_factory.hpp:76] Creating layer pool3/3x3_s2
I0921 08:21:56.598881 2063708928 net.cpp:110] Creating Layer pool3/3x3_s2
I0921 08:21:56.598884 2063708928 net.cpp:477] pool3/3x3_s2 <- inception_3b/output
I0921 08:21:56.598889 2063708928 net.cpp:433] pool3/3x3_s2 -> pool3/3x3_s2
I0921 08:21:56.598901 2063708928 net.cpp:155] Setting up pool3/3x3_s2
I0921 08:21:56.598906 2063708928 net.cpp:163] Top shape: 10 480 14 14 (940800)
I0921 08:21:56.598909 2063708928 layer_factory.hpp:76] Creating layer pool3/3x3_s2_pool3/3x3_s2_0_split
I0921 08:21:56.598916 2063708928 net.cpp:110] Creating Layer pool3/3x3_s2_pool3/3x3_s2_0_split
I0921 08:21:56.598919 2063708928 net.cpp:477] pool3/3x3_s2_pool3/3x3_s2_0_split <- pool3/3x3_s2
I0921 08:21:56.598925 2063708928 net.cpp:433] pool3/3x3_s2_pool3/3x3_s2_0_split -> pool3/3x3_s2_pool3/3x3_s2_0_split_0
I0921 08:21:56.598934 2063708928 net.cpp:433] pool3/3x3_s2_pool3/3x3_s2_0_split -> pool3/3x3_s2_pool3/3x3_s2_0_split_1
I0921 08:21:56.598942 2063708928 net.cpp:433] pool3/3x3_s2_pool3/3x3_s2_0_split -> pool3/3x3_s2_pool3/3x3_s2_0_split_2
I0921 08:21:56.598949 2063708928 net.cpp:433] pool3/3x3_s2_pool3/3x3_s2_0_split -> pool3/3x3_s2_pool3/3x3_s2_0_split_3
I0921 08:21:56.598961 2063708928 net.cpp:155] Setting up pool3/3x3_s2_pool3/3x3_s2_0_split
I0921 08:21:56.598965 2063708928 net.cpp:163] Top shape: 10 480 14 14 (940800)
I0921 08:21:56.598970 2063708928 net.cpp:163] Top shape: 10 480 14 14 (940800)
I0921 08:21:56.598975 2063708928 net.cpp:163] Top shape: 10 480 14 14 (940800)
I0921 08:21:56.598979 2063708928 net.cpp:163] Top shape: 10 480 14 14 (940800)
I0921 08:21:56.598984 2063708928 layer_factory.hpp:76] Creating layer inception_4a/1x1
I0921 08:21:56.598990 2063708928 net.cpp:110] Creating Layer inception_4a/1x1
I0921 08:21:56.598994 2063708928 net.cpp:477] inception_4a/1x1 <- pool3/3x3_s2_pool3/3x3_s2_0_split_0
I0921 08:21:56.599000 2063708928 net.cpp:433] inception_4a/1x1 -> inception_4a/1x1
I0921 08:21:56.599723 2063708928 net.cpp:155] Setting up inception_4a/1x1
I0921 08:21:56.599730 2063708928 net.cpp:163] Top shape: 10 192 14 14 (376320)
I0921 08:21:56.599736 2063708928 layer_factory.hpp:76] Creating layer inception_4a/relu_1x1
I0921 08:21:56.599741 2063708928 net.cpp:110] Creating Layer inception_4a/relu_1x1
I0921 08:21:56.599745 2063708928 net.cpp:477] inception_4a/relu_1x1 <- inception_4a/1x1
I0921 08:21:56.599750 2063708928 net.cpp:419] inception_4a/relu_1x1 -> inception_4a/1x1 (in-place)
I0921 08:21:56.599756 2063708928 net.cpp:155] Setting up inception_4a/relu_1x1
I0921 08:21:56.599759 2063708928 net.cpp:163] Top shape: 10 192 14 14 (376320)
I0921 08:21:56.599764 2063708928 layer_factory.hpp:76] Creating layer inception_4a/3x3_reduce
I0921 08:21:56.599771 2063708928 net.cpp:110] Creating Layer inception_4a/3x3_reduce
I0921 08:21:56.599776 2063708928 net.cpp:477] inception_4a/3x3_reduce <- pool3/3x3_s2_pool3/3x3_s2_0_split_1
I0921 08:21:56.599782 2063708928 net.cpp:433] inception_4a/3x3_reduce -> inception_4a/3x3_reduce
I0921 08:21:56.600085 2063708928 net.cpp:155] Setting up inception_4a/3x3_reduce
I0921 08:21:56.600090 2063708928 net.cpp:163] Top shape: 10 96 14 14 (188160)
I0921 08:21:56.600098 2063708928 layer_factory.hpp:76] Creating layer inception_4a/relu_3x3_reduce
I0921 08:21:56.600105 2063708928 net.cpp:110] Creating Layer inception_4a/relu_3x3_reduce
I0921 08:21:56.600108 2063708928 net.cpp:477] inception_4a/relu_3x3_reduce <- inception_4a/3x3_reduce
I0921 08:21:56.600116 2063708928 net.cpp:419] inception_4a/relu_3x3_reduce -> inception_4a/3x3_reduce (in-place)
I0921 08:21:56.600122 2063708928 net.cpp:155] Setting up inception_4a/relu_3x3_reduce
I0921 08:21:56.600126 2063708928 net.cpp:163] Top shape: 10 96 14 14 (188160)
I0921 08:21:56.600131 2063708928 layer_factory.hpp:76] Creating layer inception_4a/3x3
I0921 08:21:56.600136 2063708928 net.cpp:110] Creating Layer inception_4a/3x3
I0921 08:21:56.600141 2063708928 net.cpp:477] inception_4a/3x3 <- inception_4a/3x3_reduce
I0921 08:21:56.600147 2063708928 net.cpp:433] inception_4a/3x3 -> inception_4a/3x3
I0921 08:21:56.601519 2063708928 net.cpp:155] Setting up inception_4a/3x3
I0921 08:21:56.601526 2063708928 net.cpp:163] Top shape: 10 208 14 14 (407680)
I0921 08:21:56.601533 2063708928 layer_factory.hpp:76] Creating layer inception_4a/relu_3x3
I0921 08:21:56.601538 2063708928 net.cpp:110] Creating Layer inception_4a/relu_3x3
I0921 08:21:56.601542 2063708928 net.cpp:477] inception_4a/relu_3x3 <- inception_4a/3x3
I0921 08:21:56.601547 2063708928 net.cpp:419] inception_4a/relu_3x3 -> inception_4a/3x3 (in-place)
I0921 08:21:56.601553 2063708928 net.cpp:155] Setting up inception_4a/relu_3x3
I0921 08:21:56.601557 2063708928 net.cpp:163] Top shape: 10 208 14 14 (407680)
I0921 08:21:56.601562 2063708928 layer_factory.hpp:76] Creating layer inception_4a/5x5_reduce
I0921 08:21:56.601567 2063708928 net.cpp:110] Creating Layer inception_4a/5x5_reduce
I0921 08:21:56.601572 2063708928 net.cpp:477] inception_4a/5x5_reduce <- pool3/3x3_s2_pool3/3x3_s2_0_split_2
I0921 08:21:56.601579 2063708928 net.cpp:433] inception_4a/5x5_reduce -> inception_4a/5x5_reduce
I0921 08:21:56.601642 2063708928 net.cpp:155] Setting up inception_4a/5x5_reduce
I0921 08:21:56.601647 2063708928 net.cpp:163] Top shape: 10 16 14 14 (31360)
I0921 08:21:56.601658 2063708928 layer_factory.hpp:76] Creating layer inception_4a/relu_5x5_reduce
I0921 08:21:56.601665 2063708928 net.cpp:110] Creating Layer inception_4a/relu_5x5_reduce
I0921 08:21:56.601668 2063708928 net.cpp:477] inception_4a/relu_5x5_reduce <- inception_4a/5x5_reduce
I0921 08:21:56.601673 2063708928 net.cpp:419] inception_4a/relu_5x5_reduce -> inception_4a/5x5_reduce (in-place)
I0921 08:21:56.601680 2063708928 net.cpp:155] Setting up inception_4a/relu_5x5_reduce
I0921 08:21:56.601682 2063708928 net.cpp:163] Top shape: 10 16 14 14 (31360)
I0921 08:21:56.601687 2063708928 layer_factory.hpp:76] Creating layer inception_4a/5x5
I0921 08:21:56.601694 2063708928 net.cpp:110] Creating Layer inception_4a/5x5
I0921 08:21:56.601698 2063708928 net.cpp:477] inception_4a/5x5 <- inception_4a/5x5_reduce
I0921 08:21:56.601704 2063708928 net.cpp:433] inception_4a/5x5 -> inception_4a/5x5
I0921 08:21:56.601861 2063708928 net.cpp:155] Setting up inception_4a/5x5
I0921 08:21:56.601866 2063708928 net.cpp:163] Top shape: 10 48 14 14 (94080)
I0921 08:21:56.601871 2063708928 layer_factory.hpp:76] Creating layer inception_4a/relu_5x5
I0921 08:21:56.601876 2063708928 net.cpp:110] Creating Layer inception_4a/relu_5x5
I0921 08:21:56.601881 2063708928 net.cpp:477] inception_4a/relu_5x5 <- inception_4a/5x5
I0921 08:21:56.601886 2063708928 net.cpp:419] inception_4a/relu_5x5 -> inception_4a/5x5 (in-place)
I0921 08:21:56.601892 2063708928 net.cpp:155] Setting up inception_4a/relu_5x5
I0921 08:21:56.601897 2063708928 net.cpp:163] Top shape: 10 48 14 14 (94080)
I0921 08:21:56.601900 2063708928 layer_factory.hpp:76] Creating layer inception_4a/pool
I0921 08:21:56.601905 2063708928 net.cpp:110] Creating Layer inception_4a/pool
I0921 08:21:56.601909 2063708928 net.cpp:477] inception_4a/pool <- pool3/3x3_s2_pool3/3x3_s2_0_split_3
I0921 08:21:56.601914 2063708928 net.cpp:433] inception_4a/pool -> inception_4a/pool
I0921 08:21:56.601922 2063708928 net.cpp:155] Setting up inception_4a/pool
I0921 08:21:56.601925 2063708928 net.cpp:163] Top shape: 10 480 14 14 (940800)
I0921 08:21:56.601929 2063708928 layer_factory.hpp:76] Creating layer inception_4a/pool_proj
I0921 08:21:56.601935 2063708928 net.cpp:110] Creating Layer inception_4a/pool_proj
I0921 08:21:56.601938 2063708928 net.cpp:477] inception_4a/pool_proj <- inception_4a/pool
I0921 08:21:56.601944 2063708928 net.cpp:433] inception_4a/pool_proj -> inception_4a/pool_proj
I0921 08:21:56.602186 2063708928 net.cpp:155] Setting up inception_4a/pool_proj
I0921 08:21:56.602191 2063708928 net.cpp:163] Top shape: 10 64 14 14 (125440)
I0921 08:21:56.602197 2063708928 layer_factory.hpp:76] Creating layer inception_4a/relu_pool_proj
I0921 08:21:56.602202 2063708928 net.cpp:110] Creating Layer inception_4a/relu_pool_proj
I0921 08:21:56.602206 2063708928 net.cpp:477] inception_4a/relu_pool_proj <- inception_4a/pool_proj
I0921 08:21:56.602211 2063708928 net.cpp:419] inception_4a/relu_pool_proj -> inception_4a/pool_proj (in-place)
I0921 08:21:56.602216 2063708928 net.cpp:155] Setting up inception_4a/relu_pool_proj
I0921 08:21:56.602221 2063708928 net.cpp:163] Top shape: 10 64 14 14 (125440)
I0921 08:21:56.602224 2063708928 layer_factory.hpp:76] Creating layer inception_4a/output
I0921 08:21:56.602229 2063708928 net.cpp:110] Creating Layer inception_4a/output
I0921 08:21:56.602233 2063708928 net.cpp:477] inception_4a/output <- inception_4a/1x1
I0921 08:21:56.602237 2063708928 net.cpp:477] inception_4a/output <- inception_4a/3x3
I0921 08:21:56.602241 2063708928 net.cpp:477] inception_4a/output <- inception_4a/5x5
I0921 08:21:56.602246 2063708928 net.cpp:477] inception_4a/output <- inception_4a/pool_proj
I0921 08:21:56.602252 2063708928 net.cpp:433] inception_4a/output -> inception_4a/output
I0921 08:21:56.602258 2063708928 net.cpp:155] Setting up inception_4a/output
I0921 08:21:56.602262 2063708928 net.cpp:163] Top shape: 10 512 14 14 (1003520)
I0921 08:21:56.602267 2063708928 layer_factory.hpp:76] Creating layer inception_4a/output_inception_4a/output_0_split
I0921 08:21:56.602277 2063708928 net.cpp:110] Creating Layer inception_4a/output_inception_4a/output_0_split
I0921 08:21:56.602282 2063708928 net.cpp:477] inception_4a/output_inception_4a/output_0_split <- inception_4a/output
I0921 08:21:56.602286 2063708928 net.cpp:433] inception_4a/output_inception_4a/output_0_split -> inception_4a/output_inception_4a/output_0_split_0
I0921 08:21:56.602294 2063708928 net.cpp:433] inception_4a/output_inception_4a/output_0_split -> inception_4a/output_inception_4a/output_0_split_1
I0921 08:21:56.602303 2063708928 net.cpp:433] inception_4a/output_inception_4a/output_0_split -> inception_4a/output_inception_4a/output_0_split_2
I0921 08:21:56.602309 2063708928 net.cpp:433] inception_4a/output_inception_4a/output_0_split -> inception_4a/output_inception_4a/output_0_split_3
I0921 08:21:56.602316 2063708928 net.cpp:155] Setting up inception_4a/output_inception_4a/output_0_split
I0921 08:21:56.602320 2063708928 net.cpp:163] Top shape: 10 512 14 14 (1003520)
I0921 08:21:56.602324 2063708928 net.cpp:163] Top shape: 10 512 14 14 (1003520)
I0921 08:21:56.602329 2063708928 net.cpp:163] Top shape: 10 512 14 14 (1003520)
I0921 08:21:56.602334 2063708928 net.cpp:163] Top shape: 10 512 14 14 (1003520)
I0921 08:21:56.602339 2063708928 layer_factory.hpp:76] Creating layer inception_4b/1x1
I0921 08:21:56.602345 2063708928 net.cpp:110] Creating Layer inception_4b/1x1
I0921 08:21:56.602349 2063708928 net.cpp:477] inception_4b/1x1 <- inception_4a/output_inception_4a/output_0_split_0
I0921 08:21:56.602355 2063708928 net.cpp:433] inception_4b/1x1 -> inception_4b/1x1
I0921 08:21:56.603011 2063708928 net.cpp:155] Setting up inception_4b/1x1
I0921 08:21:56.603018 2063708928 net.cpp:163] Top shape: 10 160 14 14 (313600)
I0921 08:21:56.603024 2063708928 layer_factory.hpp:76] Creating layer inception_4b/relu_1x1
I0921 08:21:56.603031 2063708928 net.cpp:110] Creating Layer inception_4b/relu_1x1
I0921 08:21:56.603035 2063708928 net.cpp:477] inception_4b/relu_1x1 <- inception_4b/1x1
I0921 08:21:56.603040 2063708928 net.cpp:419] inception_4b/relu_1x1 -> inception_4b/1x1 (in-place)
I0921 08:21:56.603046 2063708928 net.cpp:155] Setting up inception_4b/relu_1x1
I0921 08:21:56.603049 2063708928 net.cpp:163] Top shape: 10 160 14 14 (313600)
I0921 08:21:56.603055 2063708928 layer_factory.hpp:76] Creating layer inception_4b/3x3_reduce
I0921 08:21:56.603060 2063708928 net.cpp:110] Creating Layer inception_4b/3x3_reduce
I0921 08:21:56.603063 2063708928 net.cpp:477] inception_4b/3x3_reduce <- inception_4a/output_inception_4a/output_0_split_1
I0921 08:21:56.603070 2063708928 net.cpp:433] inception_4b/3x3_reduce -> inception_4b/3x3_reduce
I0921 08:21:56.603523 2063708928 net.cpp:155] Setting up inception_4b/3x3_reduce
I0921 08:21:56.603529 2063708928 net.cpp:163] Top shape: 10 112 14 14 (219520)
I0921 08:21:56.603535 2063708928 layer_factory.hpp:76] Creating layer inception_4b/relu_3x3_reduce
I0921 08:21:56.603541 2063708928 net.cpp:110] Creating Layer inception_4b/relu_3x3_reduce
I0921 08:21:56.603545 2063708928 net.cpp:477] inception_4b/relu_3x3_reduce <- inception_4b/3x3_reduce
I0921 08:21:56.603550 2063708928 net.cpp:419] inception_4b/relu_3x3_reduce -> inception_4b/3x3_reduce (in-place)
I0921 08:21:56.603555 2063708928 net.cpp:155] Setting up inception_4b/relu_3x3_reduce
I0921 08:21:56.603559 2063708928 net.cpp:163] Top shape: 10 112 14 14 (219520)
I0921 08:21:56.603564 2063708928 layer_factory.hpp:76] Creating layer inception_4b/3x3
I0921 08:21:56.603571 2063708928 net.cpp:110] Creating Layer inception_4b/3x3
I0921 08:21:56.603575 2063708928 net.cpp:477] inception_4b/3x3 <- inception_4b/3x3_reduce
I0921 08:21:56.603581 2063708928 net.cpp:433] inception_4b/3x3 -> inception_4b/3x3
I0921 08:21:56.605279 2063708928 net.cpp:155] Setting up inception_4b/3x3
I0921 08:21:56.605285 2063708928 net.cpp:163] Top shape: 10 224 14 14 (439040)
I0921 08:21:56.605291 2063708928 layer_factory.hpp:76] Creating layer inception_4b/relu_3x3
I0921 08:21:56.605298 2063708928 net.cpp:110] Creating Layer inception_4b/relu_3x3
I0921 08:21:56.605304 2063708928 net.cpp:477] inception_4b/relu_3x3 <- inception_4b/3x3
I0921 08:21:56.605314 2063708928 net.cpp:419] inception_4b/relu_3x3 -> inception_4b/3x3 (in-place)
I0921 08:21:56.605319 2063708928 net.cpp:155] Setting up inception_4b/relu_3x3
I0921 08:21:56.605324 2063708928 net.cpp:163] Top shape: 10 224 14 14 (439040)
I0921 08:21:56.605329 2063708928 layer_factory.hpp:76] Creating layer inception_4b/5x5_reduce
I0921 08:21:56.605334 2063708928 net.cpp:110] Creating Layer inception_4b/5x5_reduce
I0921 08:21:56.605339 2063708928 net.cpp:477] inception_4b/5x5_reduce <- inception_4a/output_inception_4a/output_0_split_2
I0921 08:21:56.605343 2063708928 net.cpp:433] inception_4b/5x5_reduce -> inception_4b/5x5_reduce
I0921 08:21:56.605449 2063708928 net.cpp:155] Setting up inception_4b/5x5_reduce
I0921 08:21:56.605454 2063708928 net.cpp:163] Top shape: 10 24 14 14 (47040)
I0921 08:21:56.605460 2063708928 layer_factory.hpp:76] Creating layer inception_4b/relu_5x5_reduce
I0921 08:21:56.605475 2063708928 net.cpp:110] Creating Layer inception_4b/relu_5x5_reduce
I0921 08:21:56.605480 2063708928 net.cpp:477] inception_4b/relu_5x5_reduce <- inception_4b/5x5_reduce
I0921 08:21:56.605485 2063708928 net.cpp:419] inception_4b/relu_5x5_reduce -> inception_4b/5x5_reduce (in-place)
I0921 08:21:56.605491 2063708928 net.cpp:155] Setting up inception_4b/relu_5x5_reduce
I0921 08:21:56.605495 2063708928 net.cpp:163] Top shape: 10 24 14 14 (47040)
I0921 08:21:56.605499 2063708928 layer_factory.hpp:76] Creating layer inception_4b/5x5
I0921 08:21:56.605505 2063708928 net.cpp:110] Creating Layer inception_4b/5x5
I0921 08:21:56.605509 2063708928 net.cpp:477] inception_4b/5x5 <- inception_4b/5x5_reduce
I0921 08:21:56.605516 2063708928 net.cpp:433] inception_4b/5x5 -> inception_4b/5x5
I0921 08:21:56.605829 2063708928 net.cpp:155] Setting up inception_4b/5x5
I0921 08:21:56.605834 2063708928 net.cpp:163] Top shape: 10 64 14 14 (125440)
I0921 08:21:56.605840 2063708928 layer_factory.hpp:76] Creating layer inception_4b/relu_5x5
I0921 08:21:56.605846 2063708928 net.cpp:110] Creating Layer inception_4b/relu_5x5
I0921 08:21:56.605850 2063708928 net.cpp:477] inception_4b/relu_5x5 <- inception_4b/5x5
I0921 08:21:56.605854 2063708928 net.cpp:419] inception_4b/relu_5x5 -> inception_4b/5x5 (in-place)
I0921 08:21:56.605860 2063708928 net.cpp:155] Setting up inception_4b/relu_5x5
I0921 08:21:56.605864 2063708928 net.cpp:163] Top shape: 10 64 14 14 (125440)
I0921 08:21:56.605868 2063708928 layer_factory.hpp:76] Creating layer inception_4b/pool
I0921 08:21:56.605875 2063708928 net.cpp:110] Creating Layer inception_4b/pool
I0921 08:21:56.605880 2063708928 net.cpp:477] inception_4b/pool <- inception_4a/output_inception_4a/output_0_split_3
I0921 08:21:56.605885 2063708928 net.cpp:433] inception_4b/pool -> inception_4b/pool
I0921 08:21:56.605892 2063708928 net.cpp:155] Setting up inception_4b/pool
I0921 08:21:56.605895 2063708928 net.cpp:163] Top shape: 10 512 14 14 (1003520)
I0921 08:21:56.605901 2063708928 layer_factory.hpp:76] Creating layer inception_4b/pool_proj
I0921 08:21:56.605906 2063708928 net.cpp:110] Creating Layer inception_4b/pool_proj
I0921 08:21:56.605911 2063708928 net.cpp:477] inception_4b/pool_proj <- inception_4b/pool
I0921 08:21:56.605916 2063708928 net.cpp:433] inception_4b/pool_proj -> inception_4b/pool_proj
I0921 08:21:56.606183 2063708928 net.cpp:155] Setting up inception_4b/pool_proj
I0921 08:21:56.606189 2063708928 net.cpp:163] Top shape: 10 64 14 14 (125440)
I0921 08:21:56.606194 2063708928 layer_factory.hpp:76] Creating layer inception_4b/relu_pool_proj
I0921 08:21:56.606199 2063708928 net.cpp:110] Creating Layer inception_4b/relu_pool_proj
I0921 08:21:56.606204 2063708928 net.cpp:477] inception_4b/relu_pool_proj <- inception_4b/pool_proj
I0921 08:21:56.606209 2063708928 net.cpp:419] inception_4b/relu_pool_proj -> inception_4b/pool_proj (in-place)
I0921 08:21:56.606215 2063708928 net.cpp:155] Setting up inception_4b/relu_pool_proj
I0921 08:21:56.606217 2063708928 net.cpp:163] Top shape: 10 64 14 14 (125440)
I0921 08:21:56.606222 2063708928 layer_factory.hpp:76] Creating layer inception_4b/output
I0921 08:21:56.606231 2063708928 net.cpp:110] Creating Layer inception_4b/output
I0921 08:21:56.606236 2063708928 net.cpp:477] inception_4b/output <- inception_4b/1x1
I0921 08:21:56.606240 2063708928 net.cpp:477] inception_4b/output <- inception_4b/3x3
I0921 08:21:56.606245 2063708928 net.cpp:477] inception_4b/output <- inception_4b/5x5
I0921 08:21:56.606248 2063708928 net.cpp:477] inception_4b/output <- inception_4b/pool_proj
I0921 08:21:56.606253 2063708928 net.cpp:433] inception_4b/output -> inception_4b/output
I0921 08:21:56.606261 2063708928 net.cpp:155] Setting up inception_4b/output
I0921 08:21:56.606264 2063708928 net.cpp:163] Top shape: 10 512 14 14 (1003520)
I0921 08:21:56.606268 2063708928 layer_factory.hpp:76] Creating layer inception_4b/output_inception_4b/output_0_split
I0921 08:21:56.606276 2063708928 net.cpp:110] Creating Layer inception_4b/output_inception_4b/output_0_split
I0921 08:21:56.606281 2063708928 net.cpp:477] inception_4b/output_inception_4b/output_0_split <- inception_4b/output
I0921 08:21:56.606287 2063708928 net.cpp:433] inception_4b/output_inception_4b/output_0_split -> inception_4b/output_inception_4b/output_0_split_0
I0921 08:21:56.606294 2063708928 net.cpp:433] inception_4b/output_inception_4b/output_0_split -> inception_4b/output_inception_4b/output_0_split_1
I0921 08:21:56.606302 2063708928 net.cpp:433] inception_4b/output_inception_4b/output_0_split -> inception_4b/output_inception_4b/output_0_split_2
I0921 08:21:56.606308 2063708928 net.cpp:433] inception_4b/output_inception_4b/output_0_split -> inception_4b/output_inception_4b/output_0_split_3
I0921 08:21:56.606317 2063708928 net.cpp:155] Setting up inception_4b/output_inception_4b/output_0_split
I0921 08:21:56.606320 2063708928 net.cpp:163] Top shape: 10 512 14 14 (1003520)
I0921 08:21:56.606324 2063708928 net.cpp:163] Top shape: 10 512 14 14 (1003520)
I0921 08:21:56.606329 2063708928 net.cpp:163] Top shape: 10 512 14 14 (1003520)
I0921 08:21:56.606333 2063708928 net.cpp:163] Top shape: 10 512 14 14 (1003520)
I0921 08:21:56.606338 2063708928 layer_factory.hpp:76] Creating layer inception_4c/1x1
I0921 08:21:56.606345 2063708928 net.cpp:110] Creating Layer inception_4c/1x1
I0921 08:21:56.606350 2063708928 net.cpp:477] inception_4c/1x1 <- inception_4b/output_inception_4b/output_0_split_0
I0921 08:21:56.606355 2063708928 net.cpp:433] inception_4c/1x1 -> inception_4c/1x1
I0921 08:21:56.606869 2063708928 net.cpp:155] Setting up inception_4c/1x1
I0921 08:21:56.606875 2063708928 net.cpp:163] Top shape: 10 128 14 14 (250880)
I0921 08:21:56.606881 2063708928 layer_factory.hpp:76] Creating layer inception_4c/relu_1x1
I0921 08:21:56.606886 2063708928 net.cpp:110] Creating Layer inception_4c/relu_1x1
I0921 08:21:56.606890 2063708928 net.cpp:477] inception_4c/relu_1x1 <- inception_4c/1x1
I0921 08:21:56.606897 2063708928 net.cpp:419] inception_4c/relu_1x1 -> inception_4c/1x1 (in-place)
I0921 08:21:56.606904 2063708928 net.cpp:155] Setting up inception_4c/relu_1x1
I0921 08:21:56.606906 2063708928 net.cpp:163] Top shape: 10 128 14 14 (250880)
I0921 08:21:56.606911 2063708928 layer_factory.hpp:76] Creating layer inception_4c/3x3_reduce
I0921 08:21:56.606917 2063708928 net.cpp:110] Creating Layer inception_4c/3x3_reduce
I0921 08:21:56.606921 2063708928 net.cpp:477] inception_4c/3x3_reduce <- inception_4b/output_inception_4b/output_0_split_1
I0921 08:21:56.606926 2063708928 net.cpp:433] inception_4c/3x3_reduce -> inception_4c/3x3_reduce
I0921 08:21:56.607445 2063708928 net.cpp:155] Setting up inception_4c/3x3_reduce
I0921 08:21:56.607451 2063708928 net.cpp:163] Top shape: 10 128 14 14 (250880)
I0921 08:21:56.607457 2063708928 layer_factory.hpp:76] Creating layer inception_4c/relu_3x3_reduce
I0921 08:21:56.607462 2063708928 net.cpp:110] Creating Layer inception_4c/relu_3x3_reduce
I0921 08:21:56.607466 2063708928 net.cpp:477] inception_4c/relu_3x3_reduce <- inception_4c/3x3_reduce
I0921 08:21:56.607471 2063708928 net.cpp:419] inception_4c/relu_3x3_reduce -> inception_4c/3x3_reduce (in-place)
I0921 08:21:56.607477 2063708928 net.cpp:155] Setting up inception_4c/relu_3x3_reduce
I0921 08:21:56.607497 2063708928 net.cpp:163] Top shape: 10 128 14 14 (250880)
I0921 08:21:56.607503 2063708928 layer_factory.hpp:76] Creating layer inception_4c/3x3
I0921 08:21:56.607508 2063708928 net.cpp:110] Creating Layer inception_4c/3x3
I0921 08:21:56.607512 2063708928 net.cpp:477] inception_4c/3x3 <- inception_4c/3x3_reduce
I0921 08:21:56.607520 2063708928 net.cpp:433] inception_4c/3x3 -> inception_4c/3x3
I0921 08:21:56.609727 2063708928 net.cpp:155] Setting up inception_4c/3x3
I0921 08:21:56.609735 2063708928 net.cpp:163] Top shape: 10 256 14 14 (501760)
I0921 08:21:56.609740 2063708928 layer_factory.hpp:76] Creating layer inception_4c/relu_3x3
I0921 08:21:56.609745 2063708928 net.cpp:110] Creating Layer inception_4c/relu_3x3
I0921 08:21:56.609750 2063708928 net.cpp:477] inception_4c/relu_3x3 <- inception_4c/3x3
I0921 08:21:56.609755 2063708928 net.cpp:419] inception_4c/relu_3x3 -> inception_4c/3x3 (in-place)
I0921 08:21:56.609760 2063708928 net.cpp:155] Setting up inception_4c/relu_3x3
I0921 08:21:56.609763 2063708928 net.cpp:163] Top shape: 10 256 14 14 (501760)
I0921 08:21:56.609768 2063708928 layer_factory.hpp:76] Creating layer inception_4c/5x5_reduce
I0921 08:21:56.609774 2063708928 net.cpp:110] Creating Layer inception_4c/5x5_reduce
I0921 08:21:56.609778 2063708928 net.cpp:477] inception_4c/5x5_reduce <- inception_4b/output_inception_4b/output_0_split_2
I0921 08:21:56.609786 2063708928 net.cpp:433] inception_4c/5x5_reduce -> inception_4c/5x5_reduce
I0921 08:21:56.609899 2063708928 net.cpp:155] Setting up inception_4c/5x5_reduce
I0921 08:21:56.609904 2063708928 net.cpp:163] Top shape: 10 24 14 14 (47040)
I0921 08:21:56.609910 2063708928 layer_factory.hpp:76] Creating layer inception_4c/relu_5x5_reduce
I0921 08:21:56.609915 2063708928 net.cpp:110] Creating Layer inception_4c/relu_5x5_reduce
I0921 08:21:56.609920 2063708928 net.cpp:477] inception_4c/relu_5x5_reduce <- inception_4c/5x5_reduce
I0921 08:21:56.609925 2063708928 net.cpp:419] inception_4c/relu_5x5_reduce -> inception_4c/5x5_reduce (in-place)
I0921 08:21:56.609932 2063708928 net.cpp:155] Setting up inception_4c/relu_5x5_reduce
I0921 08:21:56.609935 2063708928 net.cpp:163] Top shape: 10 24 14 14 (47040)
I0921 08:21:56.609941 2063708928 layer_factory.hpp:76] Creating layer inception_4c/5x5
I0921 08:21:56.609946 2063708928 net.cpp:110] Creating Layer inception_4c/5x5
I0921 08:21:56.609949 2063708928 net.cpp:477] inception_4c/5x5 <- inception_4c/5x5_reduce
I0921 08:21:56.609956 2063708928 net.cpp:433] inception_4c/5x5 -> inception_4c/5x5
I0921 08:21:56.610266 2063708928 net.cpp:155] Setting up inception_4c/5x5
I0921 08:21:56.610272 2063708928 net.cpp:163] Top shape: 10 64 14 14 (125440)
I0921 08:21:56.610278 2063708928 layer_factory.hpp:76] Creating layer inception_4c/relu_5x5
I0921 08:21:56.610285 2063708928 net.cpp:110] Creating Layer inception_4c/relu_5x5
I0921 08:21:56.610291 2063708928 net.cpp:477] inception_4c/relu_5x5 <- inception_4c/5x5
I0921 08:21:56.610294 2063708928 net.cpp:419] inception_4c/relu_5x5 -> inception_4c/5x5 (in-place)
I0921 08:21:56.610301 2063708928 net.cpp:155] Setting up inception_4c/relu_5x5
I0921 08:21:56.610303 2063708928 net.cpp:163] Top shape: 10 64 14 14 (125440)
I0921 08:21:56.610308 2063708928 layer_factory.hpp:76] Creating layer inception_4c/pool
I0921 08:21:56.610313 2063708928 net.cpp:110] Creating Layer inception_4c/pool
I0921 08:21:56.610317 2063708928 net.cpp:477] inception_4c/pool <- inception_4b/output_inception_4b/output_0_split_3
I0921 08:21:56.610322 2063708928 net.cpp:433] inception_4c/pool -> inception_4c/pool
I0921 08:21:56.610329 2063708928 net.cpp:155] Setting up inception_4c/pool
I0921 08:21:56.610333 2063708928 net.cpp:163] Top shape: 10 512 14 14 (1003520)
I0921 08:21:56.610338 2063708928 layer_factory.hpp:76] Creating layer inception_4c/pool_proj
I0921 08:21:56.610345 2063708928 net.cpp:110] Creating Layer inception_4c/pool_proj
I0921 08:21:56.610350 2063708928 net.cpp:477] inception_4c/pool_proj <- inception_4c/pool
I0921 08:21:56.610360 2063708928 net.cpp:433] inception_4c/pool_proj -> inception_4c/pool_proj
I0921 08:21:56.610625 2063708928 net.cpp:155] Setting up inception_4c/pool_proj
I0921 08:21:56.610630 2063708928 net.cpp:163] Top shape: 10 64 14 14 (125440)
I0921 08:21:56.610644 2063708928 layer_factory.hpp:76] Creating layer inception_4c/relu_pool_proj
I0921 08:21:56.610651 2063708928 net.cpp:110] Creating Layer inception_4c/relu_pool_proj
I0921 08:21:56.610656 2063708928 net.cpp:477] inception_4c/relu_pool_proj <- inception_4c/pool_proj
I0921 08:21:56.610661 2063708928 net.cpp:419] inception_4c/relu_pool_proj -> inception_4c/pool_proj (in-place)
I0921 08:21:56.610666 2063708928 net.cpp:155] Setting up inception_4c/relu_pool_proj
I0921 08:21:56.610671 2063708928 net.cpp:163] Top shape: 10 64 14 14 (125440)
I0921 08:21:56.610676 2063708928 layer_factory.hpp:76] Creating layer inception_4c/output
I0921 08:21:56.610680 2063708928 net.cpp:110] Creating Layer inception_4c/output
I0921 08:21:56.610683 2063708928 net.cpp:477] inception_4c/output <- inception_4c/1x1
I0921 08:21:56.610688 2063708928 net.cpp:477] inception_4c/output <- inception_4c/3x3
I0921 08:21:56.610692 2063708928 net.cpp:477] inception_4c/output <- inception_4c/5x5
I0921 08:21:56.610697 2063708928 net.cpp:477] inception_4c/output <- inception_4c/pool_proj
I0921 08:21:56.610702 2063708928 net.cpp:433] inception_4c/output -> inception_4c/output
I0921 08:21:56.610707 2063708928 net.cpp:155] Setting up inception_4c/output
I0921 08:21:56.610712 2063708928 net.cpp:163] Top shape: 10 512 14 14 (1003520)
I0921 08:21:56.610716 2063708928 layer_factory.hpp:76] Creating layer inception_4c/output_inception_4c/output_0_split
I0921 08:21:56.610723 2063708928 net.cpp:110] Creating Layer inception_4c/output_inception_4c/output_0_split
I0921 08:21:56.610726 2063708928 net.cpp:477] inception_4c/output_inception_4c/output_0_split <- inception_4c/output
I0921 08:21:56.610731 2063708928 net.cpp:433] inception_4c/output_inception_4c/output_0_split -> inception_4c/output_inception_4c/output_0_split_0
I0921 08:21:56.610740 2063708928 net.cpp:433] inception_4c/output_inception_4c/output_0_split -> inception_4c/output_inception_4c/output_0_split_1
I0921 08:21:56.610749 2063708928 net.cpp:433] inception_4c/output_inception_4c/output_0_split -> inception_4c/output_inception_4c/output_0_split_2
I0921 08:21:56.610756 2063708928 net.cpp:433] inception_4c/output_inception_4c/output_0_split -> inception_4c/output_inception_4c/output_0_split_3
I0921 08:21:56.610764 2063708928 net.cpp:155] Setting up inception_4c/output_inception_4c/output_0_split
I0921 08:21:56.610767 2063708928 net.cpp:163] Top shape: 10 512 14 14 (1003520)
I0921 08:21:56.610771 2063708928 net.cpp:163] Top shape: 10 512 14 14 (1003520)
I0921 08:21:56.610775 2063708928 net.cpp:163] Top shape: 10 512 14 14 (1003520)
I0921 08:21:56.610780 2063708928 net.cpp:163] Top shape: 10 512 14 14 (1003520)
I0921 08:21:56.610785 2063708928 layer_factory.hpp:76] Creating layer inception_4d/1x1
I0921 08:21:56.610790 2063708928 net.cpp:110] Creating Layer inception_4d/1x1
I0921 08:21:56.610795 2063708928 net.cpp:477] inception_4d/1x1 <- inception_4c/output_inception_4c/output_0_split_0
I0921 08:21:56.610800 2063708928 net.cpp:433] inception_4d/1x1 -> inception_4d/1x1
I0921 08:21:56.611251 2063708928 net.cpp:155] Setting up inception_4d/1x1
I0921 08:21:56.611258 2063708928 net.cpp:163] Top shape: 10 112 14 14 (219520)
I0921 08:21:56.611263 2063708928 layer_factory.hpp:76] Creating layer inception_4d/relu_1x1
I0921 08:21:56.611268 2063708928 net.cpp:110] Creating Layer inception_4d/relu_1x1
I0921 08:21:56.611273 2063708928 net.cpp:477] inception_4d/relu_1x1 <- inception_4d/1x1
I0921 08:21:56.611277 2063708928 net.cpp:419] inception_4d/relu_1x1 -> inception_4d/1x1 (in-place)
I0921 08:21:56.611284 2063708928 net.cpp:155] Setting up inception_4d/relu_1x1
I0921 08:21:56.611286 2063708928 net.cpp:163] Top shape: 10 112 14 14 (219520)
I0921 08:21:56.611291 2063708928 layer_factory.hpp:76] Creating layer inception_4d/3x3_reduce
I0921 08:21:56.611297 2063708928 net.cpp:110] Creating Layer inception_4d/3x3_reduce
I0921 08:21:56.611305 2063708928 net.cpp:477] inception_4d/3x3_reduce <- inception_4c/output_inception_4c/output_0_split_1
I0921 08:21:56.611315 2063708928 net.cpp:433] inception_4d/3x3_reduce -> inception_4d/3x3_reduce
I0921 08:21:56.611882 2063708928 net.cpp:155] Setting up inception_4d/3x3_reduce
I0921 08:21:56.611888 2063708928 net.cpp:163] Top shape: 10 144 14 14 (282240)
I0921 08:21:56.611894 2063708928 layer_factory.hpp:76] Creating layer inception_4d/relu_3x3_reduce
I0921 08:21:56.611901 2063708928 net.cpp:110] Creating Layer inception_4d/relu_3x3_reduce
I0921 08:21:56.611904 2063708928 net.cpp:477] inception_4d/relu_3x3_reduce <- inception_4d/3x3_reduce
I0921 08:21:56.611923 2063708928 net.cpp:419] inception_4d/relu_3x3_reduce -> inception_4d/3x3_reduce (in-place)
I0921 08:21:56.611930 2063708928 net.cpp:155] Setting up inception_4d/relu_3x3_reduce
I0921 08:21:56.611933 2063708928 net.cpp:163] Top shape: 10 144 14 14 (282240)
I0921 08:21:56.611938 2063708928 layer_factory.hpp:76] Creating layer inception_4d/3x3
I0921 08:21:56.611944 2063708928 net.cpp:110] Creating Layer inception_4d/3x3
I0921 08:21:56.611948 2063708928 net.cpp:477] inception_4d/3x3 <- inception_4d/3x3_reduce
I0921 08:21:56.611953 2063708928 net.cpp:433] inception_4d/3x3 -> inception_4d/3x3
I0921 08:21:56.614532 2063708928 net.cpp:155] Setting up inception_4d/3x3
I0921 08:21:56.614542 2063708928 net.cpp:163] Top shape: 10 288 14 14 (564480)
I0921 08:21:56.614548 2063708928 layer_factory.hpp:76] Creating layer inception_4d/relu_3x3
I0921 08:21:56.614557 2063708928 net.cpp:110] Creating Layer inception_4d/relu_3x3
I0921 08:21:56.614560 2063708928 net.cpp:477] inception_4d/relu_3x3 <- inception_4d/3x3
I0921 08:21:56.614565 2063708928 net.cpp:419] inception_4d/relu_3x3 -> inception_4d/3x3 (in-place)
I0921 08:21:56.614572 2063708928 net.cpp:155] Setting up inception_4d/relu_3x3
I0921 08:21:56.614574 2063708928 net.cpp:163] Top shape: 10 288 14 14 (564480)
I0921 08:21:56.614579 2063708928 layer_factory.hpp:76] Creating layer inception_4d/5x5_reduce
I0921 08:21:56.614586 2063708928 net.cpp:110] Creating Layer inception_4d/5x5_reduce
I0921 08:21:56.614589 2063708928 net.cpp:477] inception_4d/5x5_reduce <- inception_4c/output_inception_4c/output_0_split_2
I0921 08:21:56.614595 2063708928 net.cpp:433] inception_4d/5x5_reduce -> inception_4d/5x5_reduce
I0921 08:21:56.614734 2063708928 net.cpp:155] Setting up inception_4d/5x5_reduce
I0921 08:21:56.614739 2063708928 net.cpp:163] Top shape: 10 32 14 14 (62720)
I0921 08:21:56.614745 2063708928 layer_factory.hpp:76] Creating layer inception_4d/relu_5x5_reduce
I0921 08:21:56.614750 2063708928 net.cpp:110] Creating Layer inception_4d/relu_5x5_reduce
I0921 08:21:56.614754 2063708928 net.cpp:477] inception_4d/relu_5x5_reduce <- inception_4d/5x5_reduce
I0921 08:21:56.614759 2063708928 net.cpp:419] inception_4d/relu_5x5_reduce -> inception_4d/5x5_reduce (in-place)
I0921 08:21:56.614765 2063708928 net.cpp:155] Setting up inception_4d/relu_5x5_reduce
I0921 08:21:56.614769 2063708928 net.cpp:163] Top shape: 10 32 14 14 (62720)
I0921 08:21:56.614773 2063708928 layer_factory.hpp:76] Creating layer inception_4d/5x5
I0921 08:21:56.614779 2063708928 net.cpp:110] Creating Layer inception_4d/5x5
I0921 08:21:56.614784 2063708928 net.cpp:477] inception_4d/5x5 <- inception_4d/5x5_reduce
I0921 08:21:56.614790 2063708928 net.cpp:433] inception_4d/5x5 -> inception_4d/5x5
I0921 08:21:56.615195 2063708928 net.cpp:155] Setting up inception_4d/5x5
I0921 08:21:56.615201 2063708928 net.cpp:163] Top shape: 10 64 14 14 (125440)
I0921 08:21:56.615208 2063708928 layer_factory.hpp:76] Creating layer inception_4d/relu_5x5
I0921 08:21:56.615213 2063708928 net.cpp:110] Creating Layer inception_4d/relu_5x5
I0921 08:21:56.615217 2063708928 net.cpp:477] inception_4d/relu_5x5 <- inception_4d/5x5
I0921 08:21:56.615221 2063708928 net.cpp:419] inception_4d/relu_5x5 -> inception_4d/5x5 (in-place)
I0921 08:21:56.615227 2063708928 net.cpp:155] Setting up inception_4d/relu_5x5
I0921 08:21:56.615231 2063708928 net.cpp:163] Top shape: 10 64 14 14 (125440)
I0921 08:21:56.615242 2063708928 layer_factory.hpp:76] Creating layer inception_4d/pool
I0921 08:21:56.615249 2063708928 net.cpp:110] Creating Layer inception_4d/pool
I0921 08:21:56.615253 2063708928 net.cpp:477] inception_4d/pool <- inception_4c/output_inception_4c/output_0_split_3
I0921 08:21:56.615259 2063708928 net.cpp:433] inception_4d/pool -> inception_4d/pool
I0921 08:21:56.615267 2063708928 net.cpp:155] Setting up inception_4d/pool
I0921 08:21:56.615270 2063708928 net.cpp:163] Top shape: 10 512 14 14 (1003520)
I0921 08:21:56.615274 2063708928 layer_factory.hpp:76] Creating layer inception_4d/pool_proj
I0921 08:21:56.615280 2063708928 net.cpp:110] Creating Layer inception_4d/pool_proj
I0921 08:21:56.615284 2063708928 net.cpp:477] inception_4d/pool_proj <- inception_4d/pool
I0921 08:21:56.615290 2063708928 net.cpp:433] inception_4d/pool_proj -> inception_4d/pool_proj
I0921 08:21:56.615564 2063708928 net.cpp:155] Setting up inception_4d/pool_proj
I0921 08:21:56.615571 2063708928 net.cpp:163] Top shape: 10 64 14 14 (125440)
I0921 08:21:56.615576 2063708928 layer_factory.hpp:76] Creating layer inception_4d/relu_pool_proj
I0921 08:21:56.615581 2063708928 net.cpp:110] Creating Layer inception_4d/relu_pool_proj
I0921 08:21:56.615586 2063708928 net.cpp:477] inception_4d/relu_pool_proj <- inception_4d/pool_proj
I0921 08:21:56.615591 2063708928 net.cpp:419] inception_4d/relu_pool_proj -> inception_4d/pool_proj (in-place)
I0921 08:21:56.615595 2063708928 net.cpp:155] Setting up inception_4d/relu_pool_proj
I0921 08:21:56.615599 2063708928 net.cpp:163] Top shape: 10 64 14 14 (125440)
I0921 08:21:56.615603 2063708928 layer_factory.hpp:76] Creating layer inception_4d/output
I0921 08:21:56.615609 2063708928 net.cpp:110] Creating Layer inception_4d/output
I0921 08:21:56.615612 2063708928 net.cpp:477] inception_4d/output <- inception_4d/1x1
I0921 08:21:56.615617 2063708928 net.cpp:477] inception_4d/output <- inception_4d/3x3
I0921 08:21:56.615622 2063708928 net.cpp:477] inception_4d/output <- inception_4d/5x5
I0921 08:21:56.615625 2063708928 net.cpp:477] inception_4d/output <- inception_4d/pool_proj
I0921 08:21:56.615629 2063708928 net.cpp:433] inception_4d/output -> inception_4d/output
I0921 08:21:56.615636 2063708928 net.cpp:155] Setting up inception_4d/output
I0921 08:21:56.615640 2063708928 net.cpp:163] Top shape: 10 528 14 14 (1034880)
I0921 08:21:56.615644 2063708928 layer_factory.hpp:76] Creating layer inception_4d/output_inception_4d/output_0_split
I0921 08:21:56.615653 2063708928 net.cpp:110] Creating Layer inception_4d/output_inception_4d/output_0_split
I0921 08:21:56.615658 2063708928 net.cpp:477] inception_4d/output_inception_4d/output_0_split <- inception_4d/output
I0921 08:21:56.615664 2063708928 net.cpp:433] inception_4d/output_inception_4d/output_0_split -> inception_4d/output_inception_4d/output_0_split_0
I0921 08:21:56.615670 2063708928 net.cpp:433] inception_4d/output_inception_4d/output_0_split -> inception_4d/output_inception_4d/output_0_split_1
I0921 08:21:56.615679 2063708928 net.cpp:433] inception_4d/output_inception_4d/output_0_split -> inception_4d/output_inception_4d/output_0_split_2
I0921 08:21:56.615685 2063708928 net.cpp:433] inception_4d/output_inception_4d/output_0_split -> inception_4d/output_inception_4d/output_0_split_3
I0921 08:21:56.615692 2063708928 net.cpp:155] Setting up inception_4d/output_inception_4d/output_0_split
I0921 08:21:56.615696 2063708928 net.cpp:163] Top shape: 10 528 14 14 (1034880)
I0921 08:21:56.615700 2063708928 net.cpp:163] Top shape: 10 528 14 14 (1034880)
I0921 08:21:56.615705 2063708928 net.cpp:163] Top shape: 10 528 14 14 (1034880)
I0921 08:21:56.615710 2063708928 net.cpp:163] Top shape: 10 528 14 14 (1034880)
I0921 08:21:56.615713 2063708928 layer_factory.hpp:76] Creating layer inception_4e/1x1
I0921 08:21:56.615721 2063708928 net.cpp:110] Creating Layer inception_4e/1x1
I0921 08:21:56.615726 2063708928 net.cpp:477] inception_4e/1x1 <- inception_4d/output_inception_4d/output_0_split_0
I0921 08:21:56.615731 2063708928 net.cpp:433] inception_4e/1x1 -> inception_4e/1x1
I0921 08:21:56.616761 2063708928 net.cpp:155] Setting up inception_4e/1x1
I0921 08:21:56.616768 2063708928 net.cpp:163] Top shape: 10 256 14 14 (501760)
I0921 08:21:56.616775 2063708928 layer_factory.hpp:76] Creating layer inception_4e/relu_1x1
I0921 08:21:56.616780 2063708928 net.cpp:110] Creating Layer inception_4e/relu_1x1
I0921 08:21:56.616785 2063708928 net.cpp:477] inception_4e/relu_1x1 <- inception_4e/1x1
I0921 08:21:56.616791 2063708928 net.cpp:419] inception_4e/relu_1x1 -> inception_4e/1x1 (in-place)
I0921 08:21:56.616797 2063708928 net.cpp:155] Setting up inception_4e/relu_1x1
I0921 08:21:56.616801 2063708928 net.cpp:163] Top shape: 10 256 14 14 (501760)
I0921 08:21:56.616806 2063708928 layer_factory.hpp:76] Creating layer inception_4e/3x3_reduce
I0921 08:21:56.616812 2063708928 net.cpp:110] Creating Layer inception_4e/3x3_reduce
I0921 08:21:56.616816 2063708928 net.cpp:477] inception_4e/3x3_reduce <- inception_4d/output_inception_4d/output_0_split_1
I0921 08:21:56.616822 2063708928 net.cpp:433] inception_4e/3x3_reduce -> inception_4e/3x3_reduce
I0921 08:21:56.617480 2063708928 net.cpp:155] Setting up inception_4e/3x3_reduce
I0921 08:21:56.617487 2063708928 net.cpp:163] Top shape: 10 160 14 14 (313600)
I0921 08:21:56.617493 2063708928 layer_factory.hpp:76] Creating layer inception_4e/relu_3x3_reduce
I0921 08:21:56.617499 2063708928 net.cpp:110] Creating Layer inception_4e/relu_3x3_reduce
I0921 08:21:56.617503 2063708928 net.cpp:477] inception_4e/relu_3x3_reduce <- inception_4e/3x3_reduce
I0921 08:21:56.617508 2063708928 net.cpp:419] inception_4e/relu_3x3_reduce -> inception_4e/3x3_reduce (in-place)
I0921 08:21:56.617514 2063708928 net.cpp:155] Setting up inception_4e/relu_3x3_reduce
I0921 08:21:56.617517 2063708928 net.cpp:163] Top shape: 10 160 14 14 (313600)
I0921 08:21:56.617522 2063708928 layer_factory.hpp:76] Creating layer inception_4e/3x3
I0921 08:21:56.617528 2063708928 net.cpp:110] Creating Layer inception_4e/3x3
I0921 08:21:56.617532 2063708928 net.cpp:477] inception_4e/3x3 <- inception_4e/3x3_reduce
I0921 08:21:56.617539 2063708928 net.cpp:433] inception_4e/3x3 -> inception_4e/3x3
I0921 08:21:56.620697 2063708928 net.cpp:155] Setting up inception_4e/3x3
I0921 08:21:56.620704 2063708928 net.cpp:163] Top shape: 10 320 14 14 (627200)
I0921 08:21:56.620712 2063708928 layer_factory.hpp:76] Creating layer inception_4e/relu_3x3
I0921 08:21:56.620717 2063708928 net.cpp:110] Creating Layer inception_4e/relu_3x3
I0921 08:21:56.620720 2063708928 net.cpp:477] inception_4e/relu_3x3 <- inception_4e/3x3
I0921 08:21:56.620725 2063708928 net.cpp:419] inception_4e/relu_3x3 -> inception_4e/3x3 (in-place)
I0921 08:21:56.620730 2063708928 net.cpp:155] Setting up inception_4e/relu_3x3
I0921 08:21:56.620734 2063708928 net.cpp:163] Top shape: 10 320 14 14 (627200)
I0921 08:21:56.620739 2063708928 layer_factory.hpp:76] Creating layer inception_4e/5x5_reduce
I0921 08:21:56.620748 2063708928 net.cpp:110] Creating Layer inception_4e/5x5_reduce
I0921 08:21:56.620753 2063708928 net.cpp:477] inception_4e/5x5_reduce <- inception_4d/output_inception_4d/output_0_split_2
I0921 08:21:56.620759 2063708928 net.cpp:433] inception_4e/5x5_reduce -> inception_4e/5x5_reduce
I0921 08:21:56.620900 2063708928 net.cpp:155] Setting up inception_4e/5x5_reduce
I0921 08:21:56.620905 2063708928 net.cpp:163] Top shape: 10 32 14 14 (62720)
I0921 08:21:56.620911 2063708928 layer_factory.hpp:76] Creating layer inception_4e/relu_5x5_reduce
I0921 08:21:56.620918 2063708928 net.cpp:110] Creating Layer inception_4e/relu_5x5_reduce
I0921 08:21:56.620921 2063708928 net.cpp:477] inception_4e/relu_5x5_reduce <- inception_4e/5x5_reduce
I0921 08:21:56.620929 2063708928 net.cpp:419] inception_4e/relu_5x5_reduce -> inception_4e/5x5_reduce (in-place)
I0921 08:21:56.620934 2063708928 net.cpp:155] Setting up inception_4e/relu_5x5_reduce
I0921 08:21:56.620939 2063708928 net.cpp:163] Top shape: 10 32 14 14 (62720)
I0921 08:21:56.620942 2063708928 layer_factory.hpp:76] Creating layer inception_4e/5x5
I0921 08:21:56.620949 2063708928 net.cpp:110] Creating Layer inception_4e/5x5
I0921 08:21:56.620959 2063708928 net.cpp:477] inception_4e/5x5 <- inception_4e/5x5_reduce
I0921 08:21:56.620965 2063708928 net.cpp:433] inception_4e/5x5 -> inception_4e/5x5
I0921 08:21:56.621757 2063708928 net.cpp:155] Setting up inception_4e/5x5
I0921 08:21:56.621763 2063708928 net.cpp:163] Top shape: 10 128 14 14 (250880)
I0921 08:21:56.621769 2063708928 layer_factory.hpp:76] Creating layer inception_4e/relu_5x5
I0921 08:21:56.621778 2063708928 net.cpp:110] Creating Layer inception_4e/relu_5x5
I0921 08:21:56.621781 2063708928 net.cpp:477] inception_4e/relu_5x5 <- inception_4e/5x5
I0921 08:21:56.621786 2063708928 net.cpp:419] inception_4e/relu_5x5 -> inception_4e/5x5 (in-place)
I0921 08:21:56.621791 2063708928 net.cpp:155] Setting up inception_4e/relu_5x5
I0921 08:21:56.621795 2063708928 net.cpp:163] Top shape: 10 128 14 14 (250880)
I0921 08:21:56.621800 2063708928 layer_factory.hpp:76] Creating layer inception_4e/pool
I0921 08:21:56.621805 2063708928 net.cpp:110] Creating Layer inception_4e/pool
I0921 08:21:56.621809 2063708928 net.cpp:477] inception_4e/pool <- inception_4d/output_inception_4d/output_0_split_3
I0921 08:21:56.621814 2063708928 net.cpp:433] inception_4e/pool -> inception_4e/pool
I0921 08:21:56.621822 2063708928 net.cpp:155] Setting up inception_4e/pool
I0921 08:21:56.621825 2063708928 net.cpp:163] Top shape: 10 528 14 14 (1034880)
I0921 08:21:56.621830 2063708928 layer_factory.hpp:76] Creating layer inception_4e/pool_proj
I0921 08:21:56.621837 2063708928 net.cpp:110] Creating Layer inception_4e/pool_proj
I0921 08:21:56.621842 2063708928 net.cpp:477] inception_4e/pool_proj <- inception_4e/pool
I0921 08:21:56.621847 2063708928 net.cpp:433] inception_4e/pool_proj -> inception_4e/pool_proj
I0921 08:21:56.622397 2063708928 net.cpp:155] Setting up inception_4e/pool_proj
I0921 08:21:56.622405 2063708928 net.cpp:163] Top shape: 10 128 14 14 (250880)
I0921 08:21:56.622411 2063708928 layer_factory.hpp:76] Creating layer inception_4e/relu_pool_proj
I0921 08:21:56.622416 2063708928 net.cpp:110] Creating Layer inception_4e/relu_pool_proj
I0921 08:21:56.622419 2063708928 net.cpp:477] inception_4e/relu_pool_proj <- inception_4e/pool_proj
I0921 08:21:56.622426 2063708928 net.cpp:419] inception_4e/relu_pool_proj -> inception_4e/pool_proj (in-place)
I0921 08:21:56.622432 2063708928 net.cpp:155] Setting up inception_4e/relu_pool_proj
I0921 08:21:56.622437 2063708928 net.cpp:163] Top shape: 10 128 14 14 (250880)
I0921 08:21:56.622442 2063708928 layer_factory.hpp:76] Creating layer inception_4e/output
I0921 08:21:56.622447 2063708928 net.cpp:110] Creating Layer inception_4e/output
I0921 08:21:56.622450 2063708928 net.cpp:477] inception_4e/output <- inception_4e/1x1
I0921 08:21:56.622454 2063708928 net.cpp:477] inception_4e/output <- inception_4e/3x3
I0921 08:21:56.622458 2063708928 net.cpp:477] inception_4e/output <- inception_4e/5x5
I0921 08:21:56.622462 2063708928 net.cpp:477] inception_4e/output <- inception_4e/pool_proj
I0921 08:21:56.622467 2063708928 net.cpp:433] inception_4e/output -> inception_4e/output
I0921 08:21:56.622473 2063708928 net.cpp:155] Setting up inception_4e/output
I0921 08:21:56.622478 2063708928 net.cpp:163] Top shape: 10 832 14 14 (1630720)
I0921 08:21:56.622481 2063708928 layer_factory.hpp:76] Creating layer pool4/3x3_s2
I0921 08:21:56.622486 2063708928 net.cpp:110] Creating Layer pool4/3x3_s2
I0921 08:21:56.622490 2063708928 net.cpp:477] pool4/3x3_s2 <- inception_4e/output
I0921 08:21:56.622495 2063708928 net.cpp:433] pool4/3x3_s2 -> pool4/3x3_s2
I0921 08:21:56.622503 2063708928 net.cpp:155] Setting up pool4/3x3_s2
I0921 08:21:56.622505 2063708928 net.cpp:163] Top shape: 10 832 7 7 (407680)
I0921 08:21:56.622510 2063708928 layer_factory.hpp:76] Creating layer pool4/3x3_s2_pool4/3x3_s2_0_split
I0921 08:21:56.622519 2063708928 net.cpp:110] Creating Layer pool4/3x3_s2_pool4/3x3_s2_0_split
I0921 08:21:56.622522 2063708928 net.cpp:477] pool4/3x3_s2_pool4/3x3_s2_0_split <- pool4/3x3_s2
I0921 08:21:56.622529 2063708928 net.cpp:433] pool4/3x3_s2_pool4/3x3_s2_0_split -> pool4/3x3_s2_pool4/3x3_s2_0_split_0
I0921 08:21:56.622540 2063708928 net.cpp:433] pool4/3x3_s2_pool4/3x3_s2_0_split -> pool4/3x3_s2_pool4/3x3_s2_0_split_1
I0921 08:21:56.622548 2063708928 net.cpp:433] pool4/3x3_s2_pool4/3x3_s2_0_split -> pool4/3x3_s2_pool4/3x3_s2_0_split_2
I0921 08:21:56.622555 2063708928 net.cpp:433] pool4/3x3_s2_pool4/3x3_s2_0_split -> pool4/3x3_s2_pool4/3x3_s2_0_split_3
I0921 08:21:56.622563 2063708928 net.cpp:155] Setting up pool4/3x3_s2_pool4/3x3_s2_0_split
I0921 08:21:56.622570 2063708928 net.cpp:163] Top shape: 10 832 7 7 (407680)
I0921 08:21:56.622575 2063708928 net.cpp:163] Top shape: 10 832 7 7 (407680)
I0921 08:21:56.622578 2063708928 net.cpp:163] Top shape: 10 832 7 7 (407680)
I0921 08:21:56.622583 2063708928 net.cpp:163] Top shape: 10 832 7 7 (407680)
I0921 08:21:56.622588 2063708928 layer_factory.hpp:76] Creating layer inception_5a/1x1
I0921 08:21:56.622596 2063708928 net.cpp:110] Creating Layer inception_5a/1x1
I0921 08:21:56.622601 2063708928 net.cpp:477] inception_5a/1x1 <- pool4/3x3_s2_pool4/3x3_s2_0_split_0
I0921 08:21:56.622606 2063708928 net.cpp:433] inception_5a/1x1 -> inception_5a/1x1
I0921 08:21:56.624212 2063708928 net.cpp:155] Setting up inception_5a/1x1
I0921 08:21:56.624219 2063708928 net.cpp:163] Top shape: 10 256 7 7 (125440)
I0921 08:21:56.624227 2063708928 layer_factory.hpp:76] Creating layer inception_5a/relu_1x1
I0921 08:21:56.624232 2063708928 net.cpp:110] Creating Layer inception_5a/relu_1x1
I0921 08:21:56.624235 2063708928 net.cpp:477] inception_5a/relu_1x1 <- inception_5a/1x1
I0921 08:21:56.624240 2063708928 net.cpp:419] inception_5a/relu_1x1 -> inception_5a/1x1 (in-place)
I0921 08:21:56.624245 2063708928 net.cpp:155] Setting up inception_5a/relu_1x1
I0921 08:21:56.624249 2063708928 net.cpp:163] Top shape: 10 256 7 7 (125440)
I0921 08:21:56.624254 2063708928 layer_factory.hpp:76] Creating layer inception_5a/3x3_reduce
I0921 08:21:56.624263 2063708928 net.cpp:110] Creating Layer inception_5a/3x3_reduce
I0921 08:21:56.624267 2063708928 net.cpp:477] inception_5a/3x3_reduce <- pool4/3x3_s2_pool4/3x3_s2_0_split_1
I0921 08:21:56.624274 2063708928 net.cpp:433] inception_5a/3x3_reduce -> inception_5a/3x3_reduce
I0921 08:21:56.625295 2063708928 net.cpp:155] Setting up inception_5a/3x3_reduce
I0921 08:21:56.625303 2063708928 net.cpp:163] Top shape: 10 160 7 7 (78400)
I0921 08:21:56.625308 2063708928 layer_factory.hpp:76] Creating layer inception_5a/relu_3x3_reduce
I0921 08:21:56.625316 2063708928 net.cpp:110] Creating Layer inception_5a/relu_3x3_reduce
I0921 08:21:56.625320 2063708928 net.cpp:477] inception_5a/relu_3x3_reduce <- inception_5a/3x3_reduce
I0921 08:21:56.625325 2063708928 net.cpp:419] inception_5a/relu_3x3_reduce -> inception_5a/3x3_reduce (in-place)
I0921 08:21:56.625331 2063708928 net.cpp:155] Setting up inception_5a/relu_3x3_reduce
I0921 08:21:56.625335 2063708928 net.cpp:163] Top shape: 10 160 7 7 (78400)
I0921 08:21:56.625339 2063708928 layer_factory.hpp:76] Creating layer inception_5a/3x3
I0921 08:21:56.625346 2063708928 net.cpp:110] Creating Layer inception_5a/3x3
I0921 08:21:56.625350 2063708928 net.cpp:477] inception_5a/3x3 <- inception_5a/3x3_reduce
I0921 08:21:56.625355 2063708928 net.cpp:433] inception_5a/3x3 -> inception_5a/3x3
I0921 08:21:56.628841 2063708928 net.cpp:155] Setting up inception_5a/3x3
I0921 08:21:56.628850 2063708928 net.cpp:163] Top shape: 10 320 7 7 (156800)
I0921 08:21:56.628856 2063708928 layer_factory.hpp:76] Creating layer inception_5a/relu_3x3
I0921 08:21:56.628865 2063708928 net.cpp:110] Creating Layer inception_5a/relu_3x3
I0921 08:21:56.628868 2063708928 net.cpp:477] inception_5a/relu_3x3 <- inception_5a/3x3
I0921 08:21:56.628873 2063708928 net.cpp:419] inception_5a/relu_3x3 -> inception_5a/3x3 (in-place)
I0921 08:21:56.628880 2063708928 net.cpp:155] Setting up inception_5a/relu_3x3
I0921 08:21:56.628882 2063708928 net.cpp:163] Top shape: 10 320 7 7 (156800)
I0921 08:21:56.628887 2063708928 layer_factory.hpp:76] Creating layer inception_5a/5x5_reduce
I0921 08:21:56.628893 2063708928 net.cpp:110] Creating Layer inception_5a/5x5_reduce
I0921 08:21:56.628904 2063708928 net.cpp:477] inception_5a/5x5_reduce <- pool4/3x3_s2_pool4/3x3_s2_0_split_2
I0921 08:21:56.628911 2063708928 net.cpp:433] inception_5a/5x5_reduce -> inception_5a/5x5_reduce
I0921 08:21:56.629127 2063708928 net.cpp:155] Setting up inception_5a/5x5_reduce
I0921 08:21:56.629132 2063708928 net.cpp:163] Top shape: 10 32 7 7 (15680)
I0921 08:21:56.629138 2063708928 layer_factory.hpp:76] Creating layer inception_5a/relu_5x5_reduce
I0921 08:21:56.629145 2063708928 net.cpp:110] Creating Layer inception_5a/relu_5x5_reduce
I0921 08:21:56.629150 2063708928 net.cpp:477] inception_5a/relu_5x5_reduce <- inception_5a/5x5_reduce
I0921 08:21:56.629155 2063708928 net.cpp:419] inception_5a/relu_5x5_reduce -> inception_5a/5x5_reduce (in-place)
I0921 08:21:56.629161 2063708928 net.cpp:155] Setting up inception_5a/relu_5x5_reduce
I0921 08:21:56.629164 2063708928 net.cpp:163] Top shape: 10 32 7 7 (15680)
I0921 08:21:56.629169 2063708928 layer_factory.hpp:76] Creating layer inception_5a/5x5
I0921 08:21:56.629175 2063708928 net.cpp:110] Creating Layer inception_5a/5x5
I0921 08:21:56.629179 2063708928 net.cpp:477] inception_5a/5x5 <- inception_5a/5x5_reduce
I0921 08:21:56.629184 2063708928 net.cpp:433] inception_5a/5x5 -> inception_5a/5x5
I0921 08:21:56.630014 2063708928 net.cpp:155] Setting up inception_5a/5x5
I0921 08:21:56.630022 2063708928 net.cpp:163] Top shape: 10 128 7 7 (62720)
I0921 08:21:56.630028 2063708928 layer_factory.hpp:76] Creating layer inception_5a/relu_5x5
I0921 08:21:56.630033 2063708928 net.cpp:110] Creating Layer inception_5a/relu_5x5
I0921 08:21:56.630036 2063708928 net.cpp:477] inception_5a/relu_5x5 <- inception_5a/5x5
I0921 08:21:56.630041 2063708928 net.cpp:419] inception_5a/relu_5x5 -> inception_5a/5x5 (in-place)
I0921 08:21:56.630046 2063708928 net.cpp:155] Setting up inception_5a/relu_5x5
I0921 08:21:56.630050 2063708928 net.cpp:163] Top shape: 10 128 7 7 (62720)
I0921 08:21:56.630055 2063708928 layer_factory.hpp:76] Creating layer inception_5a/pool
I0921 08:21:56.630080 2063708928 net.cpp:110] Creating Layer inception_5a/pool
I0921 08:21:56.630085 2063708928 net.cpp:477] inception_5a/pool <- pool4/3x3_s2_pool4/3x3_s2_0_split_3
I0921 08:21:56.630091 2063708928 net.cpp:433] inception_5a/pool -> inception_5a/pool
I0921 08:21:56.630098 2063708928 net.cpp:155] Setting up inception_5a/pool
I0921 08:21:56.630102 2063708928 net.cpp:163] Top shape: 10 832 7 7 (407680)
I0921 08:21:56.630107 2063708928 layer_factory.hpp:76] Creating layer inception_5a/pool_proj
I0921 08:21:56.630113 2063708928 net.cpp:110] Creating Layer inception_5a/pool_proj
I0921 08:21:56.630117 2063708928 net.cpp:477] inception_5a/pool_proj <- inception_5a/pool
I0921 08:21:56.630123 2063708928 net.cpp:433] inception_5a/pool_proj -> inception_5a/pool_proj
I0921 08:21:56.630946 2063708928 net.cpp:155] Setting up inception_5a/pool_proj
I0921 08:21:56.630954 2063708928 net.cpp:163] Top shape: 10 128 7 7 (62720)
I0921 08:21:56.630959 2063708928 layer_factory.hpp:76] Creating layer inception_5a/relu_pool_proj
I0921 08:21:56.630967 2063708928 net.cpp:110] Creating Layer inception_5a/relu_pool_proj
I0921 08:21:56.630971 2063708928 net.cpp:477] inception_5a/relu_pool_proj <- inception_5a/pool_proj
I0921 08:21:56.630976 2063708928 net.cpp:419] inception_5a/relu_pool_proj -> inception_5a/pool_proj (in-place)
I0921 08:21:56.630982 2063708928 net.cpp:155] Setting up inception_5a/relu_pool_proj
I0921 08:21:56.630986 2063708928 net.cpp:163] Top shape: 10 128 7 7 (62720)
I0921 08:21:56.630990 2063708928 layer_factory.hpp:76] Creating layer inception_5a/output
I0921 08:21:56.630996 2063708928 net.cpp:110] Creating Layer inception_5a/output
I0921 08:21:56.631000 2063708928 net.cpp:477] inception_5a/output <- inception_5a/1x1
I0921 08:21:56.631005 2063708928 net.cpp:477] inception_5a/output <- inception_5a/3x3
I0921 08:21:56.631008 2063708928 net.cpp:477] inception_5a/output <- inception_5a/5x5
I0921 08:21:56.631012 2063708928 net.cpp:477] inception_5a/output <- inception_5a/pool_proj
I0921 08:21:56.631017 2063708928 net.cpp:433] inception_5a/output -> inception_5a/output
I0921 08:21:56.631031 2063708928 net.cpp:155] Setting up inception_5a/output
I0921 08:21:56.631036 2063708928 net.cpp:163] Top shape: 10 832 7 7 (407680)
I0921 08:21:56.631041 2063708928 layer_factory.hpp:76] Creating layer inception_5a/output_inception_5a/output_0_split
I0921 08:21:56.631047 2063708928 net.cpp:110] Creating Layer inception_5a/output_inception_5a/output_0_split
I0921 08:21:56.631050 2063708928 net.cpp:477] inception_5a/output_inception_5a/output_0_split <- inception_5a/output
I0921 08:21:56.631057 2063708928 net.cpp:433] inception_5a/output_inception_5a/output_0_split -> inception_5a/output_inception_5a/output_0_split_0
I0921 08:21:56.631067 2063708928 net.cpp:433] inception_5a/output_inception_5a/output_0_split -> inception_5a/output_inception_5a/output_0_split_1
I0921 08:21:56.631073 2063708928 net.cpp:433] inception_5a/output_inception_5a/output_0_split -> inception_5a/output_inception_5a/output_0_split_2
I0921 08:21:56.631081 2063708928 net.cpp:433] inception_5a/output_inception_5a/output_0_split -> inception_5a/output_inception_5a/output_0_split_3
I0921 08:21:56.631088 2063708928 net.cpp:155] Setting up inception_5a/output_inception_5a/output_0_split
I0921 08:21:56.631093 2063708928 net.cpp:163] Top shape: 10 832 7 7 (407680)
I0921 08:21:56.631096 2063708928 net.cpp:163] Top shape: 10 832 7 7 (407680)
I0921 08:21:56.631101 2063708928 net.cpp:163] Top shape: 10 832 7 7 (407680)
I0921 08:21:56.631105 2063708928 net.cpp:163] Top shape: 10 832 7 7 (407680)
I0921 08:21:56.631110 2063708928 layer_factory.hpp:76] Creating layer inception_5b/1x1
I0921 08:21:56.631116 2063708928 net.cpp:110] Creating Layer inception_5b/1x1
I0921 08:21:56.631120 2063708928 net.cpp:477] inception_5b/1x1 <- inception_5a/output_inception_5a/output_0_split_0
I0921 08:21:56.631127 2063708928 net.cpp:433] inception_5b/1x1 -> inception_5b/1x1
I0921 08:21:56.633517 2063708928 net.cpp:155] Setting up inception_5b/1x1
I0921 08:21:56.633523 2063708928 net.cpp:163] Top shape: 10 384 7 7 (188160)
I0921 08:21:56.633529 2063708928 layer_factory.hpp:76] Creating layer inception_5b/relu_1x1
I0921 08:21:56.633535 2063708928 net.cpp:110] Creating Layer inception_5b/relu_1x1
I0921 08:21:56.633539 2063708928 net.cpp:477] inception_5b/relu_1x1 <- inception_5b/1x1
I0921 08:21:56.633544 2063708928 net.cpp:419] inception_5b/relu_1x1 -> inception_5b/1x1 (in-place)
I0921 08:21:56.633550 2063708928 net.cpp:155] Setting up inception_5b/relu_1x1
I0921 08:21:56.633553 2063708928 net.cpp:163] Top shape: 10 384 7 7 (188160)
I0921 08:21:56.633558 2063708928 layer_factory.hpp:76] Creating layer inception_5b/3x3_reduce
I0921 08:21:56.633564 2063708928 net.cpp:110] Creating Layer inception_5b/3x3_reduce
I0921 08:21:56.633569 2063708928 net.cpp:477] inception_5b/3x3_reduce <- inception_5a/output_inception_5a/output_0_split_1
I0921 08:21:56.633576 2063708928 net.cpp:433] inception_5b/3x3_reduce -> inception_5b/3x3_reduce
I0921 08:21:56.634793 2063708928 net.cpp:155] Setting up inception_5b/3x3_reduce
I0921 08:21:56.634799 2063708928 net.cpp:163] Top shape: 10 192 7 7 (94080)
I0921 08:21:56.634805 2063708928 layer_factory.hpp:76] Creating layer inception_5b/relu_3x3_reduce
I0921 08:21:56.634811 2063708928 net.cpp:110] Creating Layer inception_5b/relu_3x3_reduce
I0921 08:21:56.634815 2063708928 net.cpp:477] inception_5b/relu_3x3_reduce <- inception_5b/3x3_reduce
I0921 08:21:56.634822 2063708928 net.cpp:419] inception_5b/relu_3x3_reduce -> inception_5b/3x3_reduce (in-place)
I0921 08:21:56.634829 2063708928 net.cpp:155] Setting up inception_5b/relu_3x3_reduce
I0921 08:21:56.634832 2063708928 net.cpp:163] Top shape: 10 192 7 7 (94080)
I0921 08:21:56.634837 2063708928 layer_factory.hpp:76] Creating layer inception_5b/3x3
I0921 08:21:56.634843 2063708928 net.cpp:110] Creating Layer inception_5b/3x3
I0921 08:21:56.634847 2063708928 net.cpp:477] inception_5b/3x3 <- inception_5b/3x3_reduce
I0921 08:21:56.634852 2063708928 net.cpp:433] inception_5b/3x3 -> inception_5b/3x3
I0921 08:21:56.639315 2063708928 net.cpp:155] Setting up inception_5b/3x3
I0921 08:21:56.639333 2063708928 net.cpp:163] Top shape: 10 384 7 7 (188160)
I0921 08:21:56.639340 2063708928 layer_factory.hpp:76] Creating layer inception_5b/relu_3x3
I0921 08:21:56.639346 2063708928 net.cpp:110] Creating Layer inception_5b/relu_3x3
I0921 08:21:56.639350 2063708928 net.cpp:477] inception_5b/relu_3x3 <- inception_5b/3x3
I0921 08:21:56.639358 2063708928 net.cpp:419] inception_5b/relu_3x3 -> inception_5b/3x3 (in-place)
I0921 08:21:56.639365 2063708928 net.cpp:155] Setting up inception_5b/relu_3x3
I0921 08:21:56.639369 2063708928 net.cpp:163] Top shape: 10 384 7 7 (188160)
I0921 08:21:56.639374 2063708928 layer_factory.hpp:76] Creating layer inception_5b/5x5_reduce
I0921 08:21:56.639379 2063708928 net.cpp:110] Creating Layer inception_5b/5x5_reduce
I0921 08:21:56.639384 2063708928 net.cpp:477] inception_5b/5x5_reduce <- inception_5a/output_inception_5a/output_0_split_2
I0921 08:21:56.639389 2063708928 net.cpp:433] inception_5b/5x5_reduce -> inception_5b/5x5_reduce
I0921 08:21:56.639734 2063708928 net.cpp:155] Setting up inception_5b/5x5_reduce
I0921 08:21:56.639740 2063708928 net.cpp:163] Top shape: 10 48 7 7 (23520)
I0921 08:21:56.639747 2063708928 layer_factory.hpp:76] Creating layer inception_5b/relu_5x5_reduce
I0921 08:21:56.639755 2063708928 net.cpp:110] Creating Layer inception_5b/relu_5x5_reduce
I0921 08:21:56.639760 2063708928 net.cpp:477] inception_5b/relu_5x5_reduce <- inception_5b/5x5_reduce
I0921 08:21:56.639765 2063708928 net.cpp:419] inception_5b/relu_5x5_reduce -> inception_5b/5x5_reduce (in-place)
I0921 08:21:56.639770 2063708928 net.cpp:155] Setting up inception_5b/relu_5x5_reduce
I0921 08:21:56.639773 2063708928 net.cpp:163] Top shape: 10 48 7 7 (23520)
I0921 08:21:56.639778 2063708928 layer_factory.hpp:76] Creating layer inception_5b/5x5
I0921 08:21:56.639785 2063708928 net.cpp:110] Creating Layer inception_5b/5x5
I0921 08:21:56.639788 2063708928 net.cpp:477] inception_5b/5x5 <- inception_5b/5x5_reduce
I0921 08:21:56.639793 2063708928 net.cpp:433] inception_5b/5x5 -> inception_5b/5x5
I0921 08:21:56.640964 2063708928 net.cpp:155] Setting up inception_5b/5x5
I0921 08:21:56.640969 2063708928 net.cpp:163] Top shape: 10 128 7 7 (62720)
I0921 08:21:56.640976 2063708928 layer_factory.hpp:76] Creating layer inception_5b/relu_5x5
I0921 08:21:56.640983 2063708928 net.cpp:110] Creating Layer inception_5b/relu_5x5
I0921 08:21:56.640987 2063708928 net.cpp:477] inception_5b/relu_5x5 <- inception_5b/5x5
I0921 08:21:56.640992 2063708928 net.cpp:419] inception_5b/relu_5x5 -> inception_5b/5x5 (in-place)
I0921 08:21:56.640998 2063708928 net.cpp:155] Setting up inception_5b/relu_5x5
I0921 08:21:56.641001 2063708928 net.cpp:163] Top shape: 10 128 7 7 (62720)
I0921 08:21:56.641006 2063708928 layer_factory.hpp:76] Creating layer inception_5b/pool
I0921 08:21:56.641011 2063708928 net.cpp:110] Creating Layer inception_5b/pool
I0921 08:21:56.641016 2063708928 net.cpp:477] inception_5b/pool <- inception_5a/output_inception_5a/output_0_split_3
I0921 08:21:56.641021 2063708928 net.cpp:433] inception_5b/pool -> inception_5b/pool
I0921 08:21:56.641028 2063708928 net.cpp:155] Setting up inception_5b/pool
I0921 08:21:56.641032 2063708928 net.cpp:163] Top shape: 10 832 7 7 (407680)
I0921 08:21:56.641037 2063708928 layer_factory.hpp:76] Creating layer inception_5b/pool_proj
I0921 08:21:56.641044 2063708928 net.cpp:110] Creating Layer inception_5b/pool_proj
I0921 08:21:56.641049 2063708928 net.cpp:477] inception_5b/pool_proj <- inception_5b/pool
I0921 08:21:56.641054 2063708928 net.cpp:433] inception_5b/pool_proj -> inception_5b/pool_proj
I0921 08:21:56.641866 2063708928 net.cpp:155] Setting up inception_5b/pool_proj
I0921 08:21:56.641873 2063708928 net.cpp:163] Top shape: 10 128 7 7 (62720)
I0921 08:21:56.641880 2063708928 layer_factory.hpp:76] Creating layer inception_5b/relu_pool_proj
I0921 08:21:56.641885 2063708928 net.cpp:110] Creating Layer inception_5b/relu_pool_proj
I0921 08:21:56.641888 2063708928 net.cpp:477] inception_5b/relu_pool_proj <- inception_5b/pool_proj
I0921 08:21:56.641896 2063708928 net.cpp:419] inception_5b/relu_pool_proj -> inception_5b/pool_proj (in-place)
I0921 08:21:56.641906 2063708928 net.cpp:155] Setting up inception_5b/relu_pool_proj
I0921 08:21:56.641911 2063708928 net.cpp:163] Top shape: 10 128 7 7 (62720)
I0921 08:21:56.641916 2063708928 layer_factory.hpp:76] Creating layer inception_5b/output
I0921 08:21:56.641921 2063708928 net.cpp:110] Creating Layer inception_5b/output
I0921 08:21:56.641926 2063708928 net.cpp:477] inception_5b/output <- inception_5b/1x1
I0921 08:21:56.641929 2063708928 net.cpp:477] inception_5b/output <- inception_5b/3x3
I0921 08:21:56.641933 2063708928 net.cpp:477] inception_5b/output <- inception_5b/5x5
I0921 08:21:56.641937 2063708928 net.cpp:477] inception_5b/output <- inception_5b/pool_proj
I0921 08:21:56.641942 2063708928 net.cpp:433] inception_5b/output -> inception_5b/output
I0921 08:21:56.641949 2063708928 net.cpp:155] Setting up inception_5b/output
I0921 08:21:56.641953 2063708928 net.cpp:163] Top shape: 10 1024 7 7 (501760)
I0921 08:21:56.641957 2063708928 layer_factory.hpp:76] Creating layer pool5/7x7_s1
I0921 08:21:56.641963 2063708928 net.cpp:110] Creating Layer pool5/7x7_s1
I0921 08:21:56.641966 2063708928 net.cpp:477] pool5/7x7_s1 <- inception_5b/output
I0921 08:21:56.641973 2063708928 net.cpp:433] pool5/7x7_s1 -> pool5/7x7_s1
I0921 08:21:56.641978 2063708928 net.cpp:155] Setting up pool5/7x7_s1
I0921 08:21:56.641981 2063708928 net.cpp:163] Top shape: 10 1024 1 1 (10240)
I0921 08:21:56.641986 2063708928 layer_factory.hpp:76] Creating layer pool5/drop_7x7_s1
I0921 08:21:56.641993 2063708928 net.cpp:110] Creating Layer pool5/drop_7x7_s1
I0921 08:21:56.641996 2063708928 net.cpp:477] pool5/drop_7x7_s1 <- pool5/7x7_s1
I0921 08:21:56.642004 2063708928 net.cpp:433] pool5/drop_7x7_s1 -> dropout/pool5/7x7_s1
I0921 08:21:56.642010 2063708928 net.cpp:155] Setting up pool5/drop_7x7_s1
I0921 08:21:56.642014 2063708928 net.cpp:163] Top shape: 10 1024 1 1 (10240)
I0921 08:21:56.642019 2063708928 layer_factory.hpp:76] Creating layer loss3/classifier
I0921 08:21:56.642025 2063708928 net.cpp:110] Creating Layer loss3/classifier
I0921 08:21:56.642030 2063708928 net.cpp:477] loss3/classifier <- dropout/pool5/7x7_s1
I0921 08:21:56.642035 2063708928 net.cpp:433] loss3/classifier -> loss3/classifier
I0921 08:21:56.649773 2063708928 net.cpp:155] Setting up loss3/classifier
I0921 08:21:56.649791 2063708928 net.cpp:163] Top shape: 10 1000 (10000)
I0921 08:21:56.649797 2063708928 layer_factory.hpp:76] Creating layer prob
I0921 08:21:56.649806 2063708928 net.cpp:110] Creating Layer prob
I0921 08:21:56.649809 2063708928 net.cpp:477] prob <- loss3/classifier
I0921 08:21:56.649819 2063708928 net.cpp:433] prob -> prob
I0921 08:21:56.649830 2063708928 net.cpp:155] Setting up prob
I0921 08:21:56.649835 2063708928 net.cpp:163] Top shape: 10 1000 (10000)
I0921 08:21:56.649839 2063708928 net.cpp:240] prob does not need backward computation.
I0921 08:21:56.649843 2063708928 net.cpp:240] loss3/classifier does not need backward computation.
I0921 08:21:56.649847 2063708928 net.cpp:240] pool5/drop_7x7_s1 does not need backward computation.
I0921 08:21:56.649850 2063708928 net.cpp:240] pool5/7x7_s1 does not need backward computation.
I0921 08:21:56.649854 2063708928 net.cpp:240] inception_5b/output does not need backward computation.
…
