INFO:root:Loading net and associated files...
WARNING: Logging before InitGoogleLogging() is written to STDERR
I0922 13:45:18.028247 2063708928 net.cpp:50] Initializing net from parameters: 
name: "VGG_ILSVRC_16_layer"
input: "data"
input_dim: 10
input_dim: 3
input_dim: 224
input_dim: 224
state {
  phase: TEST
}
layer {
  name: "conv1_1"
  type: "Convolution"
  bottom: "data"
  top: "conv1_1"
  param {
    name: "conv1_1_w"
    lr_mult: 1
    decay_mult: 1
  }
  param {
    name: "conv1_1_b"
    lr_mult: 2
    decay_mult: 0
  }
  convolution_param {
    num_output: 64
    pad: 1
    kernel_size: 3
  }
}
layer {
  name: "relu1_1"
  type: "ReLU"
  bottom: "conv1_1"
  top: "conv1_1"
}
layer {
  name: "conv1_2"
  type: "Convolution"
  bottom: "conv1_1"
  top: "conv1_2"
  param {
    name: "conv1_2_w"
    lr_mult: 1
    decay_mult: 1
  }
  param {
    name: "conv1_2_b"
    lr_mult: 2
    decay_mult: 0
  }
  convolution_param {
    num_output: 64
    pad: 1
    kernel_size: 3
  }
}
layer {
  name: "relu1_2"
  type: "ReLU"
  bottom: "conv1_2"
  top: "conv1_2"
}
layer {
  name: "pool1"
  type: "Pooling"
  bottom: "conv1_2"
  top: "pool1"
  pooling_param {
    pool: MAX
    kernel_size: 2
    stride: 2
  }
}
layer {
  name: "conv2_1"
  type: "Convolution"
  bottom: "pool1"
  top: "conv2_1"
  param {
    name: "conv2_1_w"
    lr_mult: 1
    decay_mult: 1
  }
  param {
    name: "conv2_1_b"
    lr_mult: 2
    decay_mult: 0
  }
  convolution_param {
    num_output: 128
    pad: 1
    kernel_size: 3
  }
}
layer {
  name: "relu2_1"
  type: "ReLU"
  bottom: "conv2_1"
  top: "conv2_1"
}
layer {
  name: "conv2_2"
  type: "Convolution"
  bottom: "conv2_1"
  top: "conv2_2"
  param {
    name: "conv2_2_w"
    lr_mult: 1
    decay_mult: 1
  }
  param {
    name: "conv2_2_b"
    lr_mult: 2
    decay_mult: 0
  }
  convolution_param {
    num_output: 128
    pad: 1
    kernel_size: 3
  }
}
layer {
  name: "relu2_2"
  type: "ReLU"
  bottom: "conv2_2"
  top: "conv2_2"
}
layer {
  name: "pool2"
  type: "Pooling"
  bottom: "conv2_2"
  top: "pool2"
  pooling_param {
    pool: MAX
    kernel_size: 2
    stride: 2
  }
}
layer {
  name: "conv3_1"
  type: "Convolution"
  bottom: "pool2"
  top: "conv3_1"
  param {
    name: "conv3_1_w"
    lr_mult: 1
    decay_mult: 1
  }
  param {
    name: "conv3_1_b"
    lr_mult: 2
    decay_mult: 0
  }
  convolution_param {
    num_output: 256
    pad: 1
    kernel_size: 3
  }
}
layer {
  name: "relu3_1"
  type: "ReLU"
  bottom: "conv3_1"
  top: "conv3_1"
}
layer {
  name: "conv3_2"
  type: "Convolution"
  bottom: "conv3_1"
  top: "conv3_2"
  param {
    name: "conv3_2_w"
    lr_mult: 1
    decay_mult: 1
  }
  param {
    name: "conv3_2_b"
    lr_mult: 2
    decay_mult: 0
  }
  convolution_param {
    num_output: 256
    pad: 1
    kernel_size: 3
  }
}
layer {
  name: "relu3_2"
  type: "ReLU"
  bottom: "conv3_2"
  top: "conv3_2"
}
layer {
  name: "conv3_3"
  type: "Convolution"
  bottom: "conv3_2"
  top: "conv3_3"
  param {
    name: "conv3_3_w"
    lr_mult: 1
    decay_mult: 1
  }
  param {
    name: "conv3_3_b"
    lr_mult: 2
    decay_mult: 0
  }
  convolution_param {
    num_output: 256
    pad: 1
    kernel_size: 3
  }
}
layer {
  name: "relu3_3"
  type: "ReLU"
  bottom: "conv3_3"
  top: "conv3_3"
}
layer {
  name: "pool3"
  type: "Pooling"
  bottom: "conv3_3"
  top: "pool3"
  pooling_param {
    pool: MAX
    kernel_size: 2
    stride: 2
  }
}
layer {
  name: "conv4_1"
  type: "Convolution"
  bottom: "pool3"
  top: "conv4_1"
  param {
    name: "conv4_1_w"
    lr_mult: 1
    decay_mult: 1
  }
  param {
    name: "conv4_1_b"
    lr_mult: 2
    decay_mult: 0
  }
  convolution_param {
    num_output: 512
    pad: 1
    kernel_size: 3
  }
}
layer {
  name: "relu4_1"
  type: "ReLU"
  bottom: "conv4_1"
  top: "conv4_1"
}
layer {
  name: "conv4_2"
  type: "Convolution"
  bottom: "conv4_1"
  top: "conv4_2"
  param {
    name: "conv4_2_w"
    lr_mult: 1
    decay_mult: 1
  }
  param {
    name: "conv4_2_b"
    lr_mult: 2
    decay_mult: 0
  }
  convolution_param {
    num_output: 512
    pad: 1
    kernel_size: 3
  }
}
layer {
  name: "relu4_2"
  type: "ReLU"
  bottom: "conv4_2"
  top: "conv4_2"
}
layer {
  name: "conv4_3"
  type: "Convolution"
  bottom: "conv4_2"
  top: "conv4_3"
  param {
    name: "conv4_3_w"
    lr_mult: 1
    decay_mult: 1
  }
  param {
    name: "conv4_3_b"
    lr_mult: 2
    decay_mult: 0
  }
  convolution_param {
    num_output: 512
    pad: 1
    kernel_size: 3
  }
}
layer {
  name: "relu4_3"
  type: "ReLU"
  bottom: "conv4_3"
  top: "conv4_3"
}
layer {
  name: "pool4"
  type: "Pooling"
  bottom: "conv4_3"
  top: "pool4"
  pooling_param {
    pool: MAX
    kernel_size: 2
    stride: 2
  }
}
layer {
  name: "conv5_1"
  type: "Convolution"
  bottom: "pool4"
  top: "conv5_1"
  param {
    name: "conv5_1_w"
    lr_mult: 1
    decay_mult: 1
  }
  param {
    name: "conv5_1_b"
    lr_mult: 2
    decay_mult: 0
  }
  convolution_param {
    num_output: 512
    pad: 1
    kernel_size: 3
  }
}
layer {
  name: "relu5_1"
  type: "ReLU"
  bottom: "conv5_1"
  top: "conv5_1"
}
layer {
  name: "conv5_2"
  type: "Convolution"
  bottom: "conv5_1"
  top: "conv5_2"
  param {
    name: "conv5_2_w"
    lr_mult: 1
    decay_mult: 1
  }
  param {
    name: "conv5_2_b"
    lr_mult: 2
    decay_mult: 0
  }
  convolution_param {
    num_output: 512
    pad: 1
    kernel_size: 3
  }
}
layer {
  name: "relu5_2"
  type: "ReLU"
  bottom: "conv5_2"
  top: "conv5_2"
}
layer {
  name: "conv5_3"
  type: "Convolution"
  bottom: "conv5_2"
  top: "conv5_3"
  param {
    name: "conv5_3_w"
    lr_mult: 1
    decay_mult: 1
  }
  param {
    name: "conv5_3_b"
    lr_mult: 2
    decay_mult: 0
  }
  convolution_param {
    num_output: 512
    pad: 1
    kernel_size: 3
  }
}
layer {
  name: "relu5_3"
  type: "ReLU"
  bottom: "conv5_3"
  top: "conv5_3"
}
layer {
  name: "pool5"
  type: "Pooling"
  bottom: "conv5_3"
  top: "pool5"
  pooling_param {
    pool: MAX
    kernel_size: 2
    stride: 2
  }
}
layer {
  name: "fc6"
  type: "InnerProduct"
  bottom: "pool5"
  top: "fc6"
  param {
    name: "fc6_w"
    lr_mult: 1
    decay_mult: 1
  }
  param {
    name: "fc6_b"
    lr_mult: 2
    decay_mult: 0
  }
  inner_product_param {
    num_output: 4096
  }
}
layer {
  name: "relu6"
  type: "ReLU"
  bottom: "fc6"
  top: "relu6"
}
layer {
  name: "drop6"
  type: "Dropout"
  bottom: "relu6"
  top: "drop6"
  dropout_param {
    dropout_ratio: 0.5
  }
}
layer {
  name: "fc7"
  type: "InnerProduct"
  bottom: "drop6"
  top: "fc7"
  param {
    name: "fc7_w"
    lr_mult: 1
    decay_mult: 1
  }
  param {
    name: "fc7_b"
    lr_mult: 2
    decay_mult: 0
  }
  inner_product_param {
    num_output: 4096
  }
}
layer {
  name: "relu7"
  type: "ReLU"
  bottom: "fc7"
  top: "relu7"
}
layer {
  name: "drop7"
  type: "Dropout"
  bottom: "relu7"
  top: "drop7"
  dropout_param {
    dropout_ratio: 0.5
  }
}
layer {
  name: "fc8"
  type: "InnerProduct"
  bottom: "drop7"
  top: "fc8"
  param {
    name: "fc8_w"
    lr_mult: 1
    decay_mult: 1
  }
  param {
    name: "fc8_b"
    lr_mult: 2
    decay_mult: 0
  }
  inner_product_param {
    num_output: 1000
  }
}
layer {
  name: "prob"
  type: "Softmax"
  bottom: "fc8"
  top: "prob"
}
I0922 13:45:18.028684 2063708928 net.cpp:435] Input 0 -> data
I0922 13:45:18.028720 2063708928 layer_factory.hpp:76] Creating layer conv1_1
I0922 13:45:18.028731 2063708928 net.cpp:110] Creating Layer conv1_1
I0922 13:45:18.028739 2063708928 net.cpp:477] conv1_1 <- data
I0922 13:45:18.028746 2063708928 net.cpp:433] conv1_1 -> conv1_1
I0922 13:45:18.028805 2063708928 net.cpp:155] Setting up conv1_1
I0922 13:45:18.028812 2063708928 net.cpp:163] Top shape: 10 64 224 224 (32112640)
I0922 13:45:18.028831 2063708928 layer_factory.hpp:76] Creating layer relu1_1
I0922 13:45:18.028842 2063708928 net.cpp:110] Creating Layer relu1_1
I0922 13:45:18.028847 2063708928 net.cpp:477] relu1_1 <- conv1_1
I0922 13:45:18.028854 2063708928 net.cpp:419] relu1_1 -> conv1_1 (in-place)
I0922 13:45:18.028861 2063708928 net.cpp:155] Setting up relu1_1
I0922 13:45:18.028867 2063708928 net.cpp:163] Top shape: 10 64 224 224 (32112640)
I0922 13:45:18.028873 2063708928 layer_factory.hpp:76] Creating layer conv1_2
I0922 13:45:18.028887 2063708928 net.cpp:110] Creating Layer conv1_2
I0922 13:45:18.028892 2063708928 net.cpp:477] conv1_2 <- conv1_1
I0922 13:45:18.028899 2063708928 net.cpp:433] conv1_2 -> conv1_2
I0922 13:45:18.029109 2063708928 net.cpp:155] Setting up conv1_2
I0922 13:45:18.029117 2063708928 net.cpp:163] Top shape: 10 64 224 224 (32112640)
I0922 13:45:18.029130 2063708928 layer_factory.hpp:76] Creating layer relu1_2
I0922 13:45:18.029137 2063708928 net.cpp:110] Creating Layer relu1_2
I0922 13:45:18.029142 2063708928 net.cpp:477] relu1_2 <- conv1_2
I0922 13:45:18.029148 2063708928 net.cpp:419] relu1_2 -> conv1_2 (in-place)
I0922 13:45:18.029157 2063708928 net.cpp:155] Setting up relu1_2
I0922 13:45:18.029162 2063708928 net.cpp:163] Top shape: 10 64 224 224 (32112640)
I0922 13:45:18.029168 2063708928 layer_factory.hpp:76] Creating layer pool1
I0922 13:45:18.029176 2063708928 net.cpp:110] Creating Layer pool1
I0922 13:45:18.029181 2063708928 net.cpp:477] pool1 <- conv1_2
I0922 13:45:18.029186 2063708928 net.cpp:433] pool1 -> pool1
I0922 13:45:18.029201 2063708928 net.cpp:155] Setting up pool1
I0922 13:45:18.029206 2063708928 net.cpp:163] Top shape: 10 64 112 112 (8028160)
I0922 13:45:18.029212 2063708928 layer_factory.hpp:76] Creating layer conv2_1
I0922 13:45:18.029222 2063708928 net.cpp:110] Creating Layer conv2_1
I0922 13:45:18.029227 2063708928 net.cpp:477] conv2_1 <- pool1
I0922 13:45:18.029232 2063708928 net.cpp:433] conv2_1 -> conv2_1
I0922 13:45:18.029434 2063708928 net.cpp:155] Setting up conv2_1
I0922 13:45:18.029443 2063708928 net.cpp:163] Top shape: 10 128 112 112 (16056320)
I0922 13:45:18.029453 2063708928 layer_factory.hpp:76] Creating layer relu2_1
I0922 13:45:18.029458 2063708928 net.cpp:110] Creating Layer relu2_1
I0922 13:45:18.029464 2063708928 net.cpp:477] relu2_1 <- conv2_1
I0922 13:45:18.029471 2063708928 net.cpp:419] relu2_1 -> conv2_1 (in-place)
I0922 13:45:18.029479 2063708928 net.cpp:155] Setting up relu2_1
I0922 13:45:18.029484 2063708928 net.cpp:163] Top shape: 10 128 112 112 (16056320)
I0922 13:45:18.029489 2063708928 layer_factory.hpp:76] Creating layer conv2_2
I0922 13:45:18.029496 2063708928 net.cpp:110] Creating Layer conv2_2
I0922 13:45:18.029500 2063708928 net.cpp:477] conv2_2 <- conv2_1
I0922 13:45:18.029506 2063708928 net.cpp:433] conv2_2 -> conv2_2
I0922 13:45:18.029772 2063708928 net.cpp:155] Setting up conv2_2
I0922 13:45:18.029779 2063708928 net.cpp:163] Top shape: 10 128 112 112 (16056320)
I0922 13:45:18.029788 2063708928 layer_factory.hpp:76] Creating layer relu2_2
I0922 13:45:18.029796 2063708928 net.cpp:110] Creating Layer relu2_2
I0922 13:45:18.029803 2063708928 net.cpp:477] relu2_2 <- conv2_2
I0922 13:45:18.029808 2063708928 net.cpp:419] relu2_2 -> conv2_2 (in-place)
I0922 13:45:18.029815 2063708928 net.cpp:155] Setting up relu2_2
I0922 13:45:18.029819 2063708928 net.cpp:163] Top shape: 10 128 112 112 (16056320)
I0922 13:45:18.029825 2063708928 layer_factory.hpp:76] Creating layer pool2
I0922 13:45:18.029832 2063708928 net.cpp:110] Creating Layer pool2
I0922 13:45:18.029836 2063708928 net.cpp:477] pool2 <- conv2_2
I0922 13:45:18.029842 2063708928 net.cpp:433] pool2 -> pool2
I0922 13:45:18.029851 2063708928 net.cpp:155] Setting up pool2
I0922 13:45:18.029855 2063708928 net.cpp:163] Top shape: 10 128 56 56 (4014080)
I0922 13:45:18.029862 2063708928 layer_factory.hpp:76] Creating layer conv3_1
I0922 13:45:18.029868 2063708928 net.cpp:110] Creating Layer conv3_1
I0922 13:45:18.029873 2063708928 net.cpp:477] conv3_1 <- pool2
I0922 13:45:18.029881 2063708928 net.cpp:433] conv3_1 -> conv3_1
I0922 13:45:18.030539 2063708928 net.cpp:155] Setting up conv3_1
I0922 13:45:18.030547 2063708928 net.cpp:163] Top shape: 10 256 56 56 (8028160)
I0922 13:45:18.030556 2063708928 layer_factory.hpp:76] Creating layer relu3_1
I0922 13:45:18.030563 2063708928 net.cpp:110] Creating Layer relu3_1
I0922 13:45:18.030567 2063708928 net.cpp:477] relu3_1 <- conv3_1
I0922 13:45:18.030573 2063708928 net.cpp:419] relu3_1 -> conv3_1 (in-place)
I0922 13:45:18.030580 2063708928 net.cpp:155] Setting up relu3_1
I0922 13:45:18.030593 2063708928 net.cpp:163] Top shape: 10 256 56 56 (8028160)
I0922 13:45:18.030601 2063708928 layer_factory.hpp:76] Creating layer conv3_2
I0922 13:45:18.030609 2063708928 net.cpp:110] Creating Layer conv3_2
I0922 13:45:18.030614 2063708928 net.cpp:477] conv3_2 <- conv3_1
I0922 13:45:18.030622 2063708928 net.cpp:433] conv3_2 -> conv3_2
I0922 13:45:18.031847 2063708928 net.cpp:155] Setting up conv3_2
I0922 13:45:18.031859 2063708928 net.cpp:163] Top shape: 10 256 56 56 (8028160)
I0922 13:45:18.031867 2063708928 layer_factory.hpp:76] Creating layer relu3_2
I0922 13:45:18.031875 2063708928 net.cpp:110] Creating Layer relu3_2
I0922 13:45:18.031879 2063708928 net.cpp:477] relu3_2 <- conv3_2
I0922 13:45:18.031888 2063708928 net.cpp:419] relu3_2 -> conv3_2 (in-place)
I0922 13:45:18.031895 2063708928 net.cpp:155] Setting up relu3_2
I0922 13:45:18.031900 2063708928 net.cpp:163] Top shape: 10 256 56 56 (8028160)
I0922 13:45:18.031906 2063708928 layer_factory.hpp:76] Creating layer conv3_3
I0922 13:45:18.031913 2063708928 net.cpp:110] Creating Layer conv3_3
I0922 13:45:18.031918 2063708928 net.cpp:477] conv3_3 <- conv3_2
I0922 13:45:18.031924 2063708928 net.cpp:433] conv3_3 -> conv3_3
I0922 13:45:18.033309 2063708928 net.cpp:155] Setting up conv3_3
I0922 13:45:18.033320 2063708928 net.cpp:163] Top shape: 10 256 56 56 (8028160)
I0922 13:45:18.033329 2063708928 layer_factory.hpp:76] Creating layer relu3_3
I0922 13:45:18.033336 2063708928 net.cpp:110] Creating Layer relu3_3
I0922 13:45:18.033340 2063708928 net.cpp:477] relu3_3 <- conv3_3
I0922 13:45:18.033349 2063708928 net.cpp:419] relu3_3 -> conv3_3 (in-place)
I0922 13:45:18.033356 2063708928 net.cpp:155] Setting up relu3_3
I0922 13:45:18.033361 2063708928 net.cpp:163] Top shape: 10 256 56 56 (8028160)
I0922 13:45:18.033367 2063708928 layer_factory.hpp:76] Creating layer pool3
I0922 13:45:18.033375 2063708928 net.cpp:110] Creating Layer pool3
I0922 13:45:18.033380 2063708928 net.cpp:477] pool3 <- conv3_3
I0922 13:45:18.033385 2063708928 net.cpp:433] pool3 -> pool3
I0922 13:45:18.033396 2063708928 net.cpp:155] Setting up pool3
I0922 13:45:18.033399 2063708928 net.cpp:163] Top shape: 10 256 28 28 (2007040)
I0922 13:45:18.033406 2063708928 layer_factory.hpp:76] Creating layer conv4_1
I0922 13:45:18.033412 2063708928 net.cpp:110] Creating Layer conv4_1
I0922 13:45:18.033416 2063708928 net.cpp:477] conv4_1 <- pool3
I0922 13:45:18.033424 2063708928 net.cpp:433] conv4_1 -> conv4_1
I0922 13:45:18.036090 2063708928 net.cpp:155] Setting up conv4_1
I0922 13:45:18.036106 2063708928 net.cpp:163] Top shape: 10 512 28 28 (4014080)
I0922 13:45:18.036115 2063708928 layer_factory.hpp:76] Creating layer relu4_1
I0922 13:45:18.036123 2063708928 net.cpp:110] Creating Layer relu4_1
I0922 13:45:18.036128 2063708928 net.cpp:477] relu4_1 <- conv4_1
I0922 13:45:18.036134 2063708928 net.cpp:419] relu4_1 -> conv4_1 (in-place)
I0922 13:45:18.036141 2063708928 net.cpp:155] Setting up relu4_1
I0922 13:45:18.036145 2063708928 net.cpp:163] Top shape: 10 512 28 28 (4014080)
I0922 13:45:18.036151 2063708928 layer_factory.hpp:76] Creating layer conv4_2
I0922 13:45:18.036159 2063708928 net.cpp:110] Creating Layer conv4_2
I0922 13:45:18.036164 2063708928 net.cpp:477] conv4_2 <- conv4_1
I0922 13:45:18.036173 2063708928 net.cpp:433] conv4_2 -> conv4_2
I0922 13:45:18.041406 2063708928 net.cpp:155] Setting up conv4_2
I0922 13:45:18.041441 2063708928 net.cpp:163] Top shape: 10 512 28 28 (4014080)
I0922 13:45:18.041468 2063708928 layer_factory.hpp:76] Creating layer relu4_2
I0922 13:45:18.041487 2063708928 net.cpp:110] Creating Layer relu4_2
I0922 13:45:18.041499 2063708928 net.cpp:477] relu4_2 <- conv4_2
I0922 13:45:18.041513 2063708928 net.cpp:419] relu4_2 -> conv4_2 (in-place)
I0922 13:45:18.041529 2063708928 net.cpp:155] Setting up relu4_2
I0922 13:45:18.041540 2063708928 net.cpp:163] Top shape: 10 512 28 28 (4014080)
I0922 13:45:18.041553 2063708928 layer_factory.hpp:76] Creating layer conv4_3
I0922 13:45:18.041568 2063708928 net.cpp:110] Creating Layer conv4_3
I0922 13:45:18.041579 2063708928 net.cpp:477] conv4_3 <- conv4_2
I0922 13:45:18.041613 2063708928 net.cpp:433] conv4_3 -> conv4_3
I0922 13:45:18.047904 2063708928 net.cpp:155] Setting up conv4_3
I0922 13:45:18.047930 2063708928 net.cpp:163] Top shape: 10 512 28 28 (4014080)
I0922 13:45:18.047942 2063708928 layer_factory.hpp:76] Creating layer relu4_3
I0922 13:45:18.047952 2063708928 net.cpp:110] Creating Layer relu4_3
I0922 13:45:18.047958 2063708928 net.cpp:477] relu4_3 <- conv4_3
I0922 13:45:18.047966 2063708928 net.cpp:419] relu4_3 -> conv4_3 (in-place)
I0922 13:45:18.047974 2063708928 net.cpp:155] Setting up relu4_3
I0922 13:45:18.047979 2063708928 net.cpp:163] Top shape: 10 512 28 28 (4014080)
I0922 13:45:18.047986 2063708928 layer_factory.hpp:76] Creating layer pool4
I0922 13:45:18.047992 2063708928 net.cpp:110] Creating Layer pool4
I0922 13:45:18.047997 2063708928 net.cpp:477] pool4 <- conv4_3
I0922 13:45:18.048004 2063708928 net.cpp:433] pool4 -> pool4
I0922 13:45:18.048014 2063708928 net.cpp:155] Setting up pool4
I0922 13:45:18.048019 2063708928 net.cpp:163] Top shape: 10 512 14 14 (1003520)
I0922 13:45:18.048025 2063708928 layer_factory.hpp:76] Creating layer conv5_1
I0922 13:45:18.048032 2063708928 net.cpp:110] Creating Layer conv5_1
I0922 13:45:18.048038 2063708928 net.cpp:477] conv5_1 <- pool4
I0922 13:45:18.048044 2063708928 net.cpp:433] conv5_1 -> conv5_1
I0922 13:45:18.053452 2063708928 net.cpp:155] Setting up conv5_1
I0922 13:45:18.053475 2063708928 net.cpp:163] Top shape: 10 512 14 14 (1003520)
I0922 13:45:18.053486 2063708928 layer_factory.hpp:76] Creating layer relu5_1
I0922 13:45:18.053495 2063708928 net.cpp:110] Creating Layer relu5_1
I0922 13:45:18.053501 2063708928 net.cpp:477] relu5_1 <- conv5_1
I0922 13:45:18.053508 2063708928 net.cpp:419] relu5_1 -> conv5_1 (in-place)
I0922 13:45:18.053516 2063708928 net.cpp:155] Setting up relu5_1
I0922 13:45:18.053521 2063708928 net.cpp:163] Top shape: 10 512 14 14 (1003520)
I0922 13:45:18.053527 2063708928 layer_factory.hpp:76] Creating layer conv5_2
I0922 13:45:18.053535 2063708928 net.cpp:110] Creating Layer conv5_2
I0922 13:45:18.053539 2063708928 net.cpp:477] conv5_2 <- conv5_1
I0922 13:45:18.053546 2063708928 net.cpp:433] conv5_2 -> conv5_2
I0922 13:45:18.058670 2063708928 net.cpp:155] Setting up conv5_2
I0922 13:45:18.058686 2063708928 net.cpp:163] Top shape: 10 512 14 14 (1003520)
I0922 13:45:18.058696 2063708928 layer_factory.hpp:76] Creating layer relu5_2
I0922 13:45:18.058703 2063708928 net.cpp:110] Creating Layer relu5_2
I0922 13:45:18.058709 2063708928 net.cpp:477] relu5_2 <- conv5_2
I0922 13:45:18.058715 2063708928 net.cpp:419] relu5_2 -> conv5_2 (in-place)
I0922 13:45:18.058723 2063708928 net.cpp:155] Setting up relu5_2
I0922 13:45:18.058727 2063708928 net.cpp:163] Top shape: 10 512 14 14 (1003520)
I0922 13:45:18.058733 2063708928 layer_factory.hpp:76] Creating layer conv5_3
I0922 13:45:18.058740 2063708928 net.cpp:110] Creating Layer conv5_3
I0922 13:45:18.058745 2063708928 net.cpp:477] conv5_3 <- conv5_2
I0922 13:45:18.058753 2063708928 net.cpp:433] conv5_3 -> conv5_3
I0922 13:45:18.064046 2063708928 net.cpp:155] Setting up conv5_3
I0922 13:45:18.064065 2063708928 net.cpp:163] Top shape: 10 512 14 14 (1003520)
I0922 13:45:18.064075 2063708928 layer_factory.hpp:76] Creating layer relu5_3
I0922 13:45:18.064084 2063708928 net.cpp:110] Creating Layer relu5_3
I0922 13:45:18.064088 2063708928 net.cpp:477] relu5_3 <- conv5_3
I0922 13:45:18.064095 2063708928 net.cpp:419] relu5_3 -> conv5_3 (in-place)
I0922 13:45:18.064102 2063708928 net.cpp:155] Setting up relu5_3
I0922 13:45:18.064107 2063708928 net.cpp:163] Top shape: 10 512 14 14 (1003520)
I0922 13:45:18.064113 2063708928 layer_factory.hpp:76] Creating layer pool5
I0922 13:45:18.064121 2063708928 net.cpp:110] Creating Layer pool5
I0922 13:45:18.064124 2063708928 net.cpp:477] pool5 <- conv5_3
I0922 13:45:18.064131 2063708928 net.cpp:433] pool5 -> pool5
I0922 13:45:18.064141 2063708928 net.cpp:155] Setting up pool5
I0922 13:45:18.064146 2063708928 net.cpp:163] Top shape: 10 512 7 7 (250880)
I0922 13:45:18.064152 2063708928 layer_factory.hpp:76] Creating layer fc6
I0922 13:45:18.064174 2063708928 net.cpp:110] Creating Layer fc6
I0922 13:45:18.064180 2063708928 net.cpp:477] fc6 <- pool5
I0922 13:45:18.064187 2063708928 net.cpp:433] fc6 -> fc6
I0922 13:45:18.327723 2063708928 net.cpp:155] Setting up fc6
I0922 13:45:18.327762 2063708928 net.cpp:163] Top shape: 10 4096 (40960)
I0922 13:45:18.327777 2063708928 layer_factory.hpp:76] Creating layer relu6
I0922 13:45:18.327793 2063708928 net.cpp:110] Creating Layer relu6
I0922 13:45:18.327800 2063708928 net.cpp:477] relu6 <- fc6
I0922 13:45:18.327808 2063708928 net.cpp:433] relu6 -> relu6
I0922 13:45:18.327819 2063708928 net.cpp:155] Setting up relu6
I0922 13:45:18.327824 2063708928 net.cpp:163] Top shape: 10 4096 (40960)
I0922 13:45:18.327831 2063708928 layer_factory.hpp:76] Creating layer drop6
I0922 13:45:18.327837 2063708928 net.cpp:110] Creating Layer drop6
I0922 13:45:18.327842 2063708928 net.cpp:477] drop6 <- relu6
I0922 13:45:18.327849 2063708928 net.cpp:433] drop6 -> drop6
I0922 13:45:18.327869 2063708928 net.cpp:155] Setting up drop6
I0922 13:45:18.327874 2063708928 net.cpp:163] Top shape: 10 4096 (40960)
I0922 13:45:18.327880 2063708928 layer_factory.hpp:76] Creating layer fc7
I0922 13:45:18.327888 2063708928 net.cpp:110] Creating Layer fc7
I0922 13:45:18.327893 2063708928 net.cpp:477] fc7 <- drop6
I0922 13:45:18.327899 2063708928 net.cpp:433] fc7 -> fc7
I0922 13:45:18.373770 2063708928 net.cpp:155] Setting up fc7
I0922 13:45:18.373803 2063708928 net.cpp:163] Top shape: 10 4096 (40960)
I0922 13:45:18.373819 2063708928 layer_factory.hpp:76] Creating layer relu7
I0922 13:45:18.373832 2063708928 net.cpp:110] Creating Layer relu7
I0922 13:45:18.373838 2063708928 net.cpp:477] relu7 <- fc7
I0922 13:45:18.373845 2063708928 net.cpp:433] relu7 -> relu7
I0922 13:45:18.373857 2063708928 net.cpp:155] Setting up relu7
I0922 13:45:18.373862 2063708928 net.cpp:163] Top shape: 10 4096 (40960)
I0922 13:45:18.373868 2063708928 layer_factory.hpp:76] Creating layer drop7
I0922 13:45:18.373875 2063708928 net.cpp:110] Creating Layer drop7
I0922 13:45:18.373880 2063708928 net.cpp:477] drop7 <- relu7
I0922 13:45:18.373888 2063708928 net.cpp:433] drop7 -> drop7
I0922 13:45:18.373896 2063708928 net.cpp:155] Setting up drop7
I0922 13:45:18.373901 2063708928 net.cpp:163] Top shape: 10 4096 (40960)
I0922 13:45:18.373906 2063708928 layer_factory.hpp:76] Creating layer fc8
I0922 13:45:18.373919 2063708928 net.cpp:110] Creating Layer fc8
I0922 13:45:18.373924 2063708928 net.cpp:477] fc8 <- drop7
I0922 13:45:18.373931 2063708928 net.cpp:433] fc8 -> fc8
I0922 13:45:18.384656 2063708928 net.cpp:155] Setting up fc8
I0922 13:45:18.384704 2063708928 net.cpp:163] Top shape: 10 1000 (10000)
I0922 13:45:18.384728 2063708928 layer_factory.hpp:76] Creating layer prob
I0922 13:45:18.384744 2063708928 net.cpp:110] Creating Layer prob
I0922 13:45:18.384750 2063708928 net.cpp:477] prob <- fc8
I0922 13:45:18.384757 2063708928 net.cpp:433] prob -> prob
I0922 13:45:18.384773 2063708928 net.cpp:155] Setting up prob
I0922 13:45:18.384778 2063708928 net.cpp:163] Top shape: 10 1000 (10000)
I0922 13:45:18.384783 2063708928 net.cpp:240] prob does not need backward computation.
I0922 13:45:18.384788 2063708928 net.cpp:240] fc8 does not need backward computation.
I0922 13:45:18.384793 2063708928 net.cpp:240] drop7 does not need backward computation.
I0922 13:45:18.384798 2063708928 net.cpp:240] relu7 does not need backward computation.
I0922 13:45:18.384802 2063708928 net.cpp:240] fc7 does not need backward computation.
…
I0922 13:45:19.542278 2063708928 upgrade_proto.cpp:618] Attempting to upgrade input file specified using deprecated V1LayerParameter: /works/caffe/models/vgg/vgg_layer16.caffemodel
I0922 13:45:20.289983 2063708928 upgrade_proto.cpp:626] Successfully upgraded file specified using deprecated V1LayerParameter
INFO:root:Load vision model, /works/caffe/models/vgg/vgg_layer16_deploy.prototxt
I0922 13:45:20.613795 2063708928 net.cpp:50] Initializing net from parameters: 
name: "GoogleNet"
input: "data"
input_dim: 10
input_dim: 3
input_dim: 224
input_dim: 224
state {
  phase: TEST
}
layer {
  name: "conv1/7x7_s2"
  type: "Convolution"
  bottom: "data"
  top: "conv1/7x7_s2"
  param {
    lr_mult: 1
    decay_mult: 1
  }
  param {
    lr_mult: 2
    decay_mult: 0
  }
  convolution_param {
    num_output: 64
    pad: 3
    kernel_size: 7
    stride: 2
    weight_filler {
      type: "xavier"
      std: 0.1
    }
    bias_filler {
      type: "constant"
      value: 0.2
    }
  }
}
layer {
  name: "conv1/relu_7x7"
  type: "ReLU"
  bottom: "conv1/7x7_s2"
  top: "conv1/7x7_s2"
}
layer {
  name: "pool1/3x3_s2"
  type: "Pooling"
  bottom: "conv1/7x7_s2"
  top: "pool1/3x3_s2"
  pooling_param {
    pool: MAX
    kernel_size: 3
    stride: 2
  }
}
layer {
  name: "pool1/norm1"
  type: "LRN"
  bottom: "pool1/3x3_s2"
  top: "pool1/norm1"
  lrn_param {
    local_size: 5
    alpha: 0.0001
    beta: 0.75
  }
}
layer {
  name: "conv2/3x3_reduce"
  type: "Convolution"
  bottom: "pool1/norm1"
  top: "conv2/3x3_reduce"
  param {
    lr_mult: 1
    decay_mult: 1
  }
  param {
    lr_mult: 2
    decay_mult: 0
  }
  convolution_param {
    num_output: 64
    kernel_size: 1
    weight_filler {
      type: "xavier"
      std: 0.1
    }
    bias_filler {
      type: "constant"
      value: 0.2
    }
  }
}
layer {
  name: "conv2/relu_3x3_reduce"
  type: "ReLU"
  bottom: "conv2/3x3_reduce"
  top: "conv2/3x3_reduce"
}
layer {
  name: "conv2/3x3"
  type: "Convolution"
  bottom: "conv2/3x3_reduce"
  top: "conv2/3x3"
  param {
    lr_mult: 1
    decay_mult: 1
  }
  param {
    lr_mult: 2
    decay_mult: 0
  }
  convolution_param {
    num_output: 192
    pad: 1
    kernel_size: 3
    weight_filler {
      type: "xavier"
      std: 0.03
    }
    bias_filler {
      type: "constant"
      value: 0.2
    }
  }
}
layer {
  name: "conv2/relu_3x3"
  type: "ReLU"
  bottom: "conv2/3x3"
  top: "conv2/3x3"
}
layer {
  name: "conv2/norm2"
  type: "LRN"
  bottom: "conv2/3x3"
  top: "conv2/norm2"
  lrn_param {
    local_size: 5
    alpha: 0.0001
    beta: 0.75
  }
}
layer {
  name: "pool2/3x3_s2"
  type: "Pooling"
  bottom: "conv2/norm2"
  top: "pool2/3x3_s2"
  pooling_param {
    pool: MAX
    kernel_size: 3
    stride: 2
  }
}
layer {
  name: "inception_3a/1x1"
  type: "Convolution"
  bottom: "pool2/3x3_s2"
  top: "inception_3a/1x1"
  param {
    lr_mult: 1
    decay_mult: 1
  }
  param {
    lr_mult: 2
    decay_mult: 0
  }
  convolution_param {
    num_output: 64
    kernel_size: 1
    weight_filler {
      type: "xavier"
      std: 0.03
    }
    bias_filler {
      type: "constant"
      value: 0.2
    }
  }
}
layer {
  name: "inception_3a/relu_1x1"
  type: "ReLU"
  bottom: "inception_3a/1x1"
  top: "inception_3a/1x1"
}
layer {
  name: "inception_3a/3x3_reduce"
  type: "Convolution"
  bottom: "pool2/3x3_s2"
  top: "inception_3a/3x3_reduce"
  param {
    lr_mult: 1
    decay_mult: 1
  }
  param {
    lr_mult: 2
    decay_mult: 0
  }
  convolution_param {
    num_output: 96
    kernel_size: 1
    weight_filler {
      type: "xavier"
      std: 0.09
    }
    bias_filler {
      type: "constant"
      value: 0.2
    }
  }
}
layer {
  name: "inception_3a/relu_3x3_reduce"
  type: "ReLU"
  bottom: "inception_3a/3x3_reduce"
  top: "inception_3a/3x3_reduce"
}
layer {
  name: "inception_3a/3x3"
  type: "Convolution"
  bottom: "inception_3a/3x3_reduce"
  top: "inception_3a/3x3"
  param {
    lr_mult: 1
    decay_mult: 1
  }
  param {
    lr_mult: 2
    decay_mult: 0
  }
  convolution_param {
    num_output: 128
    pad: 1
    kernel_size: 3
    weight_filler {
      type: "xavier"
      std: 0.03
    }
    bias_filler {
      type: "constant"
      value: 0.2
    }
  }
}
layer {
  name: "inception_3a/relu_3x3"
  type: "ReLU"
  bottom: "inception_3a/3x3"
  top: "inception_3a/3x3"
}
layer {
  name: "inception_3a/5x5_reduce"
  type: "Convolution"
  bottom: "pool2/3x3_s2"
  top: "inception_3a/5x5_reduce"
  param {
    lr_mult: 1
    decay_mult: 1
  }
  param {
    lr_mult: 2
    decay_mult: 0
  }
  convolution_param {
    num_output: 16
    kernel_size: 1
    weight_filler {
      type: "xavier"
      std: 0.2
    }
    bias_filler {
      type: "constant"
      value: 0.2
    }
  }
}
layer {
  name: "inception_3a/relu_5x5_reduce"
  type: "ReLU"
  bottom: "inception_3a/5x5_reduce"
  top: "inception_3a/5x5_reduce"
}
layer {
  name: "inception_3a/5x5"
  type: "Convolution"
  bottom: "inception_3a/5x5_reduce"
  top: "inception_3a/5x5"
  param {
    lr_mult: 1
    decay_mult: 1
  }
  param {
    lr_mult: 2
    decay_mult: 0
  }
  convolution_param {
    num_output: 32
    pad: 2
    kernel_size: 5
    weight_filler {
      type: "xavier"
      std: 0.03
    }
    bias_filler {
      type: "constant"
      value: 0.2
    }
  }
}
layer {
  name: "inception_3a/relu_5x5"
  type: "ReLU"
  bottom: "inception_3a/5x5"
  top: "inception_3a/5x5"
}
layer {
  name: "inception_3a/pool"
  type: "Pooling"
  bottom: "pool2/3x3_s2"
  top: "inception_3a/pool"
  pooling_param {
    pool: MAX
    kernel_size: 3
    stride: 1
    pad: 1
  }
}
layer {
  name: "inception_3a/pool_proj"
  type: "Convolution"
  bottom: "inception_3a/pool"
  top: "inception_3a/pool_proj"
  param {
    lr_mult: 1
    decay_mult: 1
  }
  param {
    lr_mult: 2
    decay_mult: 0
  }
  convolution_param {
    num_output: 32
    kernel_size: 1
    weight_filler {
      type: "xavier"
      std: 0.1
    }
    bias_filler {
      type: "constant"
      value: 0.2
    }
  }
}
layer {
  name: "inception_3a/relu_pool_proj"
  type: "ReLU"
  bottom: "inception_3a/pool_proj"
  top: "inception_3a/pool_proj"
}
layer {
  name: "inception_3a/output"
  type: "Concat"
  bottom: "inception_3a/1x1"
  bottom: "inception_3a/3x3"
  bottom: "inception_3a/5x5"
  bottom: "inception_3a/pool_proj"
  top: "inception_3a/output"
}
layer {
  name: "inception_3b/1x1"
  type: "Convolution"
  bottom: "inception_3a/output"
  top: "inception_3b/1x1"
  param {
    lr_mult: 1
    decay_mult: 1
  }
  param {
    lr_mult: 2
    decay_mult: 0
  }
  convolution_param {
    num_output: 128
    kernel_size: 1
    weight_filler {
      type: "xavier"
      std: 0.03
    }
    bias_filler {
      type: "constant"
      value: 0.2
    }
  }
}
layer {
  name: "inception_3b/relu_1x1"
  type: "ReLU"
  bottom: "inception_3b/1x1"
  top: "inception_3b/1x1"
}
layer {
  name: "inception_3b/3x3_reduce"
  type: "Convolution"
  bottom: "inception_3a/output"
  top: "inception_3b/3x3_reduce"
  param {
    lr_mult: 1
    decay_mult: 1
  }
  param {
    lr_mult: 2
    decay_mult: 0
  }
  convolution_param {
    num_output: 128
    kernel_size: 1
    weight_filler {
      type: "xavier"
      std: 0.09
    }
    bias_filler {
      type: "constant"
      value: 0.2
    }
  }
}
layer {
  name: "inception_3b/relu_3x3_reduce"
  type: "ReLU"
  bottom: "inception_3b/3x3_reduce"
  top: "inception_3b/3x3_reduce"
}
layer {
  name: "inception_3b/3x3"
  type: "Convolution"
  bottom: "inception_3b/3x3_reduce"
  top: "inception_3b/3x3"
  param {
    lr_mult: 1
    decay_mult: 1
  }
  param {
    lr_mult: 2
    decay_mult: 0
  }
  convolution_param {
    num_output: 192
    pad: 1
    kernel_size: 3
    weight_filler {
      type: "xavier"
      std: 0.03
    }
    bias_filler {
      type: "constant"
      value: 0.2
    }
  }
}
layer {
  name: "inception_3b/relu_3x3"
  type: "ReLU"
  bottom: "inception_3b/3x3"
  top: "inception_3b/3x3"
}
layer {
  name: "inception_3b/5x5_reduce"
  type: "Convolution"
  bottom: "inception_3a/output"
  top: "inception_3b/5x5_reduce"
  param {
    lr_mult: 1
    decay_mult: 1
  }
  param {
    lr_mult: 2
    decay_mult: 0
  }
  convolution_param {
    num_output: 32
    kernel_size: 1
    weight_filler {
      type: "xavier"
      std: 0.2
    }
    bias_filler {
      type: "constant"
      value: 0.2
    }
  }
}
layer {
  name: "inception_3b/relu_5x5_reduce"
  type: "ReLU"
  bottom: "inception_3b/5x5_reduce"
  top: "inception_3b/5x5_reduce"
}
layer {
  name: "inception_3b/5x5"
  type: "Convolution"
  bottom: "inception_3b/5x5_reduce"
  top: "inception_3b/5x5"
  param {
    lr_mult: 1
    decay_mult: 1
  }
  param {
    lr_mult: 2
    decay_mult: 0
  }
  convolution_param {
    num_output: 96
    pad: 2
    kernel_size: 5
    weight_filler {
      type: "xavier"
      std: 0.03
    }
    bias_filler {
      type: "constant"
      value: 0.2
    }
  }
}
layer {
  name: "inception_3b/relu_5x5"
  type: "ReLU"
  bottom: "inception_3b/5x5"
  top: "inception_3b/5x5"
}
layer {
  name: "inception_3b/pool"
  type: "Pooling"
  bottom: "inception_3a/output"
  top: "inception_3b/pool"
  pooling_param {
    pool: MAX
    kernel_size: 3
    stride: 1
    pad: 1
  }
}
layer {
  name: "inception_3b/pool_proj"
  type: "Convolution"
  bottom: "inception_3b/pool"
  top: "inception_3b/pool_proj"
  param {
    lr_mult: 1
    decay_mult: 1
  }
  param {
    lr_mult: 2
    decay_mult: 0
  }
  convolution_param {
    num_output: 64
    kernel_size: 1
    weight_filler {
      type: "xavier"
      std: 0.1
    }
    bias_filler {
      type: "constant"
      value: 0.2
    }
  }
}
layer {
  name: "inception_3b/relu_pool_proj"
  type: "ReLU"
  bottom: "inception_3b/pool_proj"
  top: "inception_3b/pool_proj"
}
layer {
  name: "inception_3b/output"
  type: "Concat"
  bottom: "inception_3b/1x1"
  bottom: "inception_3b/3x3"
  bottom: "inception_3b/5x5"
  bottom: "inception_3b/pool_proj"
  top: "inception_3b/output"
}
layer {
  name: "pool3/3x3_s2"
  type: "Pooling"
  bottom: "inception_3b/output"
  top: "pool3/3x3_s2"
  pooling_param {
    pool: MAX
    kernel_size: 3
    stride: 2
  }
}
layer {
  name: "inception_4a/1x1"
  type: "Convolution"
  bottom: "pool3/3x3_s2"
  top: "inception_4a/1x1"
  param {
    lr_mult: 1
    decay_mult: 1
  }
  param {
    lr_mult: 2
    decay_mult: 0
  }
  convolution_param {
    num_output: 192
    kernel_size: 1
    weight_filler {
      type: "xavier"
      std: 0.03
    }
    bias_filler {
      type: "constant"
      value: 0.2
    }
  }
}
layer {
  name: "inception_4a/relu_1x1"
  type: "ReLU"
  bottom: "inception_4a/1x1"
  top: "inception_4a/1x1"
}
layer {
  name: "inception_4a/3x3_reduce"
  type: "Convolution"
  bottom: "pool3/3x3_s2"
  top: "inception_4a/3x3_reduce"
  param {
    lr_mult: 1
    decay_mult: 1
  }
  param {
    lr_mult: 2
    decay_mult: 0
  }
  convolution_param {
    num_output: 96
    kernel_size: 1
    weight_filler {
      type: "xavier"
      std: 0.09
    }
    bias_filler {
      type: "constant"
      value: 0.2
    }
  }
}
layer {
  name: "inception_4a/relu_3x3_reduce"
  type: "ReLU"
  bottom: "inception_4a/3x3_reduce"
  top: "inception_4a/3x3_reduce"
}
layer {
  name: "inception_4a/3x3"
  type: "Convolution"
  bottom: "inception_4a/3x3_reduce"
  top: "inception_4a/3x3"
  param {
    lr_mult: 1
    decay_mult: 1
  }
  param {
    lr_mult: 2
    decay_mult: 0
  }
  convolution_param {
    num_output: 208
    pad: 1
    kernel_size: 3
    weight_filler {
      type: "xavier"
      std: 0.03
    }
    bias_filler {
      type: "constant"
      value: 0.2
    }
  }
}
layer {
  name: "inception_4a/relu_3x3"
  type: "ReLU"
  bottom: "inception_4a/3x3"
  top: "inception_4a/3x3"
}
layer {
  name: "inception_4a/5x5_reduce"
  type: "Convolution"
  bottom: "pool3/3x3_s2"
  top: "inception_4a/5x5_reduce"
  param {
    lr_mult: 1
    decay_mult: 1
  }
  param {
    lr_mult: 2
    decay_mult: 0
  }
  convolution_param {
    num_output: 16
    kernel_size: 1
    weight_filler {
      type: "xavier"
      std: 0.2
    }
    bias_filler {
      type: "constant"
      value: 0.2
    }
  }
}
layer {
  name: "inception_4a/relu_5x5_reduce"
  type: "ReLU"
  bottom: "inception_4a/5x5_reduce"
  top: "inception_4a/5x5_reduce"
}
layer {
  name: "inception_4a/5x5"
  type: "Convolution"
  bottom: "inception_4a/5x5_reduce"
  top: "inception_4a/5x5"
  param {
    lr_mult: 1
    decay_mult: 1
  }
  param {
    lr_mult: 2
    decay_mult: 0
  }
  convolution_param {
    num_output: 48
    pad: 2
    kernel_size: 5
    weight_filler {
      type: "xavier"
      std: 0.03
    }
    bias_filler {
      type: "constant"
      value: 0.2
    }
  }
}
layer {
  name: "inception_4a/relu_5x5"
  type: "ReLU"
  bottom: "inception_4a/5x5"
  top: "inception_4a/5x5"
}
layer {
  name: "inception_4a/pool"
  type: "Pooling"
  bottom: "pool3/3x3_s2"
  top: "inception_4a/pool"
  pooling_param {
    pool: MAX
    kernel_size: 3
    stride: 1
    pad: 1
  }
}
layer {
  name: "inception_4a/pool_proj"
  type: "Convolution"
  bottom: "inception_4a/pool"
  top: "inception_4a/pool_proj"
  param {
    lr_mult: 1
    decay_mult: 1
  }
  param {
    lr_mult: 2
    decay_mult: 0
  }
  convolution_param {
    num_output: 64
    kernel_size: 1
    weight_filler {
      type: "xavier"
      std: 0.1
    }
    bias_filler {
      type: "constant"
      value: 0.2
    }
  }
}
layer {
  name: "inception_4a/relu_pool_proj"
  type: "ReLU"
  bottom: "inception_4a/pool_proj"
  top: "inception_4a/pool_proj"
}
layer {
  name: "inception_4a/output"
  type: "Concat"
  bottom: "inception_4a/1x1"
  bottom: "inception_4a/3x3"
  bottom: "inception_4a/5x5"
  bottom: "inception_4a/pool_proj"
  top: "inception_4a/output"
}
layer {
  name: "inception_4b/1x1"
  type: "Convolution"
  bottom: "inception_4a/output"
  top: "inception_4b/1x1"
  param {
    lr_mult: 1
    decay_mult: 1
  }
  param {
    lr_mult: 2
    decay_mult: 0
  }
  convolution_param {
    num_output: 160
    kernel_size: 1
    weight_filler {
      type: "xavier"
      std: 0.03
    }
    bias_filler {
      type: "constant"
      value: 0.2
    }
  }
}
layer {
  name: "inception_4b/relu_1x1"
  type: "ReLU"
  bottom: "inception_4b/1x1"
  top: "inception_4b/1x1"
}
layer {
  name: "inception_4b/3x3_reduce"
  type: "Convolution"
  bottom: "inception_4a/output"
  top: "inception_4b/3x3_reduce"
  param {
    lr_mult: 1
    decay_mult: 1
  }
  param {
    lr_mult: 2
    decay_mult: 0
  }
  convolution_param {
    num_output: 112
    kernel_size: 1
    weight_filler {
      type: "xavier"
      std: 0.09
    }
    bias_filler {
      type: "constant"
      value: 0.2
    }
  }
}
layer {
  name: "inception_4b/relu_3x3_reduce"
  type: "ReLU"
  bottom: "inception_4b/3x3_reduce"
  top: "inception_4b/3x3_reduce"
}
layer {
  name: "inception_4b/3x3"
  type: "Convolution"
  bottom: "inception_4b/3x3_reduce"
  top: "inception_4b/3x3"
  param {
    lr_mult: 1
    decay_mult: 1
  }
  param {
    lr_mult: 2
    decay_mult: 0
  }
  convolution_param {
    num_output: 224
    pad: 1
    kernel_size: 3
    weight_filler {
      type: "xavier"
      std: 0.03
    }
    bias_filler {
      type: "constant"
      value: 0.2
    }
  }
}
layer {
  name: "inception_4b/relu_3x3"
  type: "ReLU"
  bottom: "inception_4b/3x3"
  top: "inception_4b/3x3"
}
layer {
  name: "inception_4b/5x5_reduce"
  type: "Convolution"
  bottom: "inception_4a/output"
  top: "inception_4b/5x5_reduce"
  param {
    lr_mult: 1
    decay_mult: 1
  }
  param {
    lr_mult: 2
    decay_mult: 0
  }
  convolution_param {
    num_output: 24
    kernel_size: 1
    weight_filler {
      type: "xavier"
      std: 0.2
    }
    bias_filler {
      type: "constant"
      value: 0.2
    }
  }
}
layer {
  name: "inception_4b/relu_5x5_reduce"
  type: "ReLU"
  bottom: "inception_4b/5x5_reduce"
  top: "inception_4b/5x5_reduce"
}
layer {
  name: "inception_4b/5x5"
  type: "Convolution"
  bottom: "inception_4b/5x5_reduce"
  top: "inception_4b/5x5"
  param {
    lr_mult: 1
    decay_mult: 1
  }
  param {
    lr_mult: 2
    decay_mult: 0
  }
  convolution_param {
    num_output: 64
    pad: 2
    kernel_size: 5
    weight_filler {
      type: "xavier"
      std: 0.03
    }
    bias_filler {
      type: "constant"
      value: 0.2
    }
  }
}
layer {
  name: "inception_4b/relu_5x5"
  type: "ReLU"
  bottom: "inception_4b/5x5"
  top: "inception_4b/5x5"
}
layer {
  name: "inception_4b/pool"
  type: "Pooling"
  bottom: "inception_4a/output"
  top: "inception_4b/pool"
  pooling_param {
    pool: MAX
    kernel_size: 3
    stride: 1
    pad: 1
  }
}
layer {
  name: "inception_4b/pool_proj"
  type: "Convolution"
  bottom: "inception_4b/pool"
  top: "inception_4b/pool_proj"
  param {
    lr_mult: 1
    decay_mult: 1
  }
  param {
    lr_mult: 2
    decay_mult: 0
  }
  convolution_param {
    num_output: 64
    kernel_size: 1
    weight_filler {
      type: "xavier"
      std: 0.1
    }
    bias_filler {
      type: "constant"
      value: 0.2
    }
  }
}
layer {
  name: "inception_4b/relu_pool_proj"
  type: "ReLU"
  bottom: "inception_4b/pool_proj"
  top: "inception_4b/pool_proj"
}
layer {
  name: "inception_4b/output"
  type: "Concat"
  bottom: "inception_4b/1x1"
  bottom: "inception_4b/3x3"
  bottom: "inception_4b/5x5"
  bottom: "inception_4b/pool_proj"
  top: "inception_4b/output"
}
layer {
  name: "inception_4c/1x1"
  type: "Convolution"
  bottom: "inception_4b/output"
  top: "inception_4c/1x1"
  param {
    lr_mult: 1
    decay_mult: 1
  }
  param {
    lr_mult: 2
    decay_mult: 0
  }
  convolution_param {
    num_output: 128
    kernel_size: 1
    weight_filler {
      type: "xavier"
      std: 0.03
    }
    bias_filler {
      type: "constant"
      value: 0.2
    }
  }
}
layer {
  name: "inception_4c/relu_1x1"
  type: "ReLU"
  bottom: "inception_4c/1x1"
  top: "inception_4c/1x1"
}
layer {
  name: "inception_4c/3x3_reduce"
  type: "Convolution"
  bottom: "inception_4b/output"
  top: "inception_4c/3x3_reduce"
  param {
    lr_mult: 1
    decay_mult: 1
  }
  param {
    lr_mult: 2
    decay_mult: 0
  }
  convolution_param {
    num_output: 128
    kernel_size: 1
    weight_filler {
      type: "xavier"
      std: 0.09
    }
    bias_filler {
      type: "constant"
      value: 0.2
    }
  }
}
layer {
  name: "inception_4c/relu_3x3_reduce"
  type: "ReLU"
  bottom: "inception_4c/3x3_reduce"
  top: "inception_4c/3x3_reduce"
}
layer {
  name: "inception_4c/3x3"
  type: "Convolution"
  bottom: "inception_4c/3x3_reduce"
  top: "inception_4c/3x3"
  param {
    lr_mult: 1
    decay_mult: 1
  }
  param {
    lr_mult: 2
    decay_mult: 0
  }
  convolution_param {
    num_output: 256
    pad: 1
    kernel_size: 3
    weight_filler {
      type: "xavier"
      std: 0.03
    }
    bias_filler {
      type: "constant"
      value: 0.2
    }
  }
}
layer {
  name: "inception_4c/relu_3x3"
  type: "ReLU"
  bottom: "inception_4c/3x3"
  top: "inception_4c/3x3"
}
layer {
  name: "inception_4c/5x5_reduce"
  type: "Convolution"
  bottom: "inception_4b/output"
  top: "inception_4c/5x5_reduce"
  param {
    lr_mult: 1
    decay_mult: 1
  }
  param {
    lr_mult: 2
    decay_mult: 0
  }
  convolution_param {
    num_output: 24
    kernel_size: 1
    weight_filler {
      type: "xavier"
      std: 0.2
    }
    bias_filler {
      type: "constant"
      value: 0.2
    }
  }
}
layer {
  name: "inception_4c/relu_5x5_reduce"
  type: "ReLU"
  bottom: "inception_4c/5x5_reduce"
  top: "inception_4c/5x5_reduce"
}
layer {
  name: "inception_4c/5x5"
  type: "Convolution"
  bottom: "inception_4c/5x5_reduce"
  top: "inception_4c/5x5"
  param {
    lr_mult: 1
    decay_mult: 1
  }
  param {
    lr_mult: 2
    decay_mult: 0
  }
  convolution_param {
    num_output: 64
    pad: 2
    kernel_size: 5
    weight_filler {
      type: "xavier"
      std: 0.03
    }
    bias_filler {
      type: "constant"
      value: 0.2
    }
  }
}
layer {
  name: "inception_4c/relu_5x5"
  type: "ReLU"
  bottom: "inception_4c/5x5"
  top: "inception_4c/5x5"
}
layer {
  name: "inception_4c/pool"
  type: "Pooling"
  bottom: "inception_4b/output"
  top: "inception_4c/pool"
  pooling_param {
    pool: MAX
    kernel_size: 3
    stride: 1
    pad: 1
  }
}
layer {
  name: "inception_4c/pool_proj"
  type: "Convolution"
  bottom: "inception_4c/pool"
  top: "inception_4c/pool_proj"
  param {
    lr_mult: 1
    decay_mult: 1
  }
  param {
    lr_mult: 2
    decay_mult: 0
  }
  convolution_param {
    num_output: 64
    kernel_size: 1
    weight_filler {
      type: "xavier"
      std: 0.1
    }
    bias_filler {
      type: "constant"
      value: 0.2
    }
  }
}
layer {
  name: "inception_4c/relu_pool_proj"
  type: "ReLU"
  bottom: "inception_4c/pool_proj"
  top: "inception_4c/pool_proj"
}
layer {
  name: "inception_4c/output"
  type: "Concat"
  bottom: "inception_4c/1x1"
  bottom: "inception_4c/3x3"
  bottom: "inception_4c/5x5"
  bottom: "inception_4c/pool_proj"
  top: "inception_4c/output"
}
layer {
  name: "inception_4d/1x1"
  type: "Convolution"
  bottom: "inception_4c/output"
  top: "inception_4d/1x1"
  param {
    lr_mult: 1
    decay_mult: 1
  }
  param {
    lr_mult: 2
    decay_mult: 0
  }
  convolution_param {
    num_output: 112
    kernel_size: 1
    weight_filler {
      type: "xavier"
      std: 0.03
    }
    bias_filler {
      type: "constant"
      value: 0.2
    }
  }
}
layer {
  name: "inception_4d/relu_1x1"
  type: "ReLU"
  bottom: "inception_4d/1x1"
  top: "inception_4d/1x1"
}
layer {
  name: "inception_4d/3x3_reduce"
  type: "Convolution"
  bottom: "inception_4c/output"
  top: "inception_4d/3x3_reduce"
  param {
    lr_mult: 1
    decay_mult: 1
  }
  param {
    lr_mult: 2
    decay_mult: 0
  }
  convolution_param {
    num_output: 144
    kernel_size: 1
    weight_filler {
      type: "xavier"
      std: 0.09
    }
    bias_filler {
      type: "constant"
      value: 0.2
    }
  }
}
layer {
  name: "inception_4d/relu_3x3_reduce"
  type: "ReLU"
  bottom: "inception_4d/3x3_reduce"
  top: "inception_4d/3x3_reduce"
}
layer {
  name: "inception_4d/3x3"
  type: "Convolution"
  bottom: "inception_4d/3x3_reduce"
  top: "inception_4d/3x3"
  param {
    lr_mult: 1
    decay_mult: 1
  }
  param {
    lr_mult: 2
    decay_mult: 0
  }
  convolution_param {
    num_output: 288
    pad: 1
    kernel_size: 3
    weight_filler {
      type: "xavier"
      std: 0.03
    }
    bias_filler {
      type: "constant"
      value: 0.2
    }
  }
}
layer {
  name: "inception_4d/relu_3x3"
  type: "ReLU"
  bottom: "inception_4d/3x3"
  top: "inception_4d/3x3"
}
layer {
  name: "inception_4d/5x5_reduce"
  type: "Convolution"
  bottom: "inception_4c/output"
  top: "inception_4d/5x5_reduce"
  param {
    lr_mult: 1
    decay_mult: 1
  }
  param {
    lr_mult: 2
    decay_mult: 0
  }
  convolution_param {
    num_output: 32
    kernel_size: 1
    weight_filler {
      type: "xavier"
      std: 0.2
    }
    bias_filler {
      type: "constant"
      value: 0.2
    }
  }
}
layer {
  name: "inception_4d/relu_5x5_reduce"
  type: "ReLU"
  bottom: "inception_4d/5x5_reduce"
  top: "inception_4d/5x5_reduce"
}
layer {
  name: "inception_4d/5x5"
  type: "Convolution"
  bottom: "inception_4d/5x5_reduce"
  top: "inception_4d/5x5"
  param {
    lr_mult: 1
    decay_mult: 1
  }
  param {
    lr_mult: 2
    decay_mult: 0
  }
  convolution_param {
    num_output: 64
    pad: 2
    kernel_size: 5
    weight_filler {
      type: "xavier"
      std: 0.03
    }
    bias_filler {
      type: "constant"
      value: 0.2
    }
  }
}
layer {
  name: "inception_4d/relu_5x5"
  type: "ReLU"
  bottom: "inception_4d/5x5"
  top: "inception_4d/5x5"
}
layer {
  name: "inception_4d/pool"
  type: "Pooling"
  bottom: "inception_4c/output"
  top: "inception_4d/pool"
  pooling_param {
    pool: MAX
    kernel_size: 3
    stride: 1
    pad: 1
  }
}
layer {
  name: "inception_4d/pool_proj"
  type: "Convolution"
  bottom: "inception_4d/pool"
  top: "inception_4d/pool_proj"
  param {
    lr_mult: 1
    decay_mult: 1
  }
  param {
    lr_mult: 2
    decay_mult: 0
  }
  convolution_param {
    num_output: 64
    kernel_size: 1
    weight_filler {
      type: "xavier"
      std: 0.1
    }
    bias_filler {
      type: "constant"
      value: 0.2
    }
  }
}
layer {
  name: "inception_4d/relu_pool_proj"
  type: "ReLU"
  bottom: "inception_4d/pool_proj"
  top: "inception_4d/pool_proj"
}
layer {
  name: "inception_4d/output"
  type: "Concat"
  bottom: "inception_4d/1x1"
  bottom: "inception_4d/3x3"
  bottom: "inception_4d/5x5"
  bottom: "inception_4d/pool_proj"
  top: "inception_4d/output"
}
layer {
  name: "inception_4e/1x1"
  type: "Convolution"
  bottom: "inception_4d/output"
  top: "inception_4e/1x1"
  param {
    lr_mult: 1
    decay_mult: 1
  }
  param {
    lr_mult: 2
    decay_mult: 0
  }
  convolution_param {
    num_output: 256
    kernel_size: 1
    weight_filler {
      type: "xavier"
      std: 0.03
    }
    bias_filler {
      type: "constant"
      value: 0.2
    }
  }
}
layer {
  name: "inception_4e/relu_1x1"
  type: "ReLU"
  bottom: "inception_4e/1x1"
  top: "inception_4e/1x1"
}
layer {
  name: "inception_4e/3x3_reduce"
  type: "Convolution"
  bottom: "inception_4d/output"
  top: "inception_4e/3x3_reduce"
  param {
    lr_mult: 1
    decay_mult: 1
  }
  param {
    lr_mult: 2
    decay_mult: 0
  }
  convolution_param {
    num_output: 160
    kernel_size: 1
    weight_filler {
      type: "xavier"
      std: 0.09
    }
    bias_filler {
      type: "constant"
      value: 0.2
    }
  }
}
layer {
  name: "inception_4e/relu_3x3_reduce"
  type: "ReLU"
  bottom: "inception_4e/3x3_reduce"
  top: "inception_4e/3x3_reduce"
}
layer {
  name: "inception_4e/3x3"
  type: "Convolution"
  bottom: "inception_4e/3x3_reduce"
  top: "inception_4e/3x3"
  param {
    lr_mult: 1
    decay_mult: 1
  }
  param {
    lr_mult: 2
    decay_mult: 0
  }
  convolution_param {
    num_output: 320
    pad: 1
    kernel_size: 3
    weight_filler {
      type: "xavier"
      std: 0.03
    }
    bias_filler {
      type: "constant"
      value: 0.2
    }
  }
}
layer {
  name: "inception_4e/relu_3x3"
  type: "ReLU"
  bottom: "inception_4e/3x3"
  top: "inception_4e/3x3"
}
layer {
  name: "inception_4e/5x5_reduce"
  type: "Convolution"
  bottom: "inception_4d/output"
  top: "inception_4e/5x5_reduce"
  param {
    lr_mult: 1
    decay_mult: 1
  }
  param {
    lr_mult: 2
    decay_mult: 0
  }
  convolution_param {
    num_output: 32
    kernel_size: 1
    weight_filler {
      type: "xavier"
      std: 0.2
    }
    bias_filler {
      type: "constant"
      value: 0.2
    }
  }
}
layer {
  name: "inception_4e/relu_5x5_reduce"
  type: "ReLU"
  bottom: "inception_4e/5x5_reduce"
  top: "inception_4e/5x5_reduce"
}
layer {
  name: "inception_4e/5x5"
  type: "Convolution"
  bottom: "inception_4e/5x5_reduce"
  top: "inception_4e/5x5"
  param {
    lr_mult: 1
    decay_mult: 1
  }
  param {
    lr_mult: 2
    decay_mult: 0
  }
  convolution_param {
    num_output: 128
    pad: 2
    kernel_size: 5
    weight_filler {
      type: "xavier"
      std: 0.03
    }
    bias_filler {
      type: "constant"
      value: 0.2
    }
  }
}
layer {
  name: "inception_4e/relu_5x5"
  type: "ReLU"
  bottom: "inception_4e/5x5"
  top: "inception_4e/5x5"
}
layer {
  name: "inception_4e/pool"
  type: "Pooling"
  bottom: "inception_4d/output"
  top: "inception_4e/pool"
  pooling_param {
    pool: MAX
    kernel_size: 3
    stride: 1
    pad: 1
  }
}
layer {
  name: "inception_4e/pool_proj"
  type: "Convolution"
  bottom: "inception_4e/pool"
  top: "inception_4e/pool_proj"
  param {
    lr_mult: 1
    decay_mult: 1
  }
  param {
    lr_mult: 2
    decay_mult: 0
  }
  convolution_param {
    num_output: 128
    kernel_size: 1
    weight_filler {
      type: "xavier"
      std: 0.1
    }
    bias_filler {
      type: "constant"
      value: 0.2
    }
  }
}
layer {
  name: "inception_4e/relu_pool_proj"
  type: "ReLU"
  bottom: "inception_4e/pool_proj"
  top: "inception_4e/pool_proj"
}
layer {
  name: "inception_4e/output"
  type: "Concat"
  bottom: "inception_4e/1x1"
  bottom: "inception_4e/3x3"
  bottom: "inception_4e/5x5"
  bottom: "inception_4e/pool_proj"
  top: "inception_4e/output"
}
layer {
  name: "pool4/3x3_s2"
  type: "Pooling"
  bottom: "inception_4e/output"
  top: "pool4/3x3_s2"
  pooling_param {
    pool: MAX
    kernel_size: 3
    stride: 2
  }
}
layer {
  name: "inception_5a/1x1"
  type: "Convolution"
  bottom: "pool4/3x3_s2"
  top: "inception_5a/1x1"
  param {
    lr_mult: 1
    decay_mult: 1
  }
  param {
    lr_mult: 2
    decay_mult: 0
  }
  convolution_param {
    num_output: 256
    kernel_size: 1
    weight_filler {
      type: "xavier"
      std: 0.03
    }
    bias_filler {
      type: "constant"
      value: 0.2
    }
  }
}
layer {
  name: "inception_5a/relu_1x1"
  type: "ReLU"
  bottom: "inception_5a/1x1"
  top: "inception_5a/1x1"
}
layer {
  name: "inception_5a/3x3_reduce"
  type: "Convolution"
  bottom: "pool4/3x3_s2"
  top: "inception_5a/3x3_reduce"
  param {
    lr_mult: 1
    decay_mult: 1
  }
  param {
    lr_mult: 2
    decay_mult: 0
  }
  convolution_param {
    num_output: 160
    kernel_size: 1
    weight_filler {
      type: "xavier"
      std: 0.09
    }
    bias_filler {
      type: "constant"
      value: 0.2
    }
  }
}
layer {
  name: "inception_5a/relu_3x3_reduce"
  type: "ReLU"
  bottom: "inception_5a/3x3_reduce"
  top: "inception_5a/3x3_reduce"
}
layer {
  name: "inception_5a/3x3"
  type: "Convolution"
  bottom: "inception_5a/3x3_reduce"
  top: "inception_5a/3x3"
  param {
    lr_mult: 1
    decay_mult: 1
  }
  param {
    lr_mult: 2
    decay_mult: 0
  }
  convolution_param {
    num_output: 320
    pad: 1
    kernel_size: 3
    weight_filler {
      type: "xavier"
      std: 0.03
    }
    bias_filler {
      type: "constant"
      value: 0.2
    }
  }
}
layer {
  name: "inception_5a/relu_3x3"
  type: "ReLU"
  bottom: "inception_5a/3x3"
  top: "inception_5a/3x3"
}
layer {
  name: "inception_5a/5x5_reduce"
  type: "Convolution"
  bottom: "pool4/3x3_s2"
  top: "inception_5a/5x5_reduce"
  param {
    lr_mult: 1
    decay_mult: 1
  }
  param {
    lr_mult: 2
    decay_mult: 0
  }
  convolution_param {
    num_output: 32
    kernel_size: 1
    weight_filler {
      type: "xavier"
      std: 0.2
    }
    bias_filler {
      type: "constant"
      value: 0.2
    }
  }
}
layer {
  name: "inception_5a/relu_5x5_reduce"
  type: "ReLU"
  bott
I0922 13:45:20.615528 2063708928 net.cpp:435] Input 0 -> data
I0922 13:45:20.615550 2063708928 layer_factory.hpp:76] Creating layer conv1/7x7_s2
I0922 13:45:20.615561 2063708928 net.cpp:110] Creating Layer conv1/7x7_s2
I0922 13:45:20.615567 2063708928 net.cpp:477] conv1/7x7_s2 <- data
I0922 13:45:20.615573 2063708928 net.cpp:433] conv1/7x7_s2 -> conv1/7x7_s2
I0922 13:45:20.620257 2063708928 net.cpp:155] Setting up conv1/7x7_s2
I0922 13:45:20.620273 2063708928 net.cpp:163] Top shape: 10 64 112 112 (8028160)
I0922 13:45:20.620287 2063708928 layer_factory.hpp:76] Creating layer conv1/relu_7x7
I0922 13:45:20.620297 2063708928 net.cpp:110] Creating Layer conv1/relu_7x7
I0922 13:45:20.620302 2063708928 net.cpp:477] conv1/relu_7x7 <- conv1/7x7_s2
I0922 13:45:20.620308 2063708928 net.cpp:419] conv1/relu_7x7 -> conv1/7x7_s2 (in-place)
I0922 13:45:20.620317 2063708928 net.cpp:155] Setting up conv1/relu_7x7
I0922 13:45:20.620321 2063708928 net.cpp:163] Top shape: 10 64 112 112 (8028160)
I0922 13:45:20.620327 2063708928 layer_factory.hpp:76] Creating layer pool1/3x3_s2
I0922 13:45:20.620334 2063708928 net.cpp:110] Creating Layer pool1/3x3_s2
I0922 13:45:20.620339 2063708928 net.cpp:477] pool1/3x3_s2 <- conv1/7x7_s2
I0922 13:45:20.620344 2063708928 net.cpp:433] pool1/3x3_s2 -> pool1/3x3_s2
I0922 13:45:20.620355 2063708928 net.cpp:155] Setting up pool1/3x3_s2
I0922 13:45:20.620359 2063708928 net.cpp:163] Top shape: 10 64 56 56 (2007040)
I0922 13:45:20.620365 2063708928 layer_factory.hpp:76] Creating layer pool1/norm1
I0922 13:45:20.620374 2063708928 net.cpp:110] Creating Layer pool1/norm1
I0922 13:45:20.620379 2063708928 net.cpp:477] pool1/norm1 <- pool1/3x3_s2
I0922 13:45:20.620384 2063708928 net.cpp:433] pool1/norm1 -> pool1/norm1
I0922 13:45:20.620396 2063708928 net.cpp:155] Setting up pool1/norm1
I0922 13:45:20.620400 2063708928 net.cpp:163] Top shape: 10 64 56 56 (2007040)
I0922 13:45:20.620406 2063708928 layer_factory.hpp:76] Creating layer conv2/3x3_reduce
I0922 13:45:20.620414 2063708928 net.cpp:110] Creating Layer conv2/3x3_reduce
I0922 13:45:20.620419 2063708928 net.cpp:477] conv2/3x3_reduce <- pool1/norm1
I0922 13:45:20.620424 2063708928 net.cpp:433] conv2/3x3_reduce -> conv2/3x3_reduce
I0922 13:45:20.620471 2063708928 net.cpp:155] Setting up conv2/3x3_reduce
I0922 13:45:20.620477 2063708928 net.cpp:163] Top shape: 10 64 56 56 (2007040)
I0922 13:45:20.620486 2063708928 layer_factory.hpp:76] Creating layer conv2/relu_3x3_reduce
I0922 13:45:20.620492 2063708928 net.cpp:110] Creating Layer conv2/relu_3x3_reduce
I0922 13:45:20.620496 2063708928 net.cpp:477] conv2/relu_3x3_reduce <- conv2/3x3_reduce
I0922 13:45:20.620502 2063708928 net.cpp:419] conv2/relu_3x3_reduce -> conv2/3x3_reduce (in-place)
I0922 13:45:20.620508 2063708928 net.cpp:155] Setting up conv2/relu_3x3_reduce
I0922 13:45:20.620512 2063708928 net.cpp:163] Top shape: 10 64 56 56 (2007040)
I0922 13:45:20.620518 2063708928 layer_factory.hpp:76] Creating layer conv2/3x3
I0922 13:45:20.620524 2063708928 net.cpp:110] Creating Layer conv2/3x3
I0922 13:45:20.620528 2063708928 net.cpp:477] conv2/3x3 <- conv2/3x3_reduce
I0922 13:45:20.620534 2063708928 net.cpp:433] conv2/3x3 -> conv2/3x3
I0922 13:45:20.621376 2063708928 net.cpp:155] Setting up conv2/3x3
I0922 13:45:20.621383 2063708928 net.cpp:163] Top shape: 10 192 56 56 (6021120)
I0922 13:45:20.621402 2063708928 layer_factory.hpp:76] Creating layer conv2/relu_3x3
I0922 13:45:20.621409 2063708928 net.cpp:110] Creating Layer conv2/relu_3x3
I0922 13:45:20.621413 2063708928 net.cpp:477] conv2/relu_3x3 <- conv2/3x3
I0922 13:45:20.621419 2063708928 net.cpp:419] conv2/relu_3x3 -> conv2/3x3 (in-place)
I0922 13:45:20.621425 2063708928 net.cpp:155] Setting up conv2/relu_3x3
I0922 13:45:20.621429 2063708928 net.cpp:163] Top shape: 10 192 56 56 (6021120)
I0922 13:45:20.621435 2063708928 layer_factory.hpp:76] Creating layer conv2/norm2
I0922 13:45:20.621441 2063708928 net.cpp:110] Creating Layer conv2/norm2
I0922 13:45:20.621445 2063708928 net.cpp:477] conv2/norm2 <- conv2/3x3
I0922 13:45:20.621451 2063708928 net.cpp:433] conv2/norm2 -> conv2/norm2
I0922 13:45:20.621459 2063708928 net.cpp:155] Setting up conv2/norm2
I0922 13:45:20.621464 2063708928 net.cpp:163] Top shape: 10 192 56 56 (6021120)
I0922 13:45:20.621469 2063708928 layer_factory.hpp:76] Creating layer pool2/3x3_s2
I0922 13:45:20.621474 2063708928 net.cpp:110] Creating Layer pool2/3x3_s2
I0922 13:45:20.621479 2063708928 net.cpp:477] pool2/3x3_s2 <- conv2/norm2
I0922 13:45:20.621484 2063708928 net.cpp:433] pool2/3x3_s2 -> pool2/3x3_s2
I0922 13:45:20.621492 2063708928 net.cpp:155] Setting up pool2/3x3_s2
I0922 13:45:20.621496 2063708928 net.cpp:163] Top shape: 10 192 28 28 (1505280)
I0922 13:45:20.621501 2063708928 layer_factory.hpp:76] Creating layer pool2/3x3_s2_pool2/3x3_s2_0_split
I0922 13:45:20.621510 2063708928 net.cpp:110] Creating Layer pool2/3x3_s2_pool2/3x3_s2_0_split
I0922 13:45:20.621513 2063708928 net.cpp:477] pool2/3x3_s2_pool2/3x3_s2_0_split <- pool2/3x3_s2
I0922 13:45:20.621520 2063708928 net.cpp:433] pool2/3x3_s2_pool2/3x3_s2_0_split -> pool2/3x3_s2_pool2/3x3_s2_0_split_0
I0922 13:45:20.621528 2063708928 net.cpp:433] pool2/3x3_s2_pool2/3x3_s2_0_split -> pool2/3x3_s2_pool2/3x3_s2_0_split_1
I0922 13:45:20.621537 2063708928 net.cpp:433] pool2/3x3_s2_pool2/3x3_s2_0_split -> pool2/3x3_s2_pool2/3x3_s2_0_split_2
I0922 13:45:20.621546 2063708928 net.cpp:433] pool2/3x3_s2_pool2/3x3_s2_0_split -> pool2/3x3_s2_pool2/3x3_s2_0_split_3
I0922 13:45:20.621556 2063708928 net.cpp:155] Setting up pool2/3x3_s2_pool2/3x3_s2_0_split
I0922 13:45:20.621559 2063708928 net.cpp:163] Top shape: 10 192 28 28 (1505280)
I0922 13:45:20.621564 2063708928 net.cpp:163] Top shape: 10 192 28 28 (1505280)
I0922 13:45:20.621569 2063708928 net.cpp:163] Top shape: 10 192 28 28 (1505280)
I0922 13:45:20.621574 2063708928 net.cpp:163] Top shape: 10 192 28 28 (1505280)
I0922 13:45:20.621580 2063708928 layer_factory.hpp:76] Creating layer inception_3a/1x1
I0922 13:45:20.621587 2063708928 net.cpp:110] Creating Layer inception_3a/1x1
I0922 13:45:20.621592 2063708928 net.cpp:477] inception_3a/1x1 <- pool2/3x3_s2_pool2/3x3_s2_0_split_0
I0922 13:45:20.621598 2063708928 net.cpp:433] inception_3a/1x1 -> inception_3a/1x1
I0922 13:45:20.621706 2063708928 net.cpp:155] Setting up inception_3a/1x1
I0922 13:45:20.621711 2063708928 net.cpp:163] Top shape: 10 64 28 28 (501760)
I0922 13:45:20.621718 2063708928 layer_factory.hpp:76] Creating layer inception_3a/relu_1x1
I0922 13:45:20.621724 2063708928 net.cpp:110] Creating Layer inception_3a/relu_1x1
I0922 13:45:20.621728 2063708928 net.cpp:477] inception_3a/relu_1x1 <- inception_3a/1x1
I0922 13:45:20.621734 2063708928 net.cpp:419] inception_3a/relu_1x1 -> inception_3a/1x1 (in-place)
I0922 13:45:20.621740 2063708928 net.cpp:155] Setting up inception_3a/relu_1x1
I0922 13:45:20.621744 2063708928 net.cpp:163] Top shape: 10 64 28 28 (501760)
I0922 13:45:20.621750 2063708928 layer_factory.hpp:76] Creating layer inception_3a/3x3_reduce
I0922 13:45:20.621757 2063708928 net.cpp:110] Creating Layer inception_3a/3x3_reduce
I0922 13:45:20.621762 2063708928 net.cpp:477] inception_3a/3x3_reduce <- pool2/3x3_s2_pool2/3x3_s2_0_split_1
I0922 13:45:20.621768 2063708928 net.cpp:433] inception_3a/3x3_reduce -> inception_3a/3x3_reduce
I0922 13:45:20.621948 2063708928 net.cpp:155] Setting up inception_3a/3x3_reduce
I0922 13:45:20.621959 2063708928 net.cpp:163] Top shape: 10 96 28 28 (752640)
I0922 13:45:20.621968 2063708928 layer_factory.hpp:76] Creating layer inception_3a/relu_3x3_reduce
I0922 13:45:20.621975 2063708928 net.cpp:110] Creating Layer inception_3a/relu_3x3_reduce
I0922 13:45:20.621980 2063708928 net.cpp:477] inception_3a/relu_3x3_reduce <- inception_3a/3x3_reduce
I0922 13:45:20.621989 2063708928 net.cpp:419] inception_3a/relu_3x3_reduce -> inception_3a/3x3_reduce (in-place)
I0922 13:45:20.621996 2063708928 net.cpp:155] Setting up inception_3a/relu_3x3_reduce
I0922 13:45:20.622000 2063708928 net.cpp:163] Top shape: 10 96 28 28 (752640)
I0922 13:45:20.622005 2063708928 layer_factory.hpp:76] Creating layer inception_3a/3x3
I0922 13:45:20.622012 2063708928 net.cpp:110] Creating Layer inception_3a/3x3
I0922 13:45:20.622016 2063708928 net.cpp:477] inception_3a/3x3 <- inception_3a/3x3_reduce
I0922 13:45:20.622022 2063708928 net.cpp:433] inception_3a/3x3 -> inception_3a/3x3
I0922 13:45:20.623167 2063708928 net.cpp:155] Setting up inception_3a/3x3
I0922 13:45:20.623178 2063708928 net.cpp:163] Top shape: 10 128 28 28 (1003520)
I0922 13:45:20.623185 2063708928 layer_factory.hpp:76] Creating layer inception_3a/relu_3x3
I0922 13:45:20.623198 2063708928 net.cpp:110] Creating Layer inception_3a/relu_3x3
I0922 13:45:20.623203 2063708928 net.cpp:477] inception_3a/relu_3x3 <- inception_3a/3x3
I0922 13:45:20.623208 2063708928 net.cpp:419] inception_3a/relu_3x3 -> inception_3a/3x3 (in-place)
I0922 13:45:20.623215 2063708928 net.cpp:155] Setting up inception_3a/relu_3x3
I0922 13:45:20.623219 2063708928 net.cpp:163] Top shape: 10 128 28 28 (1003520)
I0922 13:45:20.623225 2063708928 layer_factory.hpp:76] Creating layer inception_3a/5x5_reduce
I0922 13:45:20.623232 2063708928 net.cpp:110] Creating Layer inception_3a/5x5_reduce
I0922 13:45:20.623237 2063708928 net.cpp:477] inception_3a/5x5_reduce <- pool2/3x3_s2_pool2/3x3_s2_0_split_2
I0922 13:45:20.623244 2063708928 net.cpp:433] inception_3a/5x5_reduce -> inception_3a/5x5_reduce
I0922 13:45:20.623283 2063708928 net.cpp:155] Setting up inception_3a/5x5_reduce
I0922 13:45:20.623289 2063708928 net.cpp:163] Top shape: 10 16 28 28 (125440)
I0922 13:45:20.623296 2063708928 layer_factory.hpp:76] Creating layer inception_3a/relu_5x5_reduce
I0922 13:45:20.623301 2063708928 net.cpp:110] Creating Layer inception_3a/relu_5x5_reduce
I0922 13:45:20.623306 2063708928 net.cpp:477] inception_3a/relu_5x5_reduce <- inception_3a/5x5_reduce
I0922 13:45:20.623312 2063708928 net.cpp:419] inception_3a/relu_5x5_reduce -> inception_3a/5x5_reduce (in-place)
I0922 13:45:20.623318 2063708928 net.cpp:155] Setting up inception_3a/relu_5x5_reduce
I0922 13:45:20.623322 2063708928 net.cpp:163] Top shape: 10 16 28 28 (125440)
I0922 13:45:20.623328 2063708928 layer_factory.hpp:76] Creating layer inception_3a/5x5
I0922 13:45:20.623334 2063708928 net.cpp:110] Creating Layer inception_3a/5x5
I0922 13:45:20.623339 2063708928 net.cpp:477] inception_3a/5x5 <- inception_3a/5x5_reduce
I0922 13:45:20.623347 2063708928 net.cpp:433] inception_3a/5x5 -> inception_3a/5x5
I0922 13:45:20.623482 2063708928 net.cpp:155] Setting up inception_3a/5x5
I0922 13:45:20.623491 2063708928 net.cpp:163] Top shape: 10 32 28 28 (250880)
I0922 13:45:20.623497 2063708928 layer_factory.hpp:76] Creating layer inception_3a/relu_5x5
I0922 13:45:20.623503 2063708928 net.cpp:110] Creating Layer inception_3a/relu_5x5
I0922 13:45:20.623507 2063708928 net.cpp:477] inception_3a/relu_5x5 <- inception_3a/5x5
I0922 13:45:20.623513 2063708928 net.cpp:419] inception_3a/relu_5x5 -> inception_3a/5x5 (in-place)
I0922 13:45:20.623519 2063708928 net.cpp:155] Setting up inception_3a/relu_5x5
I0922 13:45:20.623523 2063708928 net.cpp:163] Top shape: 10 32 28 28 (250880)
I0922 13:45:20.623528 2063708928 layer_factory.hpp:76] Creating layer inception_3a/pool
I0922 13:45:20.623535 2063708928 net.cpp:110] Creating Layer inception_3a/pool
I0922 13:45:20.623539 2063708928 net.cpp:477] inception_3a/pool <- pool2/3x3_s2_pool2/3x3_s2_0_split_3
I0922 13:45:20.623548 2063708928 net.cpp:433] inception_3a/pool -> inception_3a/pool
I0922 13:45:20.623564 2063708928 net.cpp:155] Setting up inception_3a/pool
I0922 13:45:20.623569 2063708928 net.cpp:163] Top shape: 10 192 28 28 (1505280)
I0922 13:45:20.623575 2063708928 layer_factory.hpp:76] Creating layer inception_3a/pool_proj
I0922 13:45:20.623582 2063708928 net.cpp:110] Creating Layer inception_3a/pool_proj
I0922 13:45:20.623586 2063708928 net.cpp:477] inception_3a/pool_proj <- inception_3a/pool
I0922 13:45:20.623594 2063708928 net.cpp:433] inception_3a/pool_proj -> inception_3a/pool_proj
I0922 13:45:20.623663 2063708928 net.cpp:155] Setting up inception_3a/pool_proj
I0922 13:45:20.623668 2063708928 net.cpp:163] Top shape: 10 32 28 28 (250880)
I0922 13:45:20.623680 2063708928 layer_factory.hpp:76] Creating layer inception_3a/relu_pool_proj
I0922 13:45:20.623687 2063708928 net.cpp:110] Creating Layer inception_3a/relu_pool_proj
I0922 13:45:20.623692 2063708928 net.cpp:477] inception_3a/relu_pool_proj <- inception_3a/pool_proj
I0922 13:45:20.623697 2063708928 net.cpp:419] inception_3a/relu_pool_proj -> inception_3a/pool_proj (in-place)
I0922 13:45:20.623703 2063708928 net.cpp:155] Setting up inception_3a/relu_pool_proj
I0922 13:45:20.623708 2063708928 net.cpp:163] Top shape: 10 32 28 28 (250880)
I0922 13:45:20.623713 2063708928 layer_factory.hpp:76] Creating layer inception_3a/output
I0922 13:45:20.623718 2063708928 net.cpp:110] Creating Layer inception_3a/output
I0922 13:45:20.623723 2063708928 net.cpp:477] inception_3a/output <- inception_3a/1x1
I0922 13:45:20.623728 2063708928 net.cpp:477] inception_3a/output <- inception_3a/3x3
I0922 13:45:20.623733 2063708928 net.cpp:477] inception_3a/output <- inception_3a/5x5
I0922 13:45:20.623738 2063708928 net.cpp:477] inception_3a/output <- inception_3a/pool_proj
I0922 13:45:20.623744 2063708928 net.cpp:433] inception_3a/output -> inception_3a/output
I0922 13:45:20.623751 2063708928 net.cpp:155] Setting up inception_3a/output
I0922 13:45:20.623755 2063708928 net.cpp:163] Top shape: 10 256 28 28 (2007040)
I0922 13:45:20.623760 2063708928 layer_factory.hpp:76] Creating layer inception_3a/output_inception_3a/output_0_split
I0922 13:45:20.623769 2063708928 net.cpp:110] Creating Layer inception_3a/output_inception_3a/output_0_split
I0922 13:45:20.623775 2063708928 net.cpp:477] inception_3a/output_inception_3a/output_0_split <- inception_3a/output
I0922 13:45:20.623780 2063708928 net.cpp:433] inception_3a/output_inception_3a/output_0_split -> inception_3a/output_inception_3a/output_0_split_0
I0922 13:45:20.623790 2063708928 net.cpp:433] inception_3a/output_inception_3a/output_0_split -> inception_3a/output_inception_3a/output_0_split_1
I0922 13:45:20.623798 2063708928 net.cpp:433] inception_3a/output_inception_3a/output_0_split -> inception_3a/output_inception_3a/output_0_split_2
I0922 13:45:20.623806 2063708928 net.cpp:433] inception_3a/output_inception_3a/output_0_split -> inception_3a/output_inception_3a/output_0_split_3
I0922 13:45:20.623816 2063708928 net.cpp:155] Setting up inception_3a/output_inception_3a/output_0_split
I0922 13:45:20.623821 2063708928 net.cpp:163] Top shape: 10 256 28 28 (2007040)
I0922 13:45:20.623826 2063708928 net.cpp:163] Top shape: 10 256 28 28 (2007040)
I0922 13:45:20.623831 2063708928 net.cpp:163] Top shape: 10 256 28 28 (2007040)
I0922 13:45:20.623836 2063708928 net.cpp:163] Top shape: 10 256 28 28 (2007040)
I0922 13:45:20.623842 2063708928 layer_factory.hpp:76] Creating layer inception_3b/1x1
I0922 13:45:20.623850 2063708928 net.cpp:110] Creating Layer inception_3b/1x1
I0922 13:45:20.623854 2063708928 net.cpp:477] inception_3b/1x1 <- inception_3a/output_inception_3a/output_0_split_0
I0922 13:45:20.623862 2063708928 net.cpp:433] inception_3b/1x1 -> inception_3b/1x1
I0922 13:45:20.624119 2063708928 net.cpp:155] Setting up inception_3b/1x1
I0922 13:45:20.624125 2063708928 net.cpp:163] Top shape: 10 128 28 28 (1003520)
I0922 13:45:20.624131 2063708928 layer_factory.hpp:76] Creating layer inception_3b/relu_1x1
I0922 13:45:20.624137 2063708928 net.cpp:110] Creating Layer inception_3b/relu_1x1
I0922 13:45:20.624146 2063708928 net.cpp:477] inception_3b/relu_1x1 <- inception_3b/1x1
I0922 13:45:20.624152 2063708928 net.cpp:419] inception_3b/relu_1x1 -> inception_3b/1x1 (in-place)
I0922 13:45:20.624160 2063708928 net.cpp:155] Setting up inception_3b/relu_1x1
I0922 13:45:20.624163 2063708928 net.cpp:163] Top shape: 10 128 28 28 (1003520)
I0922 13:45:20.624168 2063708928 layer_factory.hpp:76] Creating layer inception_3b/3x3_reduce
I0922 13:45:20.624177 2063708928 net.cpp:110] Creating Layer inception_3b/3x3_reduce
I0922 13:45:20.624182 2063708928 net.cpp:477] inception_3b/3x3_reduce <- inception_3a/output_inception_3a/output_0_split_1
I0922 13:45:20.624189 2063708928 net.cpp:433] inception_3b/3x3_reduce -> inception_3b/3x3_reduce
I0922 13:45:20.624625 2063708928 net.cpp:155] Setting up inception_3b/3x3_reduce
I0922 13:45:20.624645 2063708928 net.cpp:163] Top shape: 10 128 28 28 (1003520)
I0922 13:45:20.624656 2063708928 layer_factory.hpp:76] Creating layer inception_3b/relu_3x3_reduce
I0922 13:45:20.624665 2063708928 net.cpp:110] Creating Layer inception_3b/relu_3x3_reduce
I0922 13:45:20.624671 2063708928 net.cpp:477] inception_3b/relu_3x3_reduce <- inception_3b/3x3_reduce
I0922 13:45:20.624678 2063708928 net.cpp:419] inception_3b/relu_3x3_reduce -> inception_3b/3x3_reduce (in-place)
I0922 13:45:20.624688 2063708928 net.cpp:155] Setting up inception_3b/relu_3x3_reduce
I0922 13:45:20.624694 2063708928 net.cpp:163] Top shape: 10 128 28 28 (1003520)
I0922 13:45:20.624704 2063708928 layer_factory.hpp:76] Creating layer inception_3b/3x3
I0922 13:45:20.624714 2063708928 net.cpp:110] Creating Layer inception_3b/3x3
I0922 13:45:20.624719 2063708928 net.cpp:477] inception_3b/3x3 <- inception_3b/3x3_reduce
I0922 13:45:20.624729 2063708928 net.cpp:433] inception_3b/3x3 -> inception_3b/3x3
I0922 13:45:20.626600 2063708928 net.cpp:155] Setting up inception_3b/3x3
I0922 13:45:20.626616 2063708928 net.cpp:163] Top shape: 10 192 28 28 (1505280)
I0922 13:45:20.626627 2063708928 layer_factory.hpp:76] Creating layer inception_3b/relu_3x3
I0922 13:45:20.626637 2063708928 net.cpp:110] Creating Layer inception_3b/relu_3x3
I0922 13:45:20.626646 2063708928 net.cpp:477] inception_3b/relu_3x3 <- inception_3b/3x3
I0922 13:45:20.626652 2063708928 net.cpp:419] inception_3b/relu_3x3 -> inception_3b/3x3 (in-place)
I0922 13:45:20.626660 2063708928 net.cpp:155] Setting up inception_3b/relu_3x3
I0922 13:45:20.626665 2063708928 net.cpp:163] Top shape: 10 192 28 28 (1505280)
I0922 13:45:20.626672 2063708928 layer_factory.hpp:76] Creating layer inception_3b/5x5_reduce
I0922 13:45:20.626687 2063708928 net.cpp:110] Creating Layer inception_3b/5x5_reduce
I0922 13:45:20.626691 2063708928 net.cpp:477] inception_3b/5x5_reduce <- inception_3a/output_inception_3a/output_0_split_2
I0922 13:45:20.626699 2063708928 net.cpp:433] inception_3b/5x5_reduce -> inception_3b/5x5_reduce
I0922 13:45:20.626778 2063708928 net.cpp:155] Setting up inception_3b/5x5_reduce
I0922 13:45:20.626785 2063708928 net.cpp:163] Top shape: 10 32 28 28 (250880)
I0922 13:45:20.626791 2063708928 layer_factory.hpp:76] Creating layer inception_3b/relu_5x5_reduce
I0922 13:45:20.626799 2063708928 net.cpp:110] Creating Layer inception_3b/relu_5x5_reduce
I0922 13:45:20.626803 2063708928 net.cpp:477] inception_3b/relu_5x5_reduce <- inception_3b/5x5_reduce
I0922 13:45:20.626809 2063708928 net.cpp:419] inception_3b/relu_5x5_reduce -> inception_3b/5x5_reduce (in-place)
I0922 13:45:20.626817 2063708928 net.cpp:155] Setting up inception_3b/relu_5x5_reduce
I0922 13:45:20.626821 2063708928 net.cpp:163] Top shape: 10 32 28 28 (250880)
I0922 13:45:20.626827 2063708928 layer_factory.hpp:76] Creating layer inception_3b/5x5
I0922 13:45:20.626833 2063708928 net.cpp:110] Creating Layer inception_3b/5x5
I0922 13:45:20.626838 2063708928 net.cpp:477] inception_3b/5x5 <- inception_3b/5x5_reduce
I0922 13:45:20.626845 2063708928 net.cpp:433] inception_3b/5x5 -> inception_3b/5x5
I0922 13:45:20.627601 2063708928 net.cpp:155] Setting up inception_3b/5x5
I0922 13:45:20.627610 2063708928 net.cpp:163] Top shape: 10 96 28 28 (752640)
I0922 13:45:20.627636 2063708928 layer_factory.hpp:76] Creating layer inception_3b/relu_5x5
I0922 13:45:20.627643 2063708928 net.cpp:110] Creating Layer inception_3b/relu_5x5
I0922 13:45:20.627650 2063708928 net.cpp:477] inception_3b/relu_5x5 <- inception_3b/5x5
I0922 13:45:20.627655 2063708928 net.cpp:419] inception_3b/relu_5x5 -> inception_3b/5x5 (in-place)
I0922 13:45:20.627662 2063708928 net.cpp:155] Setting up inception_3b/relu_5x5
I0922 13:45:20.627666 2063708928 net.cpp:163] Top shape: 10 96 28 28 (752640)
I0922 13:45:20.627671 2063708928 layer_factory.hpp:76] Creating layer inception_3b/pool
I0922 13:45:20.627678 2063708928 net.cpp:110] Creating Layer inception_3b/pool
I0922 13:45:20.627683 2063708928 net.cpp:477] inception_3b/pool <- inception_3a/output_inception_3a/output_0_split_3
I0922 13:45:20.627689 2063708928 net.cpp:433] inception_3b/pool -> inception_3b/pool
I0922 13:45:20.627701 2063708928 net.cpp:155] Setting up inception_3b/pool
I0922 13:45:20.627704 2063708928 net.cpp:163] Top shape: 10 256 28 28 (2007040)
I0922 13:45:20.627710 2063708928 layer_factory.hpp:76] Creating layer inception_3b/pool_proj
I0922 13:45:20.627717 2063708928 net.cpp:110] Creating Layer inception_3b/pool_proj
I0922 13:45:20.627722 2063708928 net.cpp:477] inception_3b/pool_proj <- inception_3b/pool
I0922 13:45:20.627728 2063708928 net.cpp:433] inception_3b/pool_proj -> inception_3b/pool_proj
I0922 13:45:20.627894 2063708928 net.cpp:155] Setting up inception_3b/pool_proj
I0922 13:45:20.627902 2063708928 net.cpp:163] Top shape: 10 64 28 28 (501760)
I0922 13:45:20.627908 2063708928 layer_factory.hpp:76] Creating layer inception_3b/relu_pool_proj
I0922 13:45:20.627915 2063708928 net.cpp:110] Creating Layer inception_3b/relu_pool_proj
I0922 13:45:20.627919 2063708928 net.cpp:477] inception_3b/relu_pool_proj <- inception_3b/pool_proj
I0922 13:45:20.627925 2063708928 net.cpp:419] inception_3b/relu_pool_proj -> inception_3b/pool_proj (in-place)
I0922 13:45:20.627931 2063708928 net.cpp:155] Setting up inception_3b/relu_pool_proj
I0922 13:45:20.627936 2063708928 net.cpp:163] Top shape: 10 64 28 28 (501760)
I0922 13:45:20.627941 2063708928 layer_factory.hpp:76] Creating layer inception_3b/output
I0922 13:45:20.627948 2063708928 net.cpp:110] Creating Layer inception_3b/output
I0922 13:45:20.627951 2063708928 net.cpp:477] inception_3b/output <- inception_3b/1x1
I0922 13:45:20.627957 2063708928 net.cpp:477] inception_3b/output <- inception_3b/3x3
I0922 13:45:20.627961 2063708928 net.cpp:477] inception_3b/output <- inception_3b/5x5
I0922 13:45:20.627966 2063708928 net.cpp:477] inception_3b/output <- inception_3b/pool_proj
I0922 13:45:20.627972 2063708928 net.cpp:433] inception_3b/output -> inception_3b/output
I0922 13:45:20.627981 2063708928 net.cpp:155] Setting up inception_3b/output
I0922 13:45:20.627985 2063708928 net.cpp:163] Top shape: 10 480 28 28 (3763200)
I0922 13:45:20.627991 2063708928 layer_factory.hpp:76] Creating layer pool3/3x3_s2
I0922 13:45:20.627997 2063708928 net.cpp:110] Creating Layer pool3/3x3_s2
I0922 13:45:20.628001 2063708928 net.cpp:477] pool3/3x3_s2 <- inception_3b/output
I0922 13:45:20.628007 2063708928 net.cpp:433] pool3/3x3_s2 -> pool3/3x3_s2
I0922 13:45:20.628021 2063708928 net.cpp:155] Setting up pool3/3x3_s2
I0922 13:45:20.628026 2063708928 net.cpp:163] Top shape: 10 480 14 14 (940800)
I0922 13:45:20.628031 2063708928 layer_factory.hpp:76] Creating layer pool3/3x3_s2_pool3/3x3_s2_0_split
I0922 13:45:20.628041 2063708928 net.cpp:110] Creating Layer pool3/3x3_s2_pool3/3x3_s2_0_split
I0922 13:45:20.628044 2063708928 net.cpp:477] pool3/3x3_s2_pool3/3x3_s2_0_split <- pool3/3x3_s2
I0922 13:45:20.628051 2063708928 net.cpp:433] pool3/3x3_s2_pool3/3x3_s2_0_split -> pool3/3x3_s2_pool3/3x3_s2_0_split_0
I0922 13:45:20.628059 2063708928 net.cpp:433] pool3/3x3_s2_pool3/3x3_s2_0_split -> pool3/3x3_s2_pool3/3x3_s2_0_split_1
I0922 13:45:20.628068 2063708928 net.cpp:433] pool3/3x3_s2_pool3/3x3_s2_0_split -> pool3/3x3_s2_pool3/3x3_s2_0_split_2
I0922 13:45:20.628077 2063708928 net.cpp:433] pool3/3x3_s2_pool3/3x3_s2_0_split -> pool3/3x3_s2_pool3/3x3_s2_0_split_3
I0922 13:45:20.628094 2063708928 net.cpp:155] Setting up pool3/3x3_s2_pool3/3x3_s2_0_split
I0922 13:45:20.628099 2063708928 net.cpp:163] Top shape: 10 480 14 14 (940800)
I0922 13:45:20.628105 2063708928 net.cpp:163] Top shape: 10 480 14 14 (940800)
I0922 13:45:20.628110 2063708928 net.cpp:163] Top shape: 10 480 14 14 (940800)
I0922 13:45:20.628115 2063708928 net.cpp:163] Top shape: 10 480 14 14 (940800)
I0922 13:45:20.628121 2063708928 layer_factory.hpp:76] Creating layer inception_4a/1x1
I0922 13:45:20.628129 2063708928 net.cpp:110] Creating Layer inception_4a/1x1
I0922 13:45:20.628134 2063708928 net.cpp:477] inception_4a/1x1 <- pool3/3x3_s2_pool3/3x3_s2_0_split_0
I0922 13:45:20.628140 2063708928 net.cpp:433] inception_4a/1x1 -> inception_4a/1x1
I0922 13:45:20.629084 2063708928 net.cpp:155] Setting up inception_4a/1x1
I0922 13:45:20.629097 2063708928 net.cpp:163] Top shape: 10 192 14 14 (376320)
I0922 13:45:20.629107 2063708928 layer_factory.hpp:76] Creating layer inception_4a/relu_1x1
I0922 13:45:20.629115 2063708928 net.cpp:110] Creating Layer inception_4a/relu_1x1
I0922 13:45:20.629122 2063708928 net.cpp:477] inception_4a/relu_1x1 <- inception_4a/1x1
I0922 13:45:20.629127 2063708928 net.cpp:419] inception_4a/relu_1x1 -> inception_4a/1x1 (in-place)
I0922 13:45:20.629134 2063708928 net.cpp:155] Setting up inception_4a/relu_1x1
I0922 13:45:20.629138 2063708928 net.cpp:163] Top shape: 10 192 14 14 (376320)
I0922 13:45:20.629144 2063708928 layer_factory.hpp:76] Creating layer inception_4a/3x3_reduce
I0922 13:45:20.629153 2063708928 net.cpp:110] Creating Layer inception_4a/3x3_reduce
I0922 13:45:20.629156 2063708928 net.cpp:477] inception_4a/3x3_reduce <- pool3/3x3_s2_pool3/3x3_s2_0_split_1
I0922 13:45:20.629164 2063708928 net.cpp:433] inception_4a/3x3_reduce -> inception_4a/3x3_reduce
I0922 13:45:20.629535 2063708928 net.cpp:155] Setting up inception_4a/3x3_reduce
I0922 13:45:20.629544 2063708928 net.cpp:163] Top shape: 10 96 14 14 (188160)
I0922 13:45:20.629557 2063708928 layer_factory.hpp:76] Creating layer inception_4a/relu_3x3_reduce
I0922 13:45:20.629565 2063708928 net.cpp:110] Creating Layer inception_4a/relu_3x3_reduce
I0922 13:45:20.629570 2063708928 net.cpp:477] inception_4a/relu_3x3_reduce <- inception_4a/3x3_reduce
I0922 13:45:20.629576 2063708928 net.cpp:419] inception_4a/relu_3x3_reduce -> inception_4a/3x3_reduce (in-place)
I0922 13:45:20.629585 2063708928 net.cpp:155] Setting up inception_4a/relu_3x3_reduce
I0922 13:45:20.629590 2063708928 net.cpp:163] Top shape: 10 96 14 14 (188160)
I0922 13:45:20.629595 2063708928 layer_factory.hpp:76] Creating layer inception_4a/3x3
I0922 13:45:20.629603 2063708928 net.cpp:110] Creating Layer inception_4a/3x3
I0922 13:45:20.629608 2063708928 net.cpp:477] inception_4a/3x3 <- inception_4a/3x3_reduce
I0922 13:45:20.629616 2063708928 net.cpp:433] inception_4a/3x3 -> inception_4a/3x3
I0922 13:45:20.631508 2063708928 net.cpp:155] Setting up inception_4a/3x3
I0922 13:45:20.631523 2063708928 net.cpp:163] Top shape: 10 208 14 14 (407680)
I0922 13:45:20.631533 2063708928 layer_factory.hpp:76] Creating layer inception_4a/relu_3x3
I0922 13:45:20.631542 2063708928 net.cpp:110] Creating Layer inception_4a/relu_3x3
I0922 13:45:20.631548 2063708928 net.cpp:477] inception_4a/relu_3x3 <- inception_4a/3x3
I0922 13:45:20.631554 2063708928 net.cpp:419] inception_4a/relu_3x3 -> inception_4a/3x3 (in-place)
I0922 13:45:20.631562 2063708928 net.cpp:155] Setting up inception_4a/relu_3x3
I0922 13:45:20.631567 2063708928 net.cpp:163] Top shape: 10 208 14 14 (407680)
I0922 13:45:20.631573 2063708928 layer_factory.hpp:76] Creating layer inception_4a/5x5_reduce
I0922 13:45:20.631582 2063708928 net.cpp:110] Creating Layer inception_4a/5x5_reduce
I0922 13:45:20.631587 2063708928 net.cpp:477] inception_4a/5x5_reduce <- pool3/3x3_s2_pool3/3x3_s2_0_split_2
I0922 13:45:20.631594 2063708928 net.cpp:433] inception_4a/5x5_reduce -> inception_4a/5x5_reduce
I0922 13:45:20.631681 2063708928 net.cpp:155] Setting up inception_4a/5x5_reduce
I0922 13:45:20.631687 2063708928 net.cpp:163] Top shape: 10 16 14 14 (31360)
I0922 13:45:20.631707 2063708928 layer_factory.hpp:76] Creating layer inception_4a/relu_5x5_reduce
I0922 13:45:20.631716 2063708928 net.cpp:110] Creating Layer inception_4a/relu_5x5_reduce
I0922 13:45:20.631721 2063708928 net.cpp:477] inception_4a/relu_5x5_reduce <- inception_4a/5x5_reduce
I0922 13:45:20.631726 2063708928 net.cpp:419] inception_4a/relu_5x5_reduce -> inception_4a/5x5_reduce (in-place)
I0922 13:45:20.631733 2063708928 net.cpp:155] Setting up inception_4a/relu_5x5_reduce
I0922 13:45:20.631738 2063708928 net.cpp:163] Top shape: 10 16 14 14 (31360)
I0922 13:45:20.631743 2063708928 layer_factory.hpp:76] Creating layer inception_4a/5x5
I0922 13:45:20.631750 2063708928 net.cpp:110] Creating Layer inception_4a/5x5
I0922 13:45:20.631755 2063708928 net.cpp:477] inception_4a/5x5 <- inception_4a/5x5_reduce
I0922 13:45:20.631762 2063708928 net.cpp:433] inception_4a/5x5 -> inception_4a/5x5
I0922 13:45:20.632017 2063708928 net.cpp:155] Setting up inception_4a/5x5
I0922 13:45:20.632026 2063708928 net.cpp:163] Top shape: 10 48 14 14 (94080)
I0922 13:45:20.632035 2063708928 layer_factory.hpp:76] Creating layer inception_4a/relu_5x5
I0922 13:45:20.632041 2063708928 net.cpp:110] Creating Layer inception_4a/relu_5x5
I0922 13:45:20.632046 2063708928 net.cpp:477] inception_4a/relu_5x5 <- inception_4a/5x5
I0922 13:45:20.632052 2063708928 net.cpp:419] inception_4a/relu_5x5 -> inception_4a/5x5 (in-place)
I0922 13:45:20.632058 2063708928 net.cpp:155] Setting up inception_4a/relu_5x5
I0922 13:45:20.632063 2063708928 net.cpp:163] Top shape: 10 48 14 14 (94080)
I0922 13:45:20.632068 2063708928 layer_factory.hpp:76] Creating layer inception_4a/pool
I0922 13:45:20.632076 2063708928 net.cpp:110] Creating Layer inception_4a/pool
I0922 13:45:20.632081 2063708928 net.cpp:477] inception_4a/pool <- pool3/3x3_s2_pool3/3x3_s2_0_split_3
I0922 13:45:20.632086 2063708928 net.cpp:433] inception_4a/pool -> inception_4a/pool
I0922 13:45:20.632096 2063708928 net.cpp:155] Setting up inception_4a/pool
I0922 13:45:20.632100 2063708928 net.cpp:163] Top shape: 10 480 14 14 (940800)
I0922 13:45:20.632107 2063708928 layer_factory.hpp:76] Creating layer inception_4a/pool_proj
I0922 13:45:20.632113 2063708928 net.cpp:110] Creating Layer inception_4a/pool_proj
I0922 13:45:20.632118 2063708928 net.cpp:477] inception_4a/pool_proj <- inception_4a/pool
I0922 13:45:20.632124 2063708928 net.cpp:433] inception_4a/pool_proj -> inception_4a/pool_proj
I0922 13:45:20.632426 2063708928 net.cpp:155] Setting up inception_4a/pool_proj
I0922 13:45:20.632433 2063708928 net.cpp:163] Top shape: 10 64 14 14 (125440)
I0922 13:45:20.632441 2063708928 layer_factory.hpp:76] Creating layer inception_4a/relu_pool_proj
I0922 13:45:20.632448 2063708928 net.cpp:110] Creating Layer inception_4a/relu_pool_proj
I0922 13:45:20.632452 2063708928 net.cpp:477] inception_4a/relu_pool_proj <- inception_4a/pool_proj
I0922 13:45:20.632458 2063708928 net.cpp:419] inception_4a/relu_pool_proj -> inception_4a/pool_proj (in-place)
I0922 13:45:20.632467 2063708928 net.cpp:155] Setting up inception_4a/relu_pool_proj
I0922 13:45:20.632470 2063708928 net.cpp:163] Top shape: 10 64 14 14 (125440)
I0922 13:45:20.632477 2063708928 layer_factory.hpp:76] Creating layer inception_4a/output
I0922 13:45:20.632483 2063708928 net.cpp:110] Creating Layer inception_4a/output
I0922 13:45:20.632486 2063708928 net.cpp:477] inception_4a/output <- inception_4a/1x1
I0922 13:45:20.632493 2063708928 net.cpp:477] inception_4a/output <- inception_4a/3x3
I0922 13:45:20.632498 2063708928 net.cpp:477] inception_4a/output <- inception_4a/5x5
I0922 13:45:20.632503 2063708928 net.cpp:477] inception_4a/output <- inception_4a/pool_proj
I0922 13:45:20.632508 2063708928 net.cpp:433] inception_4a/output -> inception_4a/output
I0922 13:45:20.632516 2063708928 net.cpp:155] Setting up inception_4a/output
I0922 13:45:20.632520 2063708928 net.cpp:163] Top shape: 10 512 14 14 (1003520)
I0922 13:45:20.632526 2063708928 layer_factory.hpp:76] Creating layer inception_4a/output_inception_4a/output_0_split
I0922 13:45:20.632542 2063708928 net.cpp:110] Creating Layer inception_4a/output_inception_4a/output_0_split
I0922 13:45:20.632547 2063708928 net.cpp:477] inception_4a/output_inception_4a/output_0_split <- inception_4a/output
I0922 13:45:20.632555 2063708928 net.cpp:433] inception_4a/output_inception_4a/output_0_split -> inception_4a/output_inception_4a/output_0_split_0
I0922 13:45:20.632563 2063708928 net.cpp:433] inception_4a/output_inception_4a/output_0_split -> inception_4a/output_inception_4a/output_0_split_1
I0922 13:45:20.632573 2063708928 net.cpp:433] inception_4a/output_inception_4a/output_0_split -> inception_4a/output_inception_4a/output_0_split_2
I0922 13:45:20.632582 2063708928 net.cpp:433] inception_4a/output_inception_4a/output_0_split -> inception_4a/output_inception_4a/output_0_split_3
I0922 13:45:20.632591 2063708928 net.cpp:155] Setting up inception_4a/output_inception_4a/output_0_split
I0922 13:45:20.632596 2063708928 net.cpp:163] Top shape: 10 512 14 14 (1003520)
I0922 13:45:20.632601 2063708928 net.cpp:163] Top shape: 10 512 14 14 (1003520)
I0922 13:45:20.632606 2063708928 net.cpp:163] Top shape: 10 512 14 14 (1003520)
I0922 13:45:20.632612 2063708928 net.cpp:163] Top shape: 10 512 14 14 (1003520)
I0922 13:45:20.632617 2063708928 layer_factory.hpp:76] Creating layer inception_4b/1x1
I0922 13:45:20.632625 2063708928 net.cpp:110] Creating Layer inception_4b/1x1
I0922 13:45:20.632629 2063708928 net.cpp:477] inception_4b/1x1 <- inception_4a/output_inception_4a/output_0_split_0
I0922 13:45:20.632637 2063708928 net.cpp:433] inception_4b/1x1 -> inception_4b/1x1
I0922 13:45:20.633476 2063708928 net.cpp:155] Setting up inception_4b/1x1
I0922 13:45:20.633487 2063708928 net.cpp:163] Top shape: 10 160 14 14 (313600)
I0922 13:45:20.633496 2063708928 layer_factory.hpp:76] Creating layer inception_4b/relu_1x1
I0922 13:45:20.633503 2063708928 net.cpp:110] Creating Layer inception_4b/relu_1x1
I0922 13:45:20.633508 2063708928 net.cpp:477] inception_4b/relu_1x1 <- inception_4b/1x1
I0922 13:45:20.633515 2063708928 net.cpp:419] inception_4b/relu_1x1 -> inception_4b/1x1 (in-place)
I0922 13:45:20.633523 2063708928 net.cpp:155] Setting up inception_4b/relu_1x1
I0922 13:45:20.633527 2063708928 net.cpp:163] Top shape: 10 160 14 14 (313600)
I0922 13:45:20.633533 2063708928 layer_factory.hpp:76] Creating layer inception_4b/3x3_reduce
I0922 13:45:20.633540 2063708928 net.cpp:110] Creating Layer inception_4b/3x3_reduce
I0922 13:45:20.633545 2063708928 net.cpp:477] inception_4b/3x3_reduce <- inception_4a/output_inception_4a/output_0_split_1
I0922 13:45:20.633553 2063708928 net.cpp:433] inception_4b/3x3_reduce -> inception_4b/3x3_reduce
I0922 13:45:20.634135 2063708928 net.cpp:155] Setting up inception_4b/3x3_reduce
I0922 13:45:20.634145 2063708928 net.cpp:163] Top shape: 10 112 14 14 (219520)
I0922 13:45:20.634153 2063708928 layer_factory.hpp:76] Creating layer inception_4b/relu_3x3_reduce
I0922 13:45:20.634160 2063708928 net.cpp:110] Creating Layer inception_4b/relu_3x3_reduce
I0922 13:45:20.634166 2063708928 net.cpp:477] inception_4b/relu_3x3_reduce <- inception_4b/3x3_reduce
I0922 13:45:20.634172 2063708928 net.cpp:419] inception_4b/relu_3x3_reduce -> inception_4b/3x3_reduce (in-place)
I0922 13:45:20.634181 2063708928 net.cpp:155] Setting up inception_4b/relu_3x3_reduce
I0922 13:45:20.634184 2063708928 net.cpp:163] Top shape: 10 112 14 14 (219520)
I0922 13:45:20.634191 2063708928 layer_factory.hpp:76] Creating layer inception_4b/3x3
I0922 13:45:20.634197 2063708928 net.cpp:110] Creating Layer inception_4b/3x3
I0922 13:45:20.634202 2063708928 net.cpp:477] inception_4b/3x3 <- inception_4b/3x3_reduce
I0922 13:45:20.634209 2063708928 net.cpp:433] inception_4b/3x3 -> inception_4b/3x3
I0922 13:45:20.636332 2063708928 net.cpp:155] Setting up inception_4b/3x3
I0922 13:45:20.636346 2063708928 net.cpp:163] Top shape: 10 224 14 14 (439040)
I0922 13:45:20.636355 2063708928 layer_factory.hpp:76] Creating layer inception_4b/relu_3x3
I0922 13:45:20.636363 2063708928 net.cpp:110] Creating Layer inception_4b/relu_3x3
I0922 13:45:20.636368 2063708928 net.cpp:477] inception_4b/relu_3x3 <- inception_4b/3x3
I0922 13:45:20.636385 2063708928 net.cpp:419] inception_4b/relu_3x3 -> inception_4b/3x3 (in-place)
I0922 13:45:20.636394 2063708928 net.cpp:155] Setting up inception_4b/relu_3x3
I0922 13:45:20.636399 2063708928 net.cpp:163] Top shape: 10 224 14 14 (439040)
I0922 13:45:20.636404 2063708928 layer_factory.hpp:76] Creating layer inception_4b/5x5_reduce
I0922 13:45:20.636411 2063708928 net.cpp:110] Creating Layer inception_4b/5x5_reduce
I0922 13:45:20.636416 2063708928 net.cpp:477] inception_4b/5x5_reduce <- inception_4a/output_inception_4a/output_0_split_2
I0922 13:45:20.636423 2063708928 net.cpp:433] inception_4b/5x5_reduce -> inception_4b/5x5_reduce
I0922 13:45:20.636554 2063708928 net.cpp:155] Setting up inception_4b/5x5_reduce
I0922 13:45:20.636559 2063708928 net.cpp:163] Top shape: 10 24 14 14 (47040)
I0922 13:45:20.636566 2063708928 layer_factory.hpp:76] Creating layer inception_4b/relu_5x5_reduce
I0922 13:45:20.636581 2063708928 net.cpp:110] Creating Layer inception_4b/relu_5x5_reduce
I0922 13:45:20.636586 2063708928 net.cpp:477] inception_4b/relu_5x5_reduce <- inception_4b/5x5_reduce
I0922 13:45:20.636593 2063708928 net.cpp:419] inception_4b/relu_5x5_reduce -> inception_4b/5x5_reduce (in-place)
I0922 13:45:20.636600 2063708928 net.cpp:155] Setting up inception_4b/relu_5x5_reduce
I0922 13:45:20.636605 2063708928 net.cpp:163] Top shape: 10 24 14 14 (47040)
I0922 13:45:20.636611 2063708928 layer_factory.hpp:76] Creating layer inception_4b/5x5
I0922 13:45:20.636618 2063708928 net.cpp:110] Creating Layer inception_4b/5x5
I0922 13:45:20.636622 2063708928 net.cpp:477] inception_4b/5x5 <- inception_4b/5x5_reduce
I0922 13:45:20.636629 2063708928 net.cpp:433] inception_4b/5x5 -> inception_4b/5x5
I0922 13:45:20.637023 2063708928 net.cpp:155] Setting up inception_4b/5x5
I0922 13:45:20.637030 2063708928 net.cpp:163] Top shape: 10 64 14 14 (125440)
I0922 13:45:20.637038 2063708928 layer_factory.hpp:76] Creating layer inception_4b/relu_5x5
I0922 13:45:20.637044 2063708928 net.cpp:110] Creating Layer inception_4b/relu_5x5
I0922 13:45:20.637049 2063708928 net.cpp:477] inception_4b/relu_5x5 <- inception_4b/5x5
I0922 13:45:20.637055 2063708928 net.cpp:419] inception_4b/relu_5x5 -> inception_4b/5x5 (in-place)
I0922 13:45:20.637063 2063708928 net.cpp:155] Setting up inception_4b/relu_5x5
I0922 13:45:20.637066 2063708928 net.cpp:163] Top shape: 10 64 14 14 (125440)
I0922 13:45:20.637073 2063708928 layer_factory.hpp:76] Creating layer inception_4b/pool
I0922 13:45:20.637079 2063708928 net.cpp:110] Creating Layer inception_4b/pool
I0922 13:45:20.637084 2063708928 net.cpp:477] inception_4b/pool <- inception_4a/output_inception_4a/output_0_split_3
I0922 13:45:20.637089 2063708928 net.cpp:433] inception_4b/pool -> inception_4b/pool
I0922 13:45:20.637099 2063708928 net.cpp:155] Setting up inception_4b/pool
I0922 13:45:20.637104 2063708928 net.cpp:163] Top shape: 10 512 14 14 (1003520)
I0922 13:45:20.637109 2063708928 layer_factory.hpp:76] Creating layer inception_4b/pool_proj
I0922 13:45:20.637115 2063708928 net.cpp:110] Creating Layer inception_4b/pool_proj
I0922 13:45:20.637120 2063708928 net.cpp:477] inception_4b/pool_proj <- inception_4b/pool
I0922 13:45:20.637127 2063708928 net.cpp:433] inception_4b/pool_proj -> inception_4b/pool_proj
I0922 13:45:20.637478 2063708928 net.cpp:155] Setting up inception_4b/pool_proj
I0922 13:45:20.637485 2063708928 net.cpp:163] Top shape: 10 64 14 14 (125440)
I0922 13:45:20.637493 2063708928 layer_factory.hpp:76] Creating layer inception_4b/relu_pool_proj
I0922 13:45:20.637500 2063708928 net.cpp:110] Creating Layer inception_4b/relu_pool_proj
I0922 13:45:20.637504 2063708928 net.cpp:477] inception_4b/relu_pool_proj <- inception_4b/pool_proj
I0922 13:45:20.637511 2063708928 net.cpp:419] inception_4b/relu_pool_proj -> inception_4b/pool_proj (in-place)
I0922 13:45:20.637517 2063708928 net.cpp:155] Setting up inception_4b/relu_pool_proj
I0922 13:45:20.637521 2063708928 net.cpp:163] Top shape: 10 64 14 14 (125440)
I0922 13:45:20.637526 2063708928 layer_factory.hpp:76] Creating layer inception_4b/output
I0922 13:45:20.637540 2063708928 net.cpp:110] Creating Layer inception_4b/output
I0922 13:45:20.637545 2063708928 net.cpp:477] inception_4b/output <- inception_4b/1x1
I0922 13:45:20.637552 2063708928 net.cpp:477] inception_4b/output <- inception_4b/3x3
I0922 13:45:20.637555 2063708928 net.cpp:477] inception_4b/output <- inception_4b/5x5
I0922 13:45:20.637560 2063708928 net.cpp:477] inception_4b/output <- inception_4b/pool_proj
I0922 13:45:20.637567 2063708928 net.cpp:433] inception_4b/output -> inception_4b/output
I0922 13:45:20.637575 2063708928 net.cpp:155] Setting up inception_4b/output
I0922 13:45:20.637579 2063708928 net.cpp:163] Top shape: 10 512 14 14 (1003520)
I0922 13:45:20.637585 2063708928 layer_factory.hpp:76] Creating layer inception_4b/output_inception_4b/output_0_split
I0922 13:45:20.637593 2063708928 net.cpp:110] Creating Layer inception_4b/output_inception_4b/output_0_split
I0922 13:45:20.637598 2063708928 net.cpp:477] inception_4b/output_inception_4b/output_0_split <- inception_4b/output
I0922 13:45:20.637604 2063708928 net.cpp:433] inception_4b/output_inception_4b/output_0_split -> inception_4b/output_inception_4b/output_0_split_0
I0922 13:45:20.637614 2063708928 net.cpp:433] inception_4b/output_inception_4b/output_0_split -> inception_4b/output_inception_4b/output_0_split_1
I0922 13:45:20.637622 2063708928 net.cpp:433] inception_4b/output_inception_4b/output_0_split -> inception_4b/output_inception_4b/output_0_split_2
I0922 13:45:20.637631 2063708928 net.cpp:433] inception_4b/output_inception_4b/output_0_split -> inception_4b/output_inception_4b/output_0_split_3
I0922 13:45:20.637640 2063708928 net.cpp:155] Setting up inception_4b/output_inception_4b/output_0_split
I0922 13:45:20.637645 2063708928 net.cpp:163] Top shape: 10 512 14 14 (1003520)
I0922 13:45:20.637650 2063708928 net.cpp:163] Top shape: 10 512 14 14 (1003520)
I0922 13:45:20.637655 2063708928 net.cpp:163] Top shape: 10 512 14 14 (1003520)
I0922 13:45:20.637660 2063708928 net.cpp:163] Top shape: 10 512 14 14 (1003520)
I0922 13:45:20.637665 2063708928 layer_factory.hpp:76] Creating layer inception_4c/1x1
I0922 13:45:20.637673 2063708928 net.cpp:110] Creating Layer inception_4c/1x1
I0922 13:45:20.637677 2063708928 net.cpp:477] inception_4c/1x1 <- inception_4b/output_inception_4b/output_0_split_0
I0922 13:45:20.637687 2063708928 net.cpp:433] inception_4c/1x1 -> inception_4c/1x1
I0922 13:45:20.638381 2063708928 net.cpp:155] Setting up inception_4c/1x1
I0922 13:45:20.638391 2063708928 net.cpp:163] Top shape: 10 128 14 14 (250880)
I0922 13:45:20.638398 2063708928 layer_factory.hpp:76] Creating layer inception_4c/relu_1x1
I0922 13:45:20.638406 2063708928 net.cpp:110] Creating Layer inception_4c/relu_1x1
I0922 13:45:20.638411 2063708928 net.cpp:477] inception_4c/relu_1x1 <- inception_4c/1x1
I0922 13:45:20.638419 2063708928 net.cpp:419] inception_4c/relu_1x1 -> inception_4c/1x1 (in-place)
I0922 13:45:20.638427 2063708928 net.cpp:155] Setting up inception_4c/relu_1x1
I0922 13:45:20.638430 2063708928 net.cpp:163] Top shape: 10 128 14 14 (250880)
I0922 13:45:20.638435 2063708928 layer_factory.hpp:76] Creating layer inception_4c/3x3_reduce
I0922 13:45:20.638443 2063708928 net.cpp:110] Creating Layer inception_4c/3x3_reduce
I0922 13:45:20.638447 2063708928 net.cpp:477] inception_4c/3x3_reduce <- inception_4b/output_inception_4b/output_0_split_1
I0922 13:45:20.638454 2063708928 net.cpp:433] inception_4c/3x3_reduce -> inception_4c/3x3_reduce
I0922 13:45:20.639147 2063708928 net.cpp:155] Setting up inception_4c/3x3_reduce
I0922 13:45:20.639154 2063708928 net.cpp:163] Top shape: 10 128 14 14 (250880)
I0922 13:45:20.639161 2063708928 layer_factory.hpp:76] Creating layer inception_4c/relu_3x3_reduce
I0922 13:45:20.639168 2063708928 net.cpp:110] Creating Layer inception_4c/relu_3x3_reduce
I0922 13:45:20.639173 2063708928 net.cpp:477] inception_4c/relu_3x3_reduce <- inception_4c/3x3_reduce
I0922 13:45:20.639179 2063708928 net.cpp:419] inception_4c/relu_3x3_reduce -> inception_4c/3x3_reduce (in-place)
I0922 13:45:20.639186 2063708928 net.cpp:155] Setting up inception_4c/relu_3x3_reduce
I0922 13:45:20.639199 2063708928 net.cpp:163] Top shape: 10 128 14 14 (250880)
I0922 13:45:20.639204 2063708928 layer_factory.hpp:76] Creating layer inception_4c/3x3
I0922 13:45:20.639211 2063708928 net.cpp:110] Creating Layer inception_4c/3x3
I0922 13:45:20.639215 2063708928 net.cpp:477] inception_4c/3x3 <- inception_4c/3x3_reduce
I0922 13:45:20.639225 2063708928 net.cpp:433] inception_4c/3x3 -> inception_4c/3x3
I0922 13:45:20.641939 2063708928 net.cpp:155] Setting up inception_4c/3x3
I0922 13:45:20.641952 2063708928 net.cpp:163] Top shape: 10 256 14 14 (501760)
I0922 13:45:20.641962 2063708928 layer_factory.hpp:76] Creating layer inception_4c/relu_3x3
I0922 13:45:20.641968 2063708928 net.cpp:110] Creating Layer inception_4c/relu_3x3
I0922 13:45:20.641974 2063708928 net.cpp:477] inception_4c/relu_3x3 <- inception_4c/3x3
I0922 13:45:20.641980 2063708928 net.cpp:419] inception_4c/relu_3x3 -> inception_4c/3x3 (in-place)
I0922 13:45:20.641988 2063708928 net.cpp:155] Setting up inception_4c/relu_3x3
I0922 13:45:20.641991 2063708928 net.cpp:163] Top shape: 10 256 14 14 (501760)
I0922 13:45:20.641998 2063708928 layer_factory.hpp:76] Creating layer inception_4c/5x5_reduce
I0922 13:45:20.642004 2063708928 net.cpp:110] Creating Layer inception_4c/5x5_reduce
I0922 13:45:20.642009 2063708928 net.cpp:477] inception_4c/5x5_reduce <- inception_4b/output_inception_4b/output_0_split_2
I0922 13:45:20.642019 2063708928 net.cpp:433] inception_4c/5x5_reduce -> inception_4c/5x5_reduce
I0922 13:45:20.642158 2063708928 net.cpp:155] Setting up inception_4c/5x5_reduce
I0922 13:45:20.642164 2063708928 net.cpp:163] Top shape: 10 24 14 14 (47040)
I0922 13:45:20.642171 2063708928 layer_factory.hpp:76] Creating layer inception_4c/relu_5x5_reduce
I0922 13:45:20.642179 2063708928 net.cpp:110] Creating Layer inception_4c/relu_5x5_reduce
I0922 13:45:20.642184 2063708928 net.cpp:477] inception_4c/relu_5x5_reduce <- inception_4c/5x5_reduce
I0922 13:45:20.642191 2063708928 net.cpp:419] inception_4c/relu_5x5_reduce -> inception_4c/5x5_reduce (in-place)
I0922 13:45:20.642199 2063708928 net.cpp:155] Setting up inception_4c/relu_5x5_reduce
I0922 13:45:20.642204 2063708928 net.cpp:163] Top shape: 10 24 14 14 (47040)
I0922 13:45:20.642210 2063708928 layer_factory.hpp:76] Creating layer inception_4c/5x5
I0922 13:45:20.642215 2063708928 net.cpp:110] Creating Layer inception_4c/5x5
I0922 13:45:20.642220 2063708928 net.cpp:477] inception_4c/5x5 <- inception_4c/5x5_reduce
I0922 13:45:20.642226 2063708928 net.cpp:433] inception_4c/5x5 -> inception_4c/5x5
I0922 13:45:20.642637 2063708928 net.cpp:155] Setting up inception_4c/5x5
I0922 13:45:20.642644 2063708928 net.cpp:163] Top shape: 10 64 14 14 (125440)
I0922 13:45:20.642652 2063708928 layer_factory.hpp:76] Creating layer inception_4c/relu_5x5
I0922 13:45:20.642659 2063708928 net.cpp:110] Creating Layer inception_4c/relu_5x5
I0922 13:45:20.642664 2063708928 net.cpp:477] inception_4c/relu_5x5 <- inception_4c/5x5
I0922 13:45:20.642669 2063708928 net.cpp:419] inception_4c/relu_5x5 -> inception_4c/5x5 (in-place)
I0922 13:45:20.642676 2063708928 net.cpp:155] Setting up inception_4c/relu_5x5
I0922 13:45:20.642680 2063708928 net.cpp:163] Top shape: 10 64 14 14 (125440)
I0922 13:45:20.642686 2063708928 layer_factory.hpp:76] Creating layer inception_4c/pool
I0922 13:45:20.642693 2063708928 net.cpp:110] Creating Layer inception_4c/pool
I0922 13:45:20.642696 2063708928 net.cpp:477] inception_4c/pool <- inception_4b/output_inception_4b/output_0_split_3
I0922 13:45:20.642702 2063708928 net.cpp:433] inception_4c/pool -> inception_4c/pool
I0922 13:45:20.642711 2063708928 net.cpp:155] Setting up inception_4c/pool
I0922 13:45:20.642715 2063708928 net.cpp:163] Top shape: 10 512 14 14 (1003520)
I0922 13:45:20.642721 2063708928 layer_factory.hpp:76] Creating layer inception_4c/pool_proj
I0922 13:45:20.642729 2063708928 net.cpp:110] Creating Layer inception_4c/pool_proj
I0922 13:45:20.642735 2063708928 net.cpp:477] inception_4c/pool_proj <- inception_4c/pool
I0922 13:45:20.642750 2063708928 net.cpp:433] inception_4c/pool_proj -> inception_4c/pool_proj
I0922 13:45:20.643093 2063708928 net.cpp:155] Setting up inception_4c/pool_proj
I0922 13:45:20.643100 2063708928 net.cpp:163] Top shape: 10 64 14 14 (125440)
I0922 13:45:20.643115 2063708928 layer_factory.hpp:76] Creating layer inception_4c/relu_pool_proj
I0922 13:45:20.643122 2063708928 net.cpp:110] Creating Layer inception_4c/relu_pool_proj
I0922 13:45:20.643127 2063708928 net.cpp:477] inception_4c/relu_pool_proj <- inception_4c/pool_proj
I0922 13:45:20.643134 2063708928 net.cpp:419] inception_4c/relu_pool_proj -> inception_4c/pool_proj (in-place)
I0922 13:45:20.643142 2063708928 net.cpp:155] Setting up inception_4c/relu_pool_proj
I0922 13:45:20.643146 2063708928 net.cpp:163] Top shape: 10 64 14 14 (125440)
I0922 13:45:20.643151 2063708928 layer_factory.hpp:76] Creating layer inception_4c/output
I0922 13:45:20.643158 2063708928 net.cpp:110] Creating Layer inception_4c/output
I0922 13:45:20.643162 2063708928 net.cpp:477] inception_4c/output <- inception_4c/1x1
I0922 13:45:20.643167 2063708928 net.cpp:477] inception_4c/output <- inception_4c/3x3
I0922 13:45:20.643172 2063708928 net.cpp:477] inception_4c/output <- inception_4c/5x5
I0922 13:45:20.643177 2063708928 net.cpp:477] inception_4c/output <- inception_4c/pool_proj
I0922 13:45:20.643183 2063708928 net.cpp:433] inception_4c/output -> inception_4c/output
I0922 13:45:20.643192 2063708928 net.cpp:155] Setting up inception_4c/output
I0922 13:45:20.643195 2063708928 net.cpp:163] Top shape: 10 512 14 14 (1003520)
I0922 13:45:20.643201 2063708928 layer_factory.hpp:76] Creating layer inception_4c/output_inception_4c/output_0_split
I0922 13:45:20.643209 2063708928 net.cpp:110] Creating Layer inception_4c/output_inception_4c/output_0_split
I0922 13:45:20.643213 2063708928 net.cpp:477] inception_4c/output_inception_4c/output_0_split <- inception_4c/output
I0922 13:45:20.643220 2063708928 net.cpp:433] inception_4c/output_inception_4c/output_0_split -> inception_4c/output_inception_4c/output_0_split_0
I0922 13:45:20.643229 2063708928 net.cpp:433] inception_4c/output_inception_4c/output_0_split -> inception_4c/output_inception_4c/output_0_split_1
I0922 13:45:20.643239 2063708928 net.cpp:433] inception_4c/output_inception_4c/output_0_split -> inception_4c/output_inception_4c/output_0_split_2
I0922 13:45:20.643249 2063708928 net.cpp:433] inception_4c/output_inception_4c/output_0_split -> inception_4c/output_inception_4c/output_0_split_3
I0922 13:45:20.643257 2063708928 net.cpp:155] Setting up inception_4c/output_inception_4c/output_0_split
I0922 13:45:20.643261 2063708928 net.cpp:163] Top shape: 10 512 14 14 (1003520)
I0922 13:45:20.643266 2063708928 net.cpp:163] Top shape: 10 512 14 14 (1003520)
I0922 13:45:20.643272 2063708928 net.cpp:163] Top shape: 10 512 14 14 (1003520)
I0922 13:45:20.643277 2063708928 net.cpp:163] Top shape: 10 512 14 14 (1003520)
I0922 13:45:20.643282 2063708928 layer_factory.hpp:76] Creating layer inception_4d/1x1
I0922 13:45:20.643290 2063708928 net.cpp:110] Creating Layer inception_4d/1x1
I0922 13:45:20.643293 2063708928 net.cpp:477] inception_4d/1x1 <- inception_4c/output_inception_4c/output_0_split_0
I0922 13:45:20.643299 2063708928 net.cpp:433] inception_4d/1x1 -> inception_4d/1x1
I0922 13:45:20.643910 2063708928 net.cpp:155] Setting up inception_4d/1x1
I0922 13:45:20.643918 2063708928 net.cpp:163] Top shape: 10 112 14 14 (219520)
I0922 13:45:20.643925 2063708928 layer_factory.hpp:76] Creating layer inception_4d/relu_1x1
I0922 13:45:20.643931 2063708928 net.cpp:110] Creating Layer inception_4d/relu_1x1
I0922 13:45:20.643936 2063708928 net.cpp:477] inception_4d/relu_1x1 <- inception_4d/1x1
I0922 13:45:20.643942 2063708928 net.cpp:419] inception_4d/relu_1x1 -> inception_4d/1x1 (in-place)
I0922 13:45:20.643949 2063708928 net.cpp:155] Setting up inception_4d/relu_1x1
I0922 13:45:20.643954 2063708928 net.cpp:163] Top shape: 10 112 14 14 (219520)
I0922 13:45:20.643959 2063708928 layer_factory.hpp:76] Creating layer inception_4d/3x3_reduce
I0922 13:45:20.643965 2063708928 net.cpp:110] Creating Layer inception_4d/3x3_reduce
I0922 13:45:20.643976 2063708928 net.cpp:477] inception_4d/3x3_reduce <- inception_4c/output_inception_4c/output_0_split_1
I0922 13:45:20.643985 2063708928 net.cpp:433] inception_4d/3x3_reduce -> inception_4d/3x3_reduce
I0922 13:45:20.644716 2063708928 net.cpp:155] Setting up inception_4d/3x3_reduce
I0922 13:45:20.644724 2063708928 net.cpp:163] Top shape: 10 144 14 14 (282240)
I0922 13:45:20.644731 2063708928 layer_factory.hpp:76] Creating layer inception_4d/relu_3x3_reduce
I0922 13:45:20.644738 2063708928 net.cpp:110] Creating Layer inception_4d/relu_3x3_reduce
I0922 13:45:20.644743 2063708928 net.cpp:477] inception_4d/relu_3x3_reduce <- inception_4d/3x3_reduce
I0922 13:45:20.644752 2063708928 net.cpp:419] inception_4d/relu_3x3_reduce -> inception_4d/3x3_reduce (in-place)
I0922 13:45:20.644758 2063708928 net.cpp:155] Setting up inception_4d/relu_3x3_reduce
I0922 13:45:20.644763 2063708928 net.cpp:163] Top shape: 10 144 14 14 (282240)
I0922 13:45:20.644768 2063708928 layer_factory.hpp:76] Creating layer inception_4d/3x3
I0922 13:45:20.644775 2063708928 net.cpp:110] Creating Layer inception_4d/3x3
I0922 13:45:20.644779 2063708928 net.cpp:477] inception_4d/3x3 <- inception_4d/3x3_reduce
I0922 13:45:20.644786 2063708928 net.cpp:433] inception_4d/3x3 -> inception_4d/3x3
I0922 13:45:20.647850 2063708928 net.cpp:155] Setting up inception_4d/3x3
I0922 13:45:20.647864 2063708928 net.cpp:163] Top shape: 10 288 14 14 (564480)
I0922 13:45:20.647873 2063708928 layer_factory.hpp:76] Creating layer inception_4d/relu_3x3
I0922 13:45:20.647893 2063708928 net.cpp:110] Creating Layer inception_4d/relu_3x3
I0922 13:45:20.647900 2063708928 net.cpp:477] inception_4d/relu_3x3 <- inception_4d/3x3
I0922 13:45:20.647907 2063708928 net.cpp:419] inception_4d/relu_3x3 -> inception_4d/3x3 (in-place)
I0922 13:45:20.647915 2063708928 net.cpp:155] Setting up inception_4d/relu_3x3
I0922 13:45:20.647920 2063708928 net.cpp:163] Top shape: 10 288 14 14 (564480)
I0922 13:45:20.647927 2063708928 layer_factory.hpp:76] Creating layer inception_4d/5x5_reduce
I0922 13:45:20.647934 2063708928 net.cpp:110] Creating Layer inception_4d/5x5_reduce
I0922 13:45:20.647939 2063708928 net.cpp:477] inception_4d/5x5_reduce <- inception_4c/output_inception_4c/output_0_split_2
I0922 13:45:20.647946 2063708928 net.cpp:433] inception_4d/5x5_reduce -> inception_4d/5x5_reduce
I0922 13:45:20.648114 2063708928 net.cpp:155] Setting up inception_4d/5x5_reduce
I0922 13:45:20.648120 2063708928 net.cpp:163] Top shape: 10 32 14 14 (62720)
I0922 13:45:20.648128 2063708928 layer_factory.hpp:76] Creating layer inception_4d/relu_5x5_reduce
I0922 13:45:20.648134 2063708928 net.cpp:110] Creating Layer inception_4d/relu_5x5_reduce
I0922 13:45:20.648139 2063708928 net.cpp:477] inception_4d/relu_5x5_reduce <- inception_4d/5x5_reduce
I0922 13:45:20.648145 2063708928 net.cpp:419] inception_4d/relu_5x5_reduce -> inception_4d/5x5_reduce (in-place)
I0922 13:45:20.648162 2063708928 net.cpp:155] Setting up inception_4d/relu_5x5_reduce
I0922 13:45:20.648166 2063708928 net.cpp:163] Top shape: 10 32 14 14 (62720)
I0922 13:45:20.648172 2063708928 layer_factory.hpp:76] Creating layer inception_4d/5x5
I0922 13:45:20.648180 2063708928 net.cpp:110] Creating Layer inception_4d/5x5
I0922 13:45:20.648185 2063708928 net.cpp:477] inception_4d/5x5 <- inception_4d/5x5_reduce
I0922 13:45:20.648193 2063708928 net.cpp:433] inception_4d/5x5 -> inception_4d/5x5
I0922 13:45:20.648722 2063708928 net.cpp:155] Setting up inception_4d/5x5
I0922 13:45:20.648732 2063708928 net.cpp:163] Top shape: 10 64 14 14 (125440)
I0922 13:45:20.648741 2063708928 layer_factory.hpp:76] Creating layer inception_4d/relu_5x5
I0922 13:45:20.648747 2063708928 net.cpp:110] Creating Layer inception_4d/relu_5x5
I0922 13:45:20.648753 2063708928 net.cpp:477] inception_4d/relu_5x5 <- inception_4d/5x5
I0922 13:45:20.648759 2063708928 net.cpp:419] inception_4d/relu_5x5 -> inception_4d/5x5 (in-place)
I0922 13:45:20.648766 2063708928 net.cpp:155] Setting up inception_4d/relu_5x5
I0922 13:45:20.648771 2063708928 net.cpp:163] Top shape: 10 64 14 14 (125440)
I0922 13:45:20.648785 2063708928 layer_factory.hpp:76] Creating layer inception_4d/pool
I0922 13:45:20.648795 2063708928 net.cpp:110] Creating Layer inception_4d/pool
I0922 13:45:20.648802 2063708928 net.cpp:477] inception_4d/pool <- inception_4c/output_inception_4c/output_0_split_3
I0922 13:45:20.648808 2063708928 net.cpp:433] inception_4d/pool -> inception_4d/pool
I0922 13:45:20.648816 2063708928 net.cpp:155] Setting up inception_4d/pool
I0922 13:45:20.648821 2063708928 net.cpp:163] Top shape: 10 512 14 14 (1003520)
I0922 13:45:20.648828 2063708928 layer_factory.hpp:76] Creating layer inception_4d/pool_proj
I0922 13:45:20.648834 2063708928 net.cpp:110] Creating Layer inception_4d/pool_proj
I0922 13:45:20.648838 2063708928 net.cpp:477] inception_4d/pool_proj <- inception_4d/pool
I0922 13:45:20.648845 2063708928 net.cpp:433] inception_4d/pool_proj -> inception_4d/pool_proj
I0922 13:45:20.649197 2063708928 net.cpp:155] Setting up inception_4d/pool_proj
I0922 13:45:20.649205 2063708928 net.cpp:163] Top shape: 10 64 14 14 (125440)
I0922 13:45:20.649212 2063708928 layer_factory.hpp:76] Creating layer inception_4d/relu_pool_proj
I0922 13:45:20.649219 2063708928 net.cpp:110] Creating Layer inception_4d/relu_pool_proj
I0922 13:45:20.649224 2063708928 net.cpp:477] inception_4d/relu_pool_proj <- inception_4d/pool_proj
I0922 13:45:20.649230 2063708928 net.cpp:419] inception_4d/relu_pool_proj -> inception_4d/pool_proj (in-place)
I0922 13:45:20.649237 2063708928 net.cpp:155] Setting up inception_4d/relu_pool_proj
I0922 13:45:20.649241 2063708928 net.cpp:163] Top shape: 10 64 14 14 (125440)
I0922 13:45:20.649247 2063708928 layer_factory.hpp:76] Creating layer inception_4d/output
I0922 13:45:20.649253 2063708928 net.cpp:110] Creating Layer inception_4d/output
I0922 13:45:20.649257 2063708928 net.cpp:477] inception_4d/output <- inception_4d/1x1
I0922 13:45:20.649262 2063708928 net.cpp:477] inception_4d/output <- inception_4d/3x3
I0922 13:45:20.649267 2063708928 net.cpp:477] inception_4d/output <- inception_4d/5x5
I0922 13:45:20.649272 2063708928 net.cpp:477] inception_4d/output <- inception_4d/pool_proj
I0922 13:45:20.649278 2063708928 net.cpp:433] inception_4d/output -> inception_4d/output
I0922 13:45:20.649286 2063708928 net.cpp:155] Setting up inception_4d/output
I0922 13:45:20.649291 2063708928 net.cpp:163] Top shape: 10 528 14 14 (1034880)
I0922 13:45:20.649296 2063708928 layer_factory.hpp:76] Creating layer inception_4d/output_inception_4d/output_0_split
I0922 13:45:20.649305 2063708928 net.cpp:110] Creating Layer inception_4d/output_inception_4d/output_0_split
I0922 13:45:20.649310 2063708928 net.cpp:477] inception_4d/output_inception_4d/output_0_split <- inception_4d/output
I0922 13:45:20.649317 2063708928 net.cpp:433] inception_4d/output_inception_4d/output_0_split -> inception_4d/output_inception_4d/output_0_split_0
I0922 13:45:20.649325 2063708928 net.cpp:433] inception_4d/output_inception_4d/output_0_split -> inception_4d/output_inception_4d/output_0_split_1
I0922 13:45:20.649334 2063708928 net.cpp:433] inception_4d/output_inception_4d/output_0_split -> inception_4d/output_inception_4d/output_0_split_2
I0922 13:45:20.649343 2063708928 net.cpp:433] inception_4d/output_inception_4d/output_0_split -> inception_4d/output_inception_4d/output_0_split_3
I0922 13:45:20.649353 2063708928 net.cpp:155] Setting up inception_4d/output_inception_4d/output_0_split
I0922 13:45:20.649358 2063708928 net.cpp:163] Top shape: 10 528 14 14 (1034880)
I0922 13:45:20.649363 2063708928 net.cpp:163] Top shape: 10 528 14 14 (1034880)
I0922 13:45:20.649368 2063708928 net.cpp:163] Top shape: 10 528 14 14 (1034880)
I0922 13:45:20.649372 2063708928 net.cpp:163] Top shape: 10 528 14 14 (1034880)
I0922 13:45:20.649379 2063708928 layer_factory.hpp:76] Creating layer inception_4e/1x1
I0922 13:45:20.649387 2063708928 net.cpp:110] Creating Layer inception_4e/1x1
I0922 13:45:20.649392 2063708928 net.cpp:477] inception_4e/1x1 <- inception_4d/output_inception_4d/output_0_split_0
I0922 13:45:20.649399 2063708928 net.cpp:433] inception_4e/1x1 -> inception_4e/1x1
I0922 13:45:20.650763 2063708928 net.cpp:155] Setting up inception_4e/1x1
I0922 13:45:20.650774 2063708928 net.cpp:163] Top shape: 10 256 14 14 (501760)
I0922 13:45:20.650784 2063708928 layer_factory.hpp:76] Creating layer inception_4e/relu_1x1
I0922 13:45:20.650790 2063708928 net.cpp:110] Creating Layer inception_4e/relu_1x1
I0922 13:45:20.650795 2063708928 net.cpp:477] inception_4e/relu_1x1 <- inception_4e/1x1
I0922 13:45:20.650804 2063708928 net.cpp:419] inception_4e/relu_1x1 -> inception_4e/1x1 (in-place)
I0922 13:45:20.650812 2063708928 net.cpp:155] Setting up inception_4e/relu_1x1
I0922 13:45:20.650816 2063708928 net.cpp:163] Top shape: 10 256 14 14 (501760)
I0922 13:45:20.650822 2063708928 layer_factory.hpp:76] Creating layer inception_4e/3x3_reduce
I0922 13:45:20.650830 2063708928 net.cpp:110] Creating Layer inception_4e/3x3_reduce
I0922 13:45:20.650835 2063708928 net.cpp:477] inception_4e/3x3_reduce <- inception_4d/output_inception_4d/output_0_split_1
I0922 13:45:20.650841 2063708928 net.cpp:433] inception_4e/3x3_reduce -> inception_4e/3x3_reduce
I0922 13:45:20.651660 2063708928 net.cpp:155] Setting up inception_4e/3x3_reduce
I0922 13:45:20.651670 2063708928 net.cpp:163] Top shape: 10 160 14 14 (313600)
I0922 13:45:20.651677 2063708928 layer_factory.hpp:76] Creating layer inception_4e/relu_3x3_reduce
I0922 13:45:20.651684 2063708928 net.cpp:110] Creating Layer inception_4e/relu_3x3_reduce
I0922 13:45:20.651690 2063708928 net.cpp:477] inception_4e/relu_3x3_reduce <- inception_4e/3x3_reduce
I0922 13:45:20.651696 2063708928 net.cpp:419] inception_4e/relu_3x3_reduce -> inception_4e/3x3_reduce (in-place)
I0922 13:45:20.651705 2063708928 net.cpp:155] Setting up inception_4e/relu_3x3_reduce
I0922 13:45:20.651708 2063708928 net.cpp:163] Top shape: 10 160 14 14 (313600)
I0922 13:45:20.651715 2063708928 layer_factory.hpp:76] Creating layer inception_4e/3x3
I0922 13:45:20.651721 2063708928 net.cpp:110] Creating Layer inception_4e/3x3
I0922 13:45:20.651726 2063708928 net.cpp:477] inception_4e/3x3 <- inception_4e/3x3_reduce
I0922 13:45:20.651734 2063708928 net.cpp:433] inception_4e/3x3 -> inception_4e/3x3
I0922 13:45:20.655473 2063708928 net.cpp:155] Setting up inception_4e/3x3
I0922 13:45:20.655488 2063708928 net.cpp:163] Top shape: 10 320 14 14 (627200)
I0922 13:45:20.655499 2063708928 layer_factory.hpp:76] Creating layer inception_4e/relu_3x3
I0922 13:45:20.655514 2063708928 net.cpp:110] Creating Layer inception_4e/relu_3x3
I0922 13:45:20.655524 2063708928 net.cpp:477] inception_4e/relu_3x3 <- inception_4e/3x3
I0922 13:45:20.655534 2063708928 net.cpp:419] inception_4e/relu_3x3 -> inception_4e/3x3 (in-place)
I0922 13:45:20.655546 2063708928 net.cpp:155] Setting up inception_4e/relu_3x3
I0922 13:45:20.655555 2063708928 net.cpp:163] Top shape: 10 320 14 14 (627200)
I0922 13:45:20.655565 2063708928 layer_factory.hpp:76] Creating layer inception_4e/5x5_reduce
I0922 13:45:20.655578 2063708928 net.cpp:110] Creating Layer inception_4e/5x5_reduce
I0922 13:45:20.655587 2063708928 net.cpp:477] inception_4e/5x5_reduce <- inception_4d/output_inception_4d/output_0_split_2
I0922 13:45:20.655607 2063708928 net.cpp:433] inception_4e/5x5_reduce -> inception_4e/5x5_reduce
I0922 13:45:20.655788 2063708928 net.cpp:155] Setting up inception_4e/5x5_reduce
I0922 13:45:20.655797 2063708928 net.cpp:163] Top shape: 10 32 14 14 (62720)
I0922 13:45:20.655804 2063708928 layer_factory.hpp:76] Creating layer inception_4e/relu_5x5_reduce
I0922 13:45:20.655812 2063708928 net.cpp:110] Creating Layer inception_4e/relu_5x5_reduce
I0922 13:45:20.655817 2063708928 net.cpp:477] inception_4e/relu_5x5_reduce <- inception_4e/5x5_reduce
I0922 13:45:20.655824 2063708928 net.cpp:419] inception_4e/relu_5x5_reduce -> inception_4e/5x5_reduce (in-place)
I0922 13:45:20.655833 2063708928 net.cpp:155] Setting up inception_4e/relu_5x5_reduce
I0922 13:45:20.655836 2063708928 net.cpp:163] Top shape: 10 32 14 14 (62720)
I0922 13:45:20.655843 2063708928 layer_factory.hpp:76] Creating layer inception_4e/5x5
I0922 13:45:20.655849 2063708928 net.cpp:110] Creating Layer inception_4e/5x5
I0922 13:45:20.655865 2063708928 net.cpp:477] inception_4e/5x5 <- inception_4e/5x5_reduce
I0922 13:45:20.655872 2063708928 net.cpp:433] inception_4e/5x5 -> inception_4e/5x5
I0922 13:45:20.656944 2063708928 net.cpp:155] Setting up inception_4e/5x5
I0922 13:45:20.656955 2063708928 net.cpp:163] Top shape: 10 128 14 14 (250880)
I0922 13:45:20.656963 2063708928 layer_factory.hpp:76] Creating layer inception_4e/relu_5x5
I0922 13:45:20.656973 2063708928 net.cpp:110] Creating Layer inception_4e/relu_5x5
I0922 13:45:20.656980 2063708928 net.cpp:477] inception_4e/relu_5x5 <- inception_4e/5x5
I0922 13:45:20.656985 2063708928 net.cpp:419] inception_4e/relu_5x5 -> inception_4e/5x5 (in-place)
I0922 13:45:20.656992 2063708928 net.cpp:155] Setting up inception_4e/relu_5x5
I0922 13:45:20.656996 2063708928 net.cpp:163] Top shape: 10 128 14 14 (250880)
I0922 13:45:20.657002 2063708928 layer_factory.hpp:76] Creating layer inception_4e/pool
I0922 13:45:20.657008 2063708928 net.cpp:110] Creating Layer inception_4e/pool
I0922 13:45:20.657013 2063708928 net.cpp:477] inception_4e/pool <- inception_4d/output_inception_4d/output_0_split_3
I0922 13:45:20.657019 2063708928 net.cpp:433] inception_4e/pool -> inception_4e/pool
I0922 13:45:20.657029 2063708928 net.cpp:155] Setting up inception_4e/pool
I0922 13:45:20.657034 2063708928 net.cpp:163] Top shape: 10 528 14 14 (1034880)
I0922 13:45:20.657040 2063708928 layer_factory.hpp:76] Creating layer inception_4e/pool_proj
I0922 13:45:20.657049 2063708928 net.cpp:110] Creating Layer inception_4e/pool_proj
I0922 13:45:20.657054 2063708928 net.cpp:477] inception_4e/pool_proj <- inception_4e/pool
I0922 13:45:20.657060 2063708928 net.cpp:433] inception_4e/pool_proj -> inception_4e/pool_proj
I0922 13:45:20.657783 2063708928 net.cpp:155] Setting up inception_4e/pool_proj
I0922 13:45:20.657793 2063708928 net.cpp:163] Top shape: 10 128 14 14 (250880)
I0922 13:45:20.657801 2063708928 layer_factory.hpp:76] Creating layer inception_4e/relu_pool_proj
I0922 13:45:20.657809 2063708928 net.cpp:110] Creating Layer inception_4e/relu_pool_proj
I0922 13:45:20.657814 2063708928 net.cpp:477] inception_4e/relu_pool_proj <- inception_4e/pool_proj
I0922 13:45:20.657822 2063708928 net.cpp:419] inception_4e/relu_pool_proj -> inception_4e/pool_proj (in-place)
I0922 13:45:20.657829 2063708928 net.cpp:155] Setting up inception_4e/relu_pool_proj
I0922 13:45:20.657835 2063708928 net.cpp:163] Top shape: 10 128 14 14 (250880)
I0922 13:45:20.657840 2063708928 layer_factory.hpp:76] Creating layer inception_4e/output
I0922 13:45:20.657846 2063708928 net.cpp:110] Creating Layer inception_4e/output
I0922 13:45:20.657850 2063708928 net.cpp:477] inception_4e/output <- inception_4e/1x1
I0922 13:45:20.657855 2063708928 net.cpp:477] inception_4e/output <- inception_4e/3x3
I0922 13:45:20.657861 2063708928 net.cpp:477] inception_4e/output <- inception_4e/5x5
I0922 13:45:20.657866 2063708928 net.cpp:477] inception_4e/output <- inception_4e/pool_proj
I0922 13:45:20.657871 2063708928 net.cpp:433] inception_4e/output -> inception_4e/output
I0922 13:45:20.657879 2063708928 net.cpp:155] Setting up inception_4e/output
I0922 13:45:20.657884 2063708928 net.cpp:163] Top shape: 10 832 14 14 (1630720)
I0922 13:45:20.657889 2063708928 layer_factory.hpp:76] Creating layer pool4/3x3_s2
I0922 13:45:20.657896 2063708928 net.cpp:110] Creating Layer pool4/3x3_s2
I0922 13:45:20.657901 2063708928 net.cpp:477] pool4/3x3_s2 <- inception_4e/output
I0922 13:45:20.657907 2063708928 net.cpp:433] pool4/3x3_s2 -> pool4/3x3_s2
I0922 13:45:20.657914 2063708928 net.cpp:155] Setting up pool4/3x3_s2
I0922 13:45:20.657918 2063708928 net.cpp:163] Top shape: 10 832 7 7 (407680)
I0922 13:45:20.657924 2063708928 layer_factory.hpp:76] Creating layer pool4/3x3_s2_pool4/3x3_s2_0_split
I0922 13:45:20.657933 2063708928 net.cpp:110] Creating Layer pool4/3x3_s2_pool4/3x3_s2_0_split
I0922 13:45:20.657938 2063708928 net.cpp:477] pool4/3x3_s2_pool4/3x3_s2_0_split <- pool4/3x3_s2
I0922 13:45:20.657944 2063708928 net.cpp:433] pool4/3x3_s2_pool4/3x3_s2_0_split -> pool4/3x3_s2_pool4/3x3_s2_0_split_0
I0922 13:45:20.657963 2063708928 net.cpp:433] pool4/3x3_s2_pool4/3x3_s2_0_split -> pool4/3x3_s2_pool4/3x3_s2_0_split_1
I0922 13:45:20.657971 2063708928 net.cpp:433] pool4/3x3_s2_pool4/3x3_s2_0_split -> pool4/3x3_s2_pool4/3x3_s2_0_split_2
I0922 13:45:20.657980 2063708928 net.cpp:433] pool4/3x3_s2_pool4/3x3_s2_0_split -> pool4/3x3_s2_pool4/3x3_s2_0_split_3
I0922 13:45:20.657989 2063708928 net.cpp:155] Setting up pool4/3x3_s2_pool4/3x3_s2_0_split
I0922 13:45:20.657994 2063708928 net.cpp:163] Top shape: 10 832 7 7 (407680)
I0922 13:45:20.657999 2063708928 net.cpp:163] Top shape: 10 832 7 7 (407680)
I0922 13:45:20.658004 2063708928 net.cpp:163] Top shape: 10 832 7 7 (407680)
I0922 13:45:20.658010 2063708928 net.cpp:163] Top shape: 10 832 7 7 (407680)
I0922 13:45:20.658015 2063708928 layer_factory.hpp:76] Creating layer inception_5a/1x1
I0922 13:45:20.658025 2063708928 net.cpp:110] Creating Layer inception_5a/1x1
I0922 13:45:20.658030 2063708928 net.cpp:477] inception_5a/1x1 <- pool4/3x3_s2_pool4/3x3_s2_0_split_0
I0922 13:45:20.658035 2063708928 net.cpp:433] inception_5a/1x1 -> inception_5a/1x1
I0922 13:45:20.660022 2063708928 net.cpp:155] Setting up inception_5a/1x1
I0922 13:45:20.660043 2063708928 net.cpp:163] Top shape: 10 256 7 7 (125440)
I0922 13:45:20.660053 2063708928 layer_factory.hpp:76] Creating layer inception_5a/relu_1x1
I0922 13:45:20.660063 2063708928 net.cpp:110] Creating Layer inception_5a/relu_1x1
I0922 13:45:20.660069 2063708928 net.cpp:477] inception_5a/relu_1x1 <- inception_5a/1x1
I0922 13:45:20.660076 2063708928 net.cpp:419] inception_5a/relu_1x1 -> inception_5a/1x1 (in-place)
I0922 13:45:20.660085 2063708928 net.cpp:155] Setting up inception_5a/relu_1x1
I0922 13:45:20.660089 2063708928 net.cpp:163] Top shape: 10 256 7 7 (125440)
I0922 13:45:20.660095 2063708928 layer_factory.hpp:76] Creating layer inception_5a/3x3_reduce
I0922 13:45:20.660106 2063708928 net.cpp:110] Creating Layer inception_5a/3x3_reduce
I0922 13:45:20.660111 2063708928 net.cpp:477] inception_5a/3x3_reduce <- pool4/3x3_s2_pool4/3x3_s2_0_split_1
I0922 13:45:20.660120 2063708928 net.cpp:433] inception_5a/3x3_reduce -> inception_5a/3x3_reduce
I0922 13:45:20.661841 2063708928 net.cpp:155] Setting up inception_5a/3x3_reduce
I0922 13:45:20.661859 2063708928 net.cpp:163] Top shape: 10 160 7 7 (78400)
I0922 13:45:20.661871 2063708928 layer_factory.hpp:76] Creating layer inception_5a/relu_3x3_reduce
I0922 13:45:20.661883 2063708928 net.cpp:110] Creating Layer inception_5a/relu_3x3_reduce
I0922 13:45:20.661890 2063708928 net.cpp:477] inception_5a/relu_3x3_reduce <- inception_5a/3x3_reduce
I0922 13:45:20.661900 2063708928 net.cpp:419] inception_5a/relu_3x3_reduce -> inception_5a/3x3_reduce (in-place)
I0922 13:45:20.661908 2063708928 net.cpp:155] Setting up inception_5a/relu_3x3_reduce
I0922 13:45:20.661912 2063708928 net.cpp:163] Top shape: 10 160 7 7 (78400)
I0922 13:45:20.661918 2063708928 layer_factory.hpp:76] Creating layer inception_5a/3x3
I0922 13:45:20.661926 2063708928 net.cpp:110] Creating Layer inception_5a/3x3
I0922 13:45:20.661931 2063708928 net.cpp:477] inception_5a/3x3 <- inception_5a/3x3_reduce
I0922 13:45:20.661938 2063708928 net.cpp:433] inception_5a/3x3 -> inception_5a/3x3
I0922 13:45:20.666198 2063708928 net.cpp:155] Setting up inception_5a/3x3
I0922 13:45:20.666213 2063708928 net.cpp:163] Top shape: 10 320 7 7 (156800)
I0922 13:45:20.666224 2063708928 layer_factory.hpp:76] Creating layer inception_5a/relu_3x3
I0922 13:45:20.666231 2063708928 net.cpp:110] Creating Layer inception_5a/relu_3x3
I0922 13:45:20.666237 2063708928 net.cpp:477] inception_5a/relu_3x3 <- inception_5a/3x3
I0922 13:45:20.666244 2063708928 net.cpp:419] inception_5a/relu_3x3 -> inception_5a/3x3 (in-place)
I0922 13:45:20.666252 2063708928 net.cpp:155] Setting up inception_5a/relu_3x3
I0922 13:45:20.666257 2063708928 net.cpp:163] Top shape: 10 320 7 7 (156800)
I0922 13:45:20.666263 2063708928 layer_factory.hpp:76] Creating layer inception_5a/5x5_reduce
I0922 13:45:20.666271 2063708928 net.cpp:110] Creating Layer inception_5a/5x5_reduce
I0922 13:45:20.666290 2063708928 net.cpp:477] inception_5a/5x5_reduce <- pool4/3x3_s2_pool4/3x3_s2_0_split_2
I0922 13:45:20.666301 2063708928 net.cpp:433] inception_5a/5x5_reduce -> inception_5a/5x5_reduce
I0922 13:45:20.666560 2063708928 net.cpp:155] Setting up inception_5a/5x5_reduce
I0922 13:45:20.666566 2063708928 net.cpp:163] Top shape: 10 32 7 7 (15680)
I0922 13:45:20.666574 2063708928 layer_factory.hpp:76] Creating layer inception_5a/relu_5x5_reduce
I0922 13:45:20.666581 2063708928 net.cpp:110] Creating Layer inception_5a/relu_5x5_reduce
I0922 13:45:20.666586 2063708928 net.cpp:477] inception_5a/relu_5x5_reduce <- inception_5a/5x5_reduce
I0922 13:45:20.666592 2063708928 net.cpp:419] inception_5a/relu_5x5_reduce -> inception_5a/5x5_reduce (in-place)
I0922 13:45:20.666600 2063708928 net.cpp:155] Setting up inception_5a/relu_5x5_reduce
I0922 13:45:20.666604 2063708928 net.cpp:163] Top shape: 10 32 7 7 (15680)
I0922 13:45:20.666610 2063708928 layer_factory.hpp:76] Creating layer inception_5a/5x5
I0922 13:45:20.666616 2063708928 net.cpp:110] Creating Layer inception_5a/5x5
I0922 13:45:20.666621 2063708928 net.cpp:477] inception_5a/5x5 <- inception_5a/5x5_reduce
I0922 13:45:20.666628 2063708928 net.cpp:433] inception_5a/5x5 -> inception_5a/5x5
I0922 13:45:20.667600 2063708928 net.cpp:155] Setting up inception_5a/5x5
I0922 13:45:20.667609 2063708928 net.cpp:163] Top shape: 10 128 7 7 (62720)
I0922 13:45:20.667616 2063708928 layer_factory.hpp:76] Creating layer inception_5a/relu_5x5
I0922 13:45:20.667623 2063708928 net.cpp:110] Creating Layer inception_5a/relu_5x5
I0922 13:45:20.667628 2063708928 net.cpp:477] inception_5a/relu_5x5 <- inception_5a/5x5
I0922 13:45:20.667634 2063708928 net.cpp:419] inception_5a/relu_5x5 -> inception_5a/5x5 (in-place)
I0922 13:45:20.667640 2063708928 net.cpp:155] Setting up inception_5a/relu_5x5
I0922 13:45:20.667644 2063708928 net.cpp:163] Top shape: 10 128 7 7 (62720)
I0922 13:45:20.667650 2063708928 layer_factory.hpp:76] Creating layer inception_5a/pool
I0922 13:45:20.667672 2063708928 net.cpp:110] Creating Layer inception_5a/pool
I0922 13:45:20.667677 2063708928 net.cpp:477] inception_5a/pool <- pool4/3x3_s2_pool4/3x3_s2_0_split_3
I0922 13:45:20.667683 2063708928 net.cpp:433] inception_5a/pool -> inception_5a/pool
I0922 13:45:20.667693 2063708928 net.cpp:155] Setting up inception_5a/pool
I0922 13:45:20.667697 2063708928 net.cpp:163] Top shape: 10 832 7 7 (407680)
I0922 13:45:20.667704 2063708928 layer_factory.hpp:76] Creating layer inception_5a/pool_proj
I0922 13:45:20.667714 2063708928 net.cpp:110] Creating Layer inception_5a/pool_proj
I0922 13:45:20.667719 2063708928 net.cpp:477] inception_5a/pool_proj <- inception_5a/pool
I0922 13:45:20.667726 2063708928 net.cpp:433] inception_5a/pool_proj -> inception_5a/pool_proj
I0922 13:45:20.668795 2063708928 net.cpp:155] Setting up inception_5a/pool_proj
I0922 13:45:20.668804 2063708928 net.cpp:163] Top shape: 10 128 7 7 (62720)
I0922 13:45:20.668812 2063708928 layer_factory.hpp:76] Creating layer inception_5a/relu_pool_proj
I0922 13:45:20.668819 2063708928 net.cpp:110] Creating Layer inception_5a/relu_pool_proj
I0922 13:45:20.668824 2063708928 net.cpp:477] inception_5a/relu_pool_proj <- inception_5a/pool_proj
I0922 13:45:20.668830 2063708928 net.cpp:419] inception_5a/relu_pool_proj -> inception_5a/pool_proj (in-place)
I0922 13:45:20.668838 2063708928 net.cpp:155] Setting up inception_5a/relu_pool_proj
I0922 13:45:20.668841 2063708928 net.cpp:163] Top shape: 10 128 7 7 (62720)
I0922 13:45:20.668848 2063708928 layer_factory.hpp:76] Creating layer inception_5a/output
I0922 13:45:20.668853 2063708928 net.cpp:110] Creating Layer inception_5a/output
I0922 13:45:20.668859 2063708928 net.cpp:477] inception_5a/output <- inception_5a/1x1
I0922 13:45:20.668864 2063708928 net.cpp:477] inception_5a/output <- inception_5a/3x3
I0922 13:45:20.668869 2063708928 net.cpp:477] inception_5a/output <- inception_5a/5x5
I0922 13:45:20.668874 2063708928 net.cpp:477] inception_5a/output <- inception_5a/pool_proj
I0922 13:45:20.668879 2063708928 net.cpp:433] inception_5a/output -> inception_5a/output
I0922 13:45:20.668895 2063708928 net.cpp:155] Setting up inception_5a/output
I0922 13:45:20.668900 2063708928 net.cpp:163] Top shape: 10 832 7 7 (407680)
I0922 13:45:20.668906 2063708928 layer_factory.hpp:76] Creating layer inception_5a/output_inception_5a/output_0_split
I0922 13:45:20.668913 2063708928 net.cpp:110] Creating Layer inception_5a/output_inception_5a/output_0_split
I0922 13:45:20.668918 2063708928 net.cpp:477] inception_5a/output_inception_5a/output_0_split <- inception_5a/output
I0922 13:45:20.668927 2063708928 net.cpp:433] inception_5a/output_inception_5a/output_0_split -> inception_5a/output_inception_5a/output_0_split_0
I0922 13:45:20.668936 2063708928 net.cpp:433] inception_5a/output_inception_5a/output_0_split -> inception_5a/output_inception_5a/output_0_split_1
I0922 13:45:20.668946 2063708928 net.cpp:433] inception_5a/output_inception_5a/output_0_split -> inception_5a/output_inception_5a/output_0_split_2
I0922 13:45:20.668954 2063708928 net.cpp:433] inception_5a/output_inception_5a/output_0_split -> inception_5a/output_inception_5a/output_0_split_3
I0922 13:45:20.668963 2063708928 net.cpp:155] Setting up inception_5a/output_inception_5a/output_0_split
I0922 13:45:20.668968 2063708928 net.cpp:163] Top shape: 10 832 7 7 (407680)
I0922 13:45:20.668973 2063708928 net.cpp:163] Top shape: 10 832 7 7 (407680)
I0922 13:45:20.668978 2063708928 net.cpp:163] Top shape: 10 832 7 7 (407680)
I0922 13:45:20.668983 2063708928 net.cpp:163] Top shape: 10 832 7 7 (407680)
I0922 13:45:20.668988 2063708928 layer_factory.hpp:76] Creating layer inception_5b/1x1
I0922 13:45:20.668995 2063708928 net.cpp:110] Creating Layer inception_5b/1x1
I0922 13:45:20.669000 2063708928 net.cpp:477] inception_5b/1x1 <- inception_5a/output_inception_5a/output_0_split_0
I0922 13:45:20.669009 2063708928 net.cpp:433] inception_5b/1x1 -> inception_5b/1x1
I0922 13:45:20.672514 2063708928 net.cpp:155] Setting up inception_5b/1x1
I0922 13:45:20.672534 2063708928 net.cpp:163] Top shape: 10 384 7 7 (188160)
I0922 13:45:20.672545 2063708928 layer_factory.hpp:76] Creating layer inception_5b/relu_1x1
I0922 13:45:20.672554 2063708928 net.cpp:110] Creating Layer inception_5b/relu_1x1
I0922 13:45:20.672561 2063708928 net.cpp:477] inception_5b/relu_1x1 <- inception_5b/1x1
I0922 13:45:20.672569 2063708928 net.cpp:419] inception_5b/relu_1x1 -> inception_5b/1x1 (in-place)
I0922 13:45:20.672577 2063708928 net.cpp:155] Setting up inception_5b/relu_1x1
I0922 13:45:20.672582 2063708928 net.cpp:163] Top shape: 10 384 7 7 (188160)
I0922 13:45:20.672588 2063708928 layer_factory.hpp:76] Creating layer inception_5b/3x3_reduce
I0922 13:45:20.672596 2063708928 net.cpp:110] Creating Layer inception_5b/3x3_reduce
I0922 13:45:20.672601 2063708928 net.cpp:477] inception_5b/3x3_reduce <- inception_5a/output_inception_5a/output_0_split_1
I0922 13:45:20.672610 2063708928 net.cpp:433] inception_5b/3x3_reduce -> inception_5b/3x3_reduce
I0922 13:45:20.674145 2063708928 net.cpp:155] Setting up inception_5b/3x3_reduce
I0922 13:45:20.674154 2063708928 net.cpp:163] Top shape: 10 192 7 7 (94080)
I0922 13:45:20.674163 2063708928 layer_factory.hpp:76] Creating layer inception_5b/relu_3x3_reduce
I0922 13:45:20.674170 2063708928 net.cpp:110] Creating Layer inception_5b/relu_3x3_reduce
I0922 13:45:20.674175 2063708928 net.cpp:477] inception_5b/relu_3x3_reduce <- inception_5b/3x3_reduce
I0922 13:45:20.674182 2063708928 net.cpp:419] inception_5b/relu_3x3_reduce -> inception_5b/3x3_reduce (in-place)
I0922 13:45:20.674190 2063708928 net.cpp:155] Setting up inception_5b/relu_3x3_reduce
I0922 13:45:20.674195 2063708928 net.cpp:163] Top shape: 10 192 7 7 (94080)
I0922 13:45:20.674199 2063708928 layer_factory.hpp:76] Creating layer inception_5b/3x3
I0922 13:45:20.674209 2063708928 net.cpp:110] Creating Layer inception_5b/3x3
I0922 13:45:20.674214 2063708928 net.cpp:477] inception_5b/3x3 <- inception_5b/3x3_reduce
I0922 13:45:20.674221 2063708928 net.cpp:433] inception_5b/3x3 -> inception_5b/3x3
I0922 13:45:20.679574 2063708928 net.cpp:155] Setting up inception_5b/3x3
I0922 13:45:20.679600 2063708928 net.cpp:163] Top shape: 10 384 7 7 (188160)
I0922 13:45:20.679610 2063708928 layer_factory.hpp:76] Creating layer inception_5b/relu_3x3
I0922 13:45:20.679618 2063708928 net.cpp:110] Creating Layer inception_5b/relu_3x3
I0922 13:45:20.679625 2063708928 net.cpp:477] inception_5b/relu_3x3 <- inception_5b/3x3
I0922 13:45:20.679630 2063708928 net.cpp:419] inception_5b/relu_3x3 -> inception_5b/3x3 (in-place)
I0922 13:45:20.679638 2063708928 net.cpp:155] Setting up inception_5b/relu_3x3
I0922 13:45:20.679642 2063708928 net.cpp:163] Top shape: 10 384 7 7 (188160)
I0922 13:45:20.679648 2063708928 layer_factory.hpp:76] Creating layer inception_5b/5x5_reduce
I0922 13:45:20.679661 2063708928 net.cpp:110] Creating Layer inception_5b/5x5_reduce
I0922 13:45:20.679666 2063708928 net.cpp:477] inception_5b/5x5_reduce <- inception_5a/output_inception_5a/output_0_split_2
I0922 13:45:20.679672 2063708928 net.cpp:433] inception_5b/5x5_reduce -> inception_5b/5x5_reduce
I0922 13:45:20.680100 2063708928 net.cpp:155] Setting up inception_5b/5x5_reduce
I0922 13:45:20.680109 2063708928 net.cpp:163] Top shape: 10 48 7 7 (23520)
I0922 13:45:20.680116 2063708928 layer_factory.hpp:76] Creating layer inception_5b/relu_5x5_reduce
I0922 13:45:20.680124 2063708928 net.cpp:110] Creating Layer inception_5b/relu_5x5_reduce
I0922 13:45:20.680130 2063708928 net.cpp:477] inception_5b/relu_5x5_reduce <- inception_5b/5x5_reduce
I0922 13:45:20.680138 2063708928 net.cpp:419] inception_5b/relu_5x5_reduce -> inception_5b/5x5_reduce (in-place)
I0922 13:45:20.680145 2063708928 net.cpp:155] Setting up inception_5b/relu_5x5_reduce
I0922 13:45:20.680150 2063708928 net.cpp:163] Top shape: 10 48 7 7 (23520)
I0922 13:45:20.680155 2063708928 layer_factory.hpp:76] Creating layer inception_5b/5x5
I0922 13:45:20.680162 2063708928 net.cpp:110] Creating Layer inception_5b/5x5
I0922 13:45:20.680167 2063708928 net.cpp:477] inception_5b/5x5 <- inception_5b/5x5_reduce
I0922 13:45:20.680174 2063708928 net.cpp:433] inception_5b/5x5 -> inception_5b/5x5
I0922 13:45:20.681627 2063708928 net.cpp:155] Setting up inception_5b/5x5
I0922 13:45:20.681637 2063708928 net.cpp:163] Top shape: 10 128 7 7 (62720)
I0922 13:45:20.681644 2063708928 layer_factory.hpp:76] Creating layer inception_5b/relu_5x5
I0922 13:45:20.681653 2063708928 net.cpp:110] Creating Layer inception_5b/relu_5x5
I0922 13:45:20.681659 2063708928 net.cpp:477] inception_5b/relu_5x5 <- inception_5b/5x5
I0922 13:45:20.681664 2063708928 net.cpp:419] inception_5b/relu_5x5 -> inception_5b/5x5 (in-place)
I0922 13:45:20.681671 2063708928 net.cpp:155] Setting up inception_5b/relu_5x5
I0922 13:45:20.681676 2063708928 net.cpp:163] Top shape: 10 128 7 7 (62720)
I0922 13:45:20.681681 2063708928 layer_factory.hpp:76] Creating layer inception_5b/pool
I0922 13:45:20.681689 2063708928 net.cpp:110] Creating Layer inception_5b/pool
I0922 13:45:20.681694 2063708928 net.cpp:477] inception_5b/pool <- inception_5a/output_inception_5a/output_0_split_3
I0922 13:45:20.681699 2063708928 net.cpp:433] inception_5b/pool -> inception_5b/pool
I0922 13:45:20.681709 2063708928 net.cpp:155] Setting up inception_5b/pool
I0922 13:45:20.681713 2063708928 net.cpp:163] Top shape: 10 832 7 7 (407680)
I0922 13:45:20.681718 2063708928 layer_factory.hpp:76] Creating layer inception_5b/pool_proj
I0922 13:45:20.681727 2063708928 net.cpp:110] Creating Layer inception_5b/pool_proj
I0922 13:45:20.681732 2063708928 net.cpp:477] inception_5b/pool_proj <- inception_5b/pool
I0922 13:45:20.681738 2063708928 net.cpp:433] inception_5b/pool_proj -> inception_5b/pool_proj
I0922 13:45:20.682817 2063708928 net.cpp:155] Setting up inception_5b/pool_proj
I0922 13:45:20.682826 2063708928 net.cpp:163] Top shape: 10 128 7 7 (62720)
I0922 13:45:20.682834 2063708928 layer_factory.hpp:76] Creating layer inception_5b/relu_pool_proj
I0922 13:45:20.682842 2063708928 net.cpp:110] Creating Layer inception_5b/relu_pool_proj
I0922 13:45:20.682847 2063708928 net.cpp:477] inception_5b/relu_pool_proj <- inception_5b/pool_proj
I0922 13:45:20.682854 2063708928 net.cpp:419] inception_5b/relu_pool_proj -> inception_5b/pool_proj (in-place)
I0922 13:45:20.682871 2063708928 net.cpp:155] Setting up inception_5b/relu_pool_proj
I0922 13:45:20.682876 2063708928 net.cpp:163] Top shape: 10 128 7 7 (62720)
I0922 13:45:20.682883 2063708928 layer_factory.hpp:76] Creating layer inception_5b/output
I0922 13:45:20.682888 2063708928 net.cpp:110] Creating Layer inception_5b/output
I0922 13:45:20.682893 2063708928 net.cpp:477] inception_5b/output <- inception_5b/1x1
I0922 13:45:20.682898 2063708928 net.cpp:477] inception_5b/output <- inception_5b/3x3
I0922 13:45:20.682904 2063708928 net.cpp:477] inception_5b/output <- inception_5b/5x5
I0922 13:45:20.682909 2063708928 net.cpp:477] inception_5b/output <- inception_5b/pool_proj
I0922 13:45:20.682914 2063708928 net.cpp:433] inception_5b/output -> inception_5b/output
I0922 13:45:20.682922 2063708928 net.cpp:155] Setting up inception_5b/output
I0922 13:45:20.682926 2063708928 net.cpp:163] Top shape: 10 1024 7 7 (501760)
I0922 13:45:20.682932 2063708928 layer_factory.hpp:76] Creating layer pool5/7x7_s1
I0922 13:45:20.682939 2063708928 net.cpp:110] Creating Layer pool5/7x7_s1
I0922 13:45:20.682942 2063708928 net.cpp:477] pool5/7x7_s1 <- inception_5b/output
I0922 13:45:20.682948 2063708928 net.cpp:433] pool5/7x7_s1 -> pool5/7x7_s1
I0922 13:45:20.682956 2063708928 net.cpp:155] Setting up pool5/7x7_s1
I0922 13:45:20.682960 2063708928 net.cpp:163] Top shape: 10 1024 1 1 (10240)
I0922 13:45:20.682966 2063708928 layer_factory.hpp:76] Creating layer pool5/drop_7x7_s1
I0922 13:45:20.682972 2063708928 net.cpp:110] Creating Layer pool5/drop_7x7_s1
I0922 13:45:20.682979 2063708928 net.cpp:477] pool5/drop_7x7_s1 <- pool5/7x7_s1
I0922 13:45:20.682987 2063708928 net.cpp:433] pool5/drop_7x7_s1 -> dropout/pool5/7x7_s1
I0922 13:45:20.682996 2063708928 net.cpp:155] Setting up pool5/drop_7x7_s1
I0922 13:45:20.683001 2063708928 net.cpp:163] Top shape: 10 1024 1 1 (10240)
I0922 13:45:20.683006 2063708928 layer_factory.hpp:76] Creating layer loss3/classifier
I0922 13:45:20.683013 2063708928 net.cpp:110] Creating Layer loss3/classifier
I0922 13:45:20.683017 2063708928 net.cpp:477] loss3/classifier <- dropout/pool5/7x7_s1
I0922 13:45:20.683024 2063708928 net.cpp:433] loss3/classifier -> loss3/classifier
I0922 13:45:20.695605 2063708928 net.cpp:155] Setting up loss3/classifier
I0922 13:45:20.695622 2063708928 net.cpp:163] Top shape: 10 1000 (10000)
I0922 13:45:20.695632 2063708928 layer_factory.hpp:76] Creating layer prob
I0922 13:45:20.695641 2063708928 net.cpp:110] Creating Layer prob
I0922 13:45:20.695648 2063708928 net.cpp:477] prob <- loss3/classifier
I0922 13:45:20.695658 2063708928 net.cpp:433] prob -> prob
I0922 13:45:20.695672 2063708928 net.cpp:155] Setting up prob
I0922 13:45:20.695677 2063708928 net.cpp:163] Top shape: 10 1000 (10000)
I0922 13:45:20.695683 2063708928 net.cpp:240] prob does not need backward computation.
I0922 13:45:20.695688 2063708928 net.cpp:240] loss3/classifier does not need backward computation.
I0922 13:45:20.695691 2063708928 net.cpp:240] pool5/drop_7x7_s1 does not need backward computation.
I0922 13:45:20.695696 2063708928 net.cpp:240] pool5/7x7_s1 does not need backward computation.
I0922 13:45:20.695701 2063708928 net.cpp:240] inception_5b/output does not need backward computation.
…
